000002.SZ_stock_model.pth (torch, 205359 bytes, 9 tensors)

rnn.weight_ih_l0 f4 [256, 1]
0.20584075 0.19251744 0.17637476 0.1779624 -0.057928458 0.19137956 -0.057533287 0.18274133
0.008443954 0.168305 0.15641476 0.045981616 0.22895682 0.19358307 0.24376914 0.100320615
0.21834648 0.15457423 -0.19838281 0.23864278 0.12981886 0.16832882 0.04826943 0.2584118
-0.025678515 0.039829493 0.19685233 0.25851044 0.12464361 0.07303683 0.106096655 0.046242952
0.18200976 0.20583588 0.087408975 0.23144563 0.20519525 0.12980281 0.11725914 0.1918654
0.048266683 0.026535839 0.13624373 0.19458108 0.041586384 0.2590326 0.22679524 0.10380148
0.03611011 0.18490675 0.23656312 0.08015937 0.19482945 0.0128741395 0.07366637 0.036397222
0.07326746 0.16079123 -0.04276846 0.17475718 0.22112997 -0.0104562575 0.12926687 0.10785308
0.1738112 0.123956025 -0.146392 0.063159026 -0.02160058 0.110445 0.043690603 0.13195731
-0.029187907 0.03431438 -0.018794427 0.048062112 0.0016449933 -0.08395609 0.07301256 -0.028592166
0.12538303 0.003979497 -0.12477792 -0.042930063 -0.114021786 0.17776111 -0.017346367 0.104581326
0.07593482 0.111917585 -0.046130307 -0.05692685 0.11311432 0.19230141 0.13247685 -0.054628838
-0.06071851 -0.0070038056 0.17131868 0.12564833 0.17416373 0.05528126 0.041155152 0.13144167
0.19277342 0.11183656 0.14655827 0.02781028 0.08597387 0.14159493 -0.021206751 0.13755777
-0.058226883 0.17620306 0.14176542 0.058955256 0.08584539 0.06722676 0.053984772 0.019973947
0.054589145 0.07161598 -0.0065811314 0.04699414 0.0749289 0.14226519 0.037700348 0.10662783
-0.031132992 0.15869564 -0.23759791 0.13481107 0.07438874 -0.048304256 0.0042401077 -0.00043526664
0.23724455 -0.09674285 -0.22268906 -0.049674135 -0.19955494 -0.20397906 -0.25350863 -0.26486123
0.12212361 0.08264459 -0.2021896 0.23038271 -0.22097391 -0.08732022 0.23226613 -0.15163094
-0.039650314 -0.12448723 0.012090024 -0.18891752 0.25962278 0.07024908 0.12417728 -0.11677057
0.06141182 0.22144663 0.0278924 0.13850999 -0.13163182 0.17366055 0.062118188 -0.25600228
0.12868503 -0.24787192 -0.09338699 -0.26237687 -0.13649608 -0.16642107 -0.19614859 -0.07026654
0.2347806 -0.07069082 -0.25260088 -0.24410492 -0.13843529 -0.018269489 0.078923576 0.042883985
0.12670879 -0.19050932 -0.07188476 -0.0710945 0.24492297 0.025977574 -0.08778044 0.013026623
0.10912743 0.13293408 -0.038038895 0.26614788 0.076804906 -0.004384374 0.062882945 0.0020485157
0.24662036 0.019682301 0.0404714 0.10426598 0.090614274 0.19234274 0.08618538 0.22001173
0.11171079 0.16390492 -0.2438699 0.22615731 0.106147945 0.1500968 0.1899808 0.2319426
-0.0035496643 0.071517736 0.1089189 0.20653223 0.18856628 0.22440383 0.06936094 0.032590568
0.02689466 0.15303932 0.20017341 0.17964907 0.017467314 0.15003204 0.07858076 0.15485534
0.06184436 0.15701622 0.24570048 0.11897175 0.20429972 0.04392228 0.07202306 0.08809999
0.0060076998 0.045776192 0.013198601 0.09533851 0.1203705 -0.06095212 0.052322626 0.11275047
0.16437054 0.25939378 0.14377171 0.10885026 0.22521287 0.1487863 0.069479 -0.00607954
00000000: ebc7 523e 4b23 453e 969b 343e c63b 363e
00000010: 6446 6dbd 01f9 433e 06a8 6bbd 8b20 3b3e
00000020: 8358 0a3c 2558 2c3e 312b 203e 3857 3c3d
00000030: a873 6a3e a43a 463e 9e9e 793e e574 cd3d
00000040: 3896 5f3e b548 1e3e dd24 4bbe c65e 743e
00000050: 3cef 043e 645e 2c3e 2ab6 453d 8d4e 843e
00000060: c05b d2bc 4024 233d a893 493e 7b5b 843e
00000070: 2645 ff3d 5594 953d 3449 d93d 4069 3d3d
00000080: c460 3a3e a4c6 523e 7a03 b33d 1500 6d3e
00000090: b41e 523e 07eb 043e 8f25 f03d 5d78 443e
000000a0: 49b3 453d b061 d93c 7a83 0b3e 4340 473e
000000b0: 7c56 2a3d ec9f 843e 033d 683e df95 d43d
000000c0: 32e8 133d 3258 3d3e 9a3d 723e 992a a43d
000000d0: 5f81 473e 0eee 523c 65de 963d 4115 153d
000000e0: 400d 963d 75a6 243e fb2d 2fbd 8cf3 323e
000000f0: e56f 623e b950 2bbc 895e 043e 13e2 dc3d
00000100: 90fb 313e a8dc fd3d c9e7 15be 8559 813d
00000110: b3f3 b0bc fd30 e23d ebf4 323d d11f 073e
00000120: 7a1b efbc 3c8d 0c3d c5f6 99bc c7dc 443d
00000130: d19c d73a 2cf1 abbd 9c87 953d 1e3a eabc
00000140: 6964 003e 7166 823b 918b ffbd 6fd7 2fbd
00000150: 4184 e9bd 0207 363e f819 8ebc bc2e d63d
00000160: b783 9b3d 0c35 e53d 22f3 3cbd 212c 69bd
00000170: 7ba8 e73d a9ea 443e 03a8 073e 7dc2 5fbd
00000180: f9b3 78bd 2e80 e5bb 2a6e 2f3e f5a9 003e
00000190: fa57 323e 9a6e 623d 4e92 283d a598 063e
000001a0: 6566 453e 910a e53d 5f13 163e 62d2 e33c
000001b0: 1113 b03d 43fe 103e c8b9 adbc f2db 0c3e
000001c0: 507f 6ebd 936e 343e f42a 113e 117b 713d
000001d0: b5cf af3d 2fae 893d 231f 5d3d 67a0 a33c
000001e0: de98 5f3d 66ab 923d 88a6 d7bb ed7c 403d
000001f0: 5374 993d f7ad 113e ae6b 1a3d b15f da3d
00000200: 9e0a ffbc 1c81 223e de4c 73be ea0b 0a3e
00000210: 2059 983d afda 45bd 9af0 8a3b 8034 e4b9
00000220: 3cf0 723e 1e21 c6bd 9a08 64be 1b77 4bbd
00000230: 2158 4cbe e3df 50be e2cb 81be e49b 87be
00000240: f11b fa3d 9141 a93d ca0a 4fbe 72e9 6b3e
00000250: fc46 62be f2d4 b2bd 2cd7 6d3e 2445 1bbe
00000260: 5e68 22bd 29f3 febd 3c15 463c 9873 41be
00000270: 47ed 843e c0de 8f3d a850 fe3d 6925 efbd
00000280: f68a 7b3d e8c2 623e 9a7e e43c 90d5 0d3e
00000290: 7eca 06be 12d4 313e a46f 7e3d bb12 83be
000002a0: 02c6 033e 23d2 7dbe ae41 bfbd 4356 86be
000002b0: a1c5 0bbe 496a 2abe 2ddb 48be e7e7 8fbd
000002c0: 536a 703e 59c6 90bd e754 81be a4f6 79be
000002d0: fbc1 0dbe e5a9 95bc afa2 a13d 1ea7 2f3d
000002e0: f3bf 013e e014 43be 5138 93bd fe99 91bd
000002f0: 16cd 7a3e ecce d43c 3bc6 b3bd 9e6d 553c
00000300: 347e df3d df1f 083e acce 1bbd 8944 883e
00000310: e44b 9d3d cbaa 8fbb c6c8 803d 6440 063b
00000320: 0c8a 7c3e c73c a13c 57c5 253d 6789 d53d
00000330: fa93 b93d 7ff5 443e f681 b03d c14a 613e
00000340: a0c8 e43d b1d6 273e 08b9 79be c895 673e
00000350: 1864 d93d fab2 193e 548a 423e 5c82 6d3e
00000360: 7ca1 68bb e477 923d df10 df3d 2f7d 533e
00000370: 8517 413e 1eca 653e 1c0d 8e3d b07d 053d
00000380: 3152 dc3c 57b6 1c3e 42fa 4c3e edf5 373e
00000390: 9d17 8f3c 00a2 193e f3ee a03d 6692 1e3e
000003a0: 8350 7d3d dcc8 203e e898 7b3e 76a7 f33d
000003b0: f233 513e d9e7 333d d380 933d c46d b43d
000003c0: 3ddc c43b d17f 3b3d f23e 583c d640 c33d
000003d0: cf84 f63d eea8 79bd 4050 563d b8e9 e63d
000003e0: c050 283e 43cf 843e e438 133e e3ec de3d
000003f0: 349e 663e 705b 183e 024b 8e3d e136 c7bb

rnn.weight_hh_l0 f4 [256, 64]
-0.05401323 -0.02324575 -0.15627395 0.057111286 0.057591435 0.06543593 -0.02714333 -0.15182358
0.05933287 -0.017829396 -0.17470282 -0.02149299 0.037238367 0.09412849 -0.031764068 -0.019190334
0.10101903 -0.12365819 -0.08702946 0.08668381 -0.16001491 -0.037227467 0.01720941 0.041033186
-0.0074843983 0.07612648 0.12644234 -0.17253275 -0.09450582 0.07345468 0.047792047 0.044862233
-0.03117078 0.110917404 0.052742194 0.10272823 -0.033416416 0.0011282311 -0.10924987 0.08643067
-0.11552926 -0.02484722 0.1369275 -0.08706944 -0.015712254 0.0046305982 -0.00052932854 0.06456576
0.061640717 -0.003884283 0.06159616 0.019627612 0.13218683 0.032373562 0.02008364 0.004709327
-0.058922723 -0.037181333 0.0073301387 0.03139625 -0.03908059 -0.03387625 -0.079019725 0.00092676474
-0.0056965253 0.010362006 0.047453713 -0.01533358 -0.04434989 0.102293745 0.11207531 0.14628987
-0.055234358 0.0037503163 -0.094294004 0.016989255 -0.05814923 0.05617623 -0.06481083 -0.0021289382
0.030097522 -0.008230082 0.15726708 -0.07142611 -0.10124306 -0.027004734 -0.113800436 -0.1265375
0.00029053082 0.006852577 -0.10667718 0.018488893 -0.102924086 -0.00354592 -0.062942505 -0.014955623
-0.025699764 -0.020740516 0.0062366407 -0.068363786 -0.009172873 0.11079176 -0.0016795452 0.12731515
0.02931183 0.12244456 -0.026272295 -0.027332624 -0.01898838 -0.0115883835 0.09743164 0.0043895757
-0.073016584 0.020804137 -0.054557845 0.106138766 0.0047103288 -0.02330428 -0.029829532 -0.078716725
-0.044746116 0.089770444 -0.033791844 -0.06328686 -0.0008679105 0.025592607 -0.014092124 0.048529614
0.1613544 0.13721533 0.124980636 0.19161622 -0.22209714 -0.052925814 0.19946936 0.1277523
0.13546558 -0.047324456 0.08294456 -0.08993433 -0.074171 0.020172942 -0.002039349 -0.097667746
0.10396342 -0.00016419467 0.15373743 0.16360918 0.096135445 -0.019274047 -0.05766893 -0.10380559
0.012788187 0.021232976 -0.08676463 0.0042956956 0.056872558 0.21476004 0.17704391 0.23141634
-0.17400439 0.020452593 0.1295693 0.21186909 -0.12826851 -0.05004108 0.11109106 0.10798232
0.0012253697 -0.08441515 -0.18063907 -0.1379466 -0.17612807 -0.12399864 -0.08056304 -0.018464455
-0.11127156 -0.18722945 0.054982867 0.11508734 -0.17374861 0.10645082 -0.056592576 0.11895174
0.16346222 0.088631995 0.21848404 -0.07190197 0.054148775 -0.103283025 -0.056238543 -0.053750698
0.08861694 -0.04703761 -0.035601936 0.027392803 -0.07809996 0.05779839 0.029059859 -0.108176194
0.10617985 -0.03576097 0.033911303 0.057122923 0.053919517 0.016753122 0.10060282 0.04231765
-0.10736736 0.08729755 0.01941473 -0.059327006 -0.0071882154 0.07088261 0.007311641 -0.111789875
-0.02860431 0.024779473 -0.060661487 -0.04788241 -0.053493883 -0.06537974 0.00905863 -0.11783656
0.03814342 -0.058689564 0.0132016875 0.0031046593 -0.056061 -0.0019488549 -0.09803778 -0.03942941
-0.09452512 -0.06565426 0.096110076 -0.09328526 0.09033964 0.020832308 0.1367711 0.025118452
0.038046695 -0.057649095 0.046067074 -0.08167818 -0.08826084 0.006739187 0.1077774 -0.019058116
0.085552506 -0.07981343 -0.0918074 -0.08058319 -0.04790042 0.11232989 -0.027367862 -0.019299699
00000000: fa3c 5dbd df6d bebc 4706 20be 86ed 693d
00000010: ffe4 6b3d 4603 863d b05b debc a477 1bbe
00000020: 0607 733d f40e 92bc 4ce5 32be 1112 b0bc
00000030: 4287 183d 70c6 c03d 0a1b 02bd 0c35 9dbc
00000040: 11e3 ce3d 8140 fdbd 803c b2bd 4887 b13d
00000050: f3da 23be d47b 18bd c0fa 8c3c 6a12 283d
00000060: af3f f5bb 33e8 9b3d 1a7a 013e 6dac 30be
00000070: 448c c1bd 686f 963d 98c1 433d 76c1 373d
00000080: dd59 ffbc aa28 e33d 3308 583d 2e63 d23d
00000090: a7df 08bd 27e1 933a 65be dfbd 9002 b13d
000000a0: 9b9a ecbd 668c cbbc b936 0c3e 7651 b2bd
000000b0: fcb6 80bc 46bc 973b a3c2 0aba 0e3b 843d
000000c0: fa7a 7c3d 748f 7ebb 414c 7c3d 16ca a03c
000000d0: fc5b 073e 249a 043d 7286 a43c b350 9a3b
000000e0: f458 71bd 744b 18bd a931 f03b 5b99 003d
000000f0: f812 20bd d3c1 0abd 18d5 a1bd 21f2 723a
00000100: eba9 babb 67c5 293c d35e 423d b239 7bbc
00000110: 3ba8 35bd 627f d13d bd87 e53d 03cd 153e
00000120: 6c3d 62bd dec7 753b 371d c1bd 0d2d 8b3c
00000130: e32d 6ebd 0c19 663d 8abb 84bd a885 0bbb
00000140: 148f f63c 77d7 06bc 9f0a 213e da47 92bd
00000150: 8558 cfbd 0839 ddbc 3410 e9bd 0c93 01be
00000160: 6352 9839 958b e03b 9179 dabd 0576 973c
00000170: ddc9 d2bd aa62 68bb 00e8 80bd 6e08 75bc
00000180: 5088 d2bc 04e8 a9bc bc5c cc3b 5002 8cbd
00000190: d149 16bc cae6 e23d 2f24 dcba e75e 023e
000001a0: 5d1f f03c 37c4 fa3d ff38 d7bc abe8 dfbc
000001b0: 858d 9bbc 34dd 3dbc 3d8a c73d 6ed6 8f3b
000001c0: b889 95bd 706d aa3c 0c78 5fbd 485f d93d
000001d0: 1a59 9a3b 9ee8 bebc 105d f4bc 3c36 a1bd
000001e0: b447 37bd 91d9 b73d 5169 0abd 8b9c 81bd
000001f0: 7d84 63ba 96a7 d13c a7e2 66bc fdc6 463d
00000200: 163a 253e 2d82 0c3e d9f5 ff3d 0b37 443e
00000210: 6f6d 63be bdc8 58bd b241 4c3e 80d1 023e
00000220: 7db7 0a3e 4ad7 41bd d6de a93d 7d2f b8bd
00000230: f7e6 97bd ba41 a53c 99a6 05bb 0706 c8bd
00000240: c6ea d43d ac2b 2cb9 586d 1d3e 2a89 273e
00000250: a9e2 c43d 9be4 9dbc 4236 6cbd 0698 d4bd
00000260: 8b85 513c c7f0 ad3c a8b1 b1bd e8c2 8c3b
00000270: 33f3 683d 0eea 5b3e 004b 353e 68f8 6c3e
00000280: 352e 32be 328c a73c d1ad 043e 36f4 583e
00000290: d258 03be e0f7 4cbd b683 e33d d625 dd3d
000002a0: 969c a03a dae1 acbd 73f9 38be e041 0dbe
000002b0: eb5a 34be 00f3 fdbd 3cfe a4bd c542 97bc
000002c0: 58e2 e3bd 14b9 3fbe b735 613d e9b2 eb3d
000002d0: 28eb 31be e302 da3d 9ecd 67bd f89c f33d
000002e0: a462 273e b184 b53d 48ba 5f3e 5741 93bd
000002f0: 1bcb 5d3d 0d86 d3bd 635a 66bd b129 5cbd
00000300: cc7c b53d 82aa 40bd 56d3 11bd df66 e03c
00000310: dff2 9fbd 01be 6c3d f10e ee3c 7b8b ddbd
00000320: d274 d93d 187a 12bd 94e6 0a3d baf9 693d
00000330: b6da 5c3d d83d 893c da08 ce3d 4655 2d3d
00000340: 6be3 dbbd 0fc9 b23d a40b 9f3c e000 73bd
00000350: 1f8b ebbb e72a 913d 7d96 ef3b 17f2 e4bd
00000360: 9653 eabc 52fe ca3c 2e78 78bd 5920 44bd
00000370: 671c 5bbd d0e5 85bd a66a 143c 4b54 f1bd
00000380: 463c 1c3d 7864 70bd e44b 583c 8a77 4b3b
00000390: 38a0 65bd b870 ffba 08c8 c8bd bc80 21bd
000003a0: 6396 c1bd be75 86bd 5cd5 c43d 580c bfbd
000003b0: fd03 b93d 84a8 aa3c b90d 0c3e 36c5 cd3c
000003c0: dad6 1b3d 7521 6cbd d4b0 3c3d e446 a7bd
000003d0: 19c2 b4bd 66d4 dc3b 66ba dc3d c41f 9cbc
000003e0: 2736 af3d 3975 a3bd 8505 bcbd cd08 a5bd
000003f0: 3b33 44bd 370d e63d 9132 e0bc 671a 9ebc

rnn.bias_ih_l0 f4 [256]
0.09174394 0.20309658 0.30205283 0.019299941 0.10723795 0.10824309 -0.03487862 0.0025929827
0.18578614 -0.027864434 0.28297764 0.116532214 0.12445142 0.111744344 0.19811046 0.22658774
0.13825338 0.09613144 -0.031499665 0.19245648 0.16441253 -0.060716387 0.17151357 0.12559706
0.021241372 0.101686716 0.12320034 0.2310026 0.21366635 -0.015717296 -0.05703783 0.019627202
-0.043978162 0.15086636 -0.066512264 0.051816452 0.010075508 0.040229343 0.11654321 0.110494874
0.13550268 0.020285383 -0.069818035 0.12612392 0.1799159 0.075079605 0.03368147 -0.038058728
0.1200511 -0.023124993 0.16151713 0.077727646 -0.0043616756 0.008181052 0.06468612 -0.013971894
-0.019132113 0.23468821 0.08651437 0.060883716 0.12257708 -0.11132417 0.022072233 -0.087043375
-0.083196096 0.04534825 0.114179984 -0.15707546 -0.0883444 -0.13223824 -0.105974264 -0.10454962
-0.057199355 -0.10676643 0.12870492 -0.039736286 0.016938893 0.09296552 0.0045878147 0.06638929
-0.091051154 0.06567941 0.04311023 -0.041512247 0.1367571 0.010033369 -0.029740244 0.017590078
-0.09787257 0.0841161 -0.07681601 0.01609694 -0.027239488 -0.10837689 -0.102693625 -0.07666487
-0.112305455 0.041640744 -0.015958017 -0.11066445 -0.042098276 -0.021724837 -0.075480536 -0.059485327
0.09719909 0.113279805 -0.055471394 -0.11928039 0.10929493 -0.10602642 0.07603995 -0.018950265
-0.07300307 0.0796393 0.0017631442 -0.08859937 -0.053509325 -0.109017625 -0.12418166 -0.076297
-0.11006546 -0.008293437 0.009765694 -0.07099793 -0.07971986 0.010806086 -0.03432284 -0.034689665
0.064626694 0.07670632 0.0927608 -0.021736637 -0.079713315 -0.07967431 0.062280852 0.10567405
0.09493512 -0.09143779 0.0450258 -0.07406586 -0.016551135 0.020484254 -0.008002091 -0.010255746
0.04201191 0.047306865 0.071940064 -0.101272136 0.024082717 0.009171839 0.10650586 -0.04168537
0.14880069 0.04580398 -0.056481518 0.015018429 -0.07336762 0.10068176 -0.08325178 0.07786598
-0.0954779 0.07427732 0.10406992 0.03800761 -0.074528754 0.03582441 0.050770473 -0.018346498
-0.009355099 -0.080532275 0.03030178 -0.093524136 0.004981273 -0.036113907 -0.058247015 0.0063283094
-0.036053047 0.014883193 0.05984159 -0.037765183 -0.058110002 -0.011820079 -0.1474692 0.09667236
0.048270863 0.05264452 0.14350481 -0.12815079 0.04080404 -0.0026607402 -0.015007045 -0.034671377
0.12141898 0.021985406 0.19739121 0.13468082 0.005943714 0.04378389 -0.03233784 -0.13254541
0.11761845 0.012572166 0.17345403 0.059554912 -0.0020795562 0.02876779 0.22449253 0.1160409
0.13878372 0.03212737 -0.027579911 0.03545569 0.256494 0.012288466 0.21037172 -0.04793458
0.06331314 -0.009623801 -0.010313982 0.111235574 0.17668869 -0.0075704795 0.01363935 0.15479007
0.11356498 0.10617019 -0.09628362 0.12036479 -0.06324711 0.044138234 0.13333 0.19774891
0.026477568 0.08630885 -0.07992274 0.08154163 0.090746865 0.05895626 0.13484313 0.030061422
0.23583226 0.14453067 -0.009731967 0.041766264 0.114730515 0.12901798 0.12873344 -0.0019196777
0.10632202 0.048761662 -0.0883691 0.0531226 0.098687224 0.048530333 0.0062232297 0.010838114
00000000: 3fe4 bb3d 8df8 4f3e aba6 9a3e e91a 9e3c
00000010: 929f db3d 8eae dd3d e2dc 0ebd 08ef 293b
00000020: b93e 3e3e f443 e4bc 72e2 903e 71a8 ee3d
00000030: 63e0 fe3d 38da e43d 78dd 4a3e 9e06 683e
00000040: 4b92 0d3e 8fe0 c43d cb05 01bd 5013 453e
00000050: c25b 283e bfb1 78bd 41a1 2f3e 849c 003e
00000060: 6302 ae3c 2041 d03d 7650 fc3d f28b 6c3e
00000070: 5acb 5a3e 8fc1 80bc 80a0 69bd 3ac9 a03c
00000080: 7222 34bd b67c 1a3e 9537 88bd 7d3d 543d
00000090: be13 253c 86c7 243d 35ae ee3d 234b e23d
000000a0: 37c1 0a3e 882d a63c c2fc 8ebd a126 013e
000000b0: e03b 383e 56c3 993d 95f5 093d 78e3 1bbd
000000c0: 5add f53d a070 bdbc bf64 253e ac2f 9f3d
000000d0: 63ec 8ebb d209 063c 287a 843d 5fea 64bc
000000e0: f3ba 9cbc 1b52 703e 722e b13d 3461 793d
000000f0: b109 fb3d edfd e3bd d4d0 b43c cc43 b2bd
00000100: b762 aabd 16bf 393d 32d7 e93d 64d8 20be
00000110: e9ed b4bd 7669 07be 0909 d9bd 1c1e d6bd
00000120: df49 6abd 5ca8 dabd 39cb 033e 84c2 22bd
00000130: 6fc3 8a3c b564 be3d 6155 963b 1cf7 873d
00000140: 0779 babd ed82 863d 5a94 303d bf08 2abd
00000150: 0e0a 0c3e 0063 243c d0a1 f3bc 1119 903c
00000160: 6a71 c8bd 1045 ac3d b651 9dbd bbdd 833c
00000170: 5925 dfbc b4f4 ddbd 0951 d2bd 7902 9dbd
00000180: 6700 e6bd 7c8f 2a3d 63ba 82bc 0ba4 e2bd
00000190: 3e6f 2cbd 49f8 b1bc 8a95 9abd e3a6 73bd
000001a0: 5110 c73d 3eff e73d f935 63bd 4749 f4bd
000001b0: 05d6 df3d 6124 d9bd d5ba 9b3d 963d 9bbc
000001c0: a282 95bd ee19 a33d 4d19 e73a 9673 b5bd
000001d0: 982c 5bbd a244 dfbd f452 febd 9a41 9cbd
000001e0: 006a e1bd 32e1 07bc 4a00 203c 5d67 91bd
000001f0: 2a44 a3bd 020c 313c 1b96 0cbd c016 0ebd
00000200: 005b 843d 3418 9d3d 60f9 bd3d 0811 b2bc
00000210: bc40 a3bd 492c a3bd 351a 7f3d a36b d83d
00000220: 586d c23d bc43 bbbd f96c 383d d7af 97bd
00000230: 3f96 87bc 98ce a73c 341b 03bc b707 28bc
00000240: ae14 2c3d d8c4 413d 5055 933d c467 cfbd
00000250: 1e49 c53c 7b45 163c bf1f da3d 47be 2abd
00000260: 355f 183e f49c 3b3d 2a59 67bd db0f 763c
00000270: c341 96bd 3d32 ce3d e97f aabd 3378 9f3d
00000280: eb89 c3bd b51e 983d 9c22 d53d dead 1b3d
00000290: 88a2 98bd 9ebc 123d b3f4 4f3d 654b 96bc
000002a0: 2146 19bc 1bee a4bd 703b f83c 9589 bfbd
000002b0: f239 a33b 2dec 13bd 6c94 6ebd b55d cf3b
000002c0: 5cac 13bd a3d8 733c 741c 753d aaaf 1abd
000002d0: c104 6ebd 01a9 41bc 2a02 17be 29fc c53d
000002e0: abb7 453d c8a1 573d edf2 123e f639 03be
000002f0: 2322 273d d05f 2ebb 1ce0 75bc 9303 0ebd
00000300: 84aa f83d bd1a b43c ec20 4a3e c5e9 093e
00000310: 7dc3 c23b bc56 333d af74 04bd fcb9 07be
00000320: f1e1 f03d 7cfb 4d3c ef9d 313e daef 733d
00000330: 2a49 08bb 6eaa eb3c 5fe1 653e daa6 ed3d
00000340: 521d 0e3e fd97 033d 44ef e1bc fc39 113d
00000350: 2e53 833e 9055 493c af6b 573e 0d57 44bd
00000360: 52aa 813d 26ad 1dbc fafb 28bc 7acf e33d
00000370: e1ed 343e c911 f8bb 9577 5f3c 4a81 1e3e
00000380: c294 e83d c26f d93d 5930 c5bd d181 f63d
00000390: b387 81bd 4bca 343d a987 083e b17e 4a3e
000003a0: 7ce7 d83c b2c2 b03d 89ae a3bd 4cff a63d
000003b0: 7ed9 b93d 1f7c 713d 5114 0a3e 5f43 f63c
000003c0: 037e 713e d9ff 133e d472 1fbc 1a13 2b3d
000003d0: d5f7 ea3d 4a1d 043e b3d2 033e b29d fbba
000003e0: 5cbf d93d 4fba 473d dcfa b4bd 1597 593d
000003f0: 871c ca3d bec7 463d 3cec cb3b 5892 313c

rnn.bias_hh_l0 f4 [256]
0.041252412 0.10596791 0.21021427 0.1069115 0.05917747 0.11159657 -0.122071356 -0.11027045
0.10007173 0.13504946 0.06408778 0.017934619 0.12297013 0.15648803 0.14156975 0.23080312
0.08432922 0.020197004 0.030330352 0.19292605 0.11772904 -0.048769344 0.11375069 0.09921793
0.17061235 -0.055233087 -0.10840132 0.3378387 0.1703769 -0.084609695 -0.000100317084 -0.03845035
-0.10488451 0.20684947 0.12492457 0.03777599 0.10041685 0.065122426 0.14712013 0.16673061
-0.050321333 0.092229195 -0.06107914 0.17491171 0.0005259946 0.17406479 0.06855391 0.032768052
0.10458845 0.036895413 0.0850983 0.2483386 0.03942327 0.056315962 0.057933662 0.07157769
0.04515163 0.22049887 -0.0889447 -0.07949914 0.14152388 -0.06534775 0.085015655 0.116233975
-0.042151354 0.048692696 0.0908164 -0.0001343262 -0.13343595 -0.00504245 -0.14124955 -0.15793145
-0.07306132 -0.004061624 0.16968459 -0.1550561 0.0015528364 0.093056716 -0.02561983 -0.0802793
-0.10073389 -0.08896713 -0.042140327 0.012149167 0.122669205 -0.07759209 -0.08016449 -0.11171046
-0.025955979 -0.100883454 -0.05966134 0.117054716 0.054823447 -0.061818924 0.07857881 0.034928877
0.06674477 -0.089386545 -0.07224554 0.0672191 0.028198415 -0.06950078 0.025486834 -0.05857033
-0.006603426 -0.034685012 -0.02581068 0.054803547 -0.123608686 -0.18626092 -0.04598856 -0.029186076
0.044039402 0.0543151 -0.075395286 0.027095491 -0.1255275 -0.10834427 0.037469607 -0.051298562
0.009440465 -0.07581619 -0.10120413 -0.012157191 -0.011648815 -0.11488682 -0.11590485 -0.2056674
0.1465878 -0.0714584 0.0036615266 0.06501414 -0.13669842 -0.08556573 0.011539746 0.045049496
-0.0053329812 -0.15929309 0.037300505 -0.025884615 -0.06357133 -0.01862503 -0.0041107014 -0.0031069396
0.12404063 0.07353816 0.10894252 0.14181887 0.0293415 -0.12847015 -0.11017119 -0.014509162
-0.013296549 -0.071802795 -0.12816173 0.027282676 0.11253952 0.020776706 0.12078108 0.06256515
-0.07784111 -0.018991508 -0.0013725634 0.0926946 -0.096867025 0.04892495 0.10709597 0.01743702
0.077877425 -0.029357208 -0.12122367 0.031869333 -0.07167232 -0.10807697 0.045809973 -0.088643245
-0.0016346753 -0.11852451 -0.07851661 0.052650936 -0.04582702 0.13696899 0.019342443 0.11080437
0.020311052 -0.07516164 0.07893324 -0.103871725 0.13343994 -0.09898413 -0.12949778 -0.10179544
0.06904723 0.18303871 0.075787306 0.1290725 0.0024624958 -0.009849762 -0.0063402266 0.060774192
0.17778628 0.03511178 0.12062692 0.0036176818 0.095884904 0.18690434 0.1764539 0.056142256
0.115160294 -0.061078053 0.038833868 0.14868848 0.2950027 0.059292264 0.09101398 0.18227126
0.13605678 0.03348932 0.000982451 0.16977638 0.002793473 0.13731325 0.024617746 0.08492404
-0.053976573 -0.030213365 -0.020220164 0.093984395 0.11385197 0.16671172 -0.092368424 0.20361994
0.077642836 0.07792143 0.13819316 -0.007934261 0.17358673 -0.038545884 0.14779355 0.11044051
0.14128509 0.052405234 0.12798786 0.187235 -0.050187774 -0.07443882 0.040060245 0.042274978
0.10318555 0.1314886 0.056302883 0.08779085 0.038812265 0.101188876 -0.060852323 -0.08098589
00000000: 4af8 283d b405 d93d 6942 573e 6bf4 da3d
00000010: 1364 723d be8c e43d 8c00 fabd 79d5 e1bd
00000020: 68f2 cc3d 684a 0a3e 7440 833d 9feb 923c
00000030: c3d7 fb3d 663e 203e a9f7 103e a757 6c3e
00000040: ccb4 ac3d 3074 a53c 5c77 f83c 688e 453e
00000050: ec1b f13d 5dc2 47bd 1ff6 e83d c532 cb3d
00000060: 01b5 2e3e 173c 62bd 8301 debd 32f9 ac3e
00000070: 4877 2e3e d947 adbd 5361 d2b8 1d7e 1dbd
00000080: b1cd d6bd 59d0 533e 74d8 ff3d ffba 1a3d
00000090: 59a7 cd3d e85e 853d a9a6 163e 6ebb 2a3e
000000a0: be1d 4ebd a9e2 bc3d 1f2e 7abd 0e1c 333e
000000b0: e6e2 093a 0a3e 323e fe65 8c3d cb37 063d
000000c0: 7832 d63d a51f 173d 0448 ae3d 794c 7e3e
000000d0: 4b7a 213d 91ab 663d d94b 6d3d 5397 923d
000000e0: eaf0 383d 75ca 613e a428 b6bd 72d0 a2bd
000000f0: a3eb 103e 0bd5 85bd b01c ae3d 140c ee3d
00000100: e6a6 2cbd fe71 473d f3fd b93d ead9 0cb9
00000110: 6fa3 08be 233b a5bb b9a3 10be c8b8 21be
00000120: 2ca1 95bd 5f17 85bb ccc1 2d3e 07c7 1ebe
00000130: 8b88 cb3a 8594 be3d ade0 d1bc 7969 a4bd
00000140: 924d cebd 6634 b6bd 569b 2cbd 4d0d 473c
00000150: fe39 fb3d 9ae8 9ebd 482d a4bd 74c8 e4bd
00000160: a2a1 d4bc fc9b cebd 735f 74bd 62ba ef3d
00000170: 8d8e 603d d735 7dbd eded a03d 9511 0f3d
00000180: 7bb1 883d 4b10 b7bd 78f5 93bd 2baa 893d
00000190: 5d00 e73c 6d56 8ebd c4c9 d03c 71e7 6fbd
000001a0: 8d61 d8bb df11 0ebd eb70 d3bc af79 603d
000001b0: 8d26 fdbd 2fbb 3ebe 805e 3cbd a317 efbc
000001c0: a962 343d 8379 5e3d d868 9abd 5df7 dd3c
000001d0: 488a 00be 9ae3 ddbd bb79 193d 711e 52bd
000001e0: 2eac 1a3c 8545 9bbd 1c44 cfbd f42e 47bc
000001f0: acda 3ebc c849 ebbd 865f edbd 7a9a 52be
00000200: 1d1b 163e c858 92bd 39f6 6f3b 2226 853d
00000210: acfa 0bbe 163d afbd 3411 3d3c d285 383d
00000220: 4ac0 aebb ba1d 23be 6ac8 183d f90b d4bc
00000230: af31 82bd 8593 98bc 10b3 86bb cc9d 4bbb
00000240: 0409 fe3d 2d9b 963d 421d df3d f738 113e
00000250: 965d f03c ae8d 03be 6fa1 e1bd d6b7 6dbc
00000260: c5d9 59bc 580d 93bd d43c 03be eb7f df3c
00000270: 1f7b e63d e933 aa3c 125c f73d 2822 803d
00000280: 296b 9fbd 1494 9bbc 96e7 b3ba abd6 bd3d
00000290: 3862 c6bd 8765 483d 2255 db3d 15d8 8e3c
000002a0: 337e 9f3d 877e f0bc 1e44 f8bd 6b89 023d
000002b0: f0c8 92bd 7557 ddbd 3da3 3b3d 978a b5bd
000002c0: 9a42 d6ba fabc f2bd 51cd a0bd 82a8 573d
000002d0: 1db5 3bbd 9941 0c3e 0b74 9e3c 67ed e23d
000002e0: 5d63 a63c 59ee 99bd c0a7 a13d b3ba d4bd
000002f0: 7ba4 083e 31b8 cabd 119b 04be 217a d0bd
00000300: a268 8d3d 806e 3b3e 6036 9b3d 952b 043e
00000310: d361 213b e560 21bc adc1 cfbb 5cee 783d
00000320: 9b0d 363e 5fd1 0f3d 3f0b f73d a116 6d3b
00000330: 4e5f c43d da63 3f3e 55b0 343e 6cf5 653d
00000340: 29d9 eb3d fb2c 7abd 4310 1f3d cb41 183e
00000350: 980a 973e 72dc 723d 8a65 ba3d 51a5 3a3e
00000360: 7852 0b3e 192c 093d 96c5 803a dcd9 2d3e
00000370: b312 373b d89b 0c3e 28ab c93c a8ec ad3d
00000380: 8a16 5dbd 0582 f7bc c2a4 a5bc e47a c03d
00000390: 392b e93d 7ab6 2a3e a82b bdbd bf81 503e
000003a0: 3503 9f3d 4595 9f3d 8282 0d3e b4fe 01bc
000003b0: b8c0 313e 4ae2 1dbd 3157 173e a22e e23d
000003c0: 0aad 103e dfa6 563d 400f 033e 88ba 3f3e
000003d0: b291 4dbd 6173 98bd 3616 243d 8728 2d3d
000003e0: f252 d33d f3a4 063e da9d 663d b0cb b33d
000003f0: 9cf9 1e3d 1d3c cf3d 4940 79bd eedb a5bd

rnn.weight_ih_l1 f4 [256, 64]
0.06890671 -0.015893307 -0.2476049 0.1278953 -0.037513167 0.04830806 0.038070615 0.033749785
0.13466753 0.0772081 -0.16070686 -0.12597372 0.016199902 -0.008234363 -0.045595914 -0.12689011
0.14175913 -0.061014675 -0.08584719 0.120140426 -0.2508475 -0.14386846 0.15716927 -0.07798871
0.033986 -0.10194485 0.04513454 -0.1657555 0.10058853 0.022242572 -0.054788016 0.044577945
0.038200304 -0.029185213 -0.06549758 -0.015403734 -0.03926848 0.09703683 0.16374302 0.022359293
0.006821205 -0.14429048 -0.049597636 -0.16097894 0.04637121 0.010373565 -0.13767512 -0.0200303
0.1494556 -0.087128244 -0.10450943 -0.110007055 -0.020475384 0.043782763 0.07716264 0.021532673
-0.014231552 -0.044596262 -0.003919336 -0.15229096 0.0076494445 -0.1095906 0.030077524 -0.07226048
-0.01665343 -0.015767273 -0.072136596 0.01939553 0.026413763 -0.04349448 -0.07412374 0.12798683
0.06851411 -0.12251476 -0.083922446 0.006985461 -0.17401291 0.024415767 -0.04987583 -0.0436343
6.502682e-05 0.10577635 -0.1323311 0.16724105 -0.22233422 -0.054591216 0.20177181 -0.013302915
-0.09844552 0.01682231 -0.008807896 -0.18049404 0.035169665 0.026848461 -0.036157236 0.011419707
0.10146664 -0.0133161945 0.09342494 0.16983347 0.035705924 -0.04442493 0.15974766 -0.096671954
0.1455063 0.04842663 -0.16114452 -0.09657288 0.027025359 -0.1615204 -0.19735077 0.013242867
0.080402225 -0.011834592 0.012179029 -0.12919915 -0.024940059 0.056782544 0.09989639 -0.0859778
0.18695335 -0.1805457 -0.045917865 0.07554615 0.16880518 -0.024484549 -0.0991817 0.016558938
0.046820335 0.04663431 -0.07042538 0.09996116 0.02846016 -0.05101477 0.06846284 0.013998405
0.17954324 -0.009600097 -0.20346272 0.03312878 -0.16929764 -0.19810025 -0.19194463 0.002278737
0.10167141 -0.072933935 0.03471637 0.14213343 -0.20031568 0.043434195 0.11949211 -0.18117337
0.0015498074 -0.15764412 0.048069086 -0.18600313 0.018765314 0.15519576 0.085473314 -0.0022276335
-0.04978266 -0.018210206 -0.09337746 0.078323245 -0.09539678 -0.030805362 -0.055209745 -0.21759278
0.15954389 -0.17856327 0.028534636 -0.1860626 -0.17751648 -0.15851845 -0.1804352 -0.101095304
0.09601159 -0.09633684 -0.058777366 -0.10405506 0.007413844 -0.07847864 0.038327564 0.124611795
0.03183138 -0.12337064 -0.10933519 0.0641324 0.044613212 0.0056195096 -0.03528352 0.03321806
6.626219e-05 0.07455748 -0.16678639 0.19639401 -0.11188469 -0.052673407 0.16531545 0.009660984
-0.017209971 -0.13525766 -0.15490995 0.029284177 -0.12145591 -0.11988598 -0.06963463 -0.219369
0.11587125 0.034326848 0.048568163 0.22567327 -0.13702911 -0.06170244 0.029013593 0.01070364
-0.014485659 -0.13885608 0.03491624 -0.19355595 -0.018164892 0.04999826 0.014005783 -0.016207336
-0.084724516 -0.01229291 -0.033661094 0.19879581 0.032848645 -0.017800521 0.111653246 -0.12819321
0.13966353 -0.058513414 -0.023465028 -0.10573202 -0.013685293 -0.08564824 -0.15438391 0.05411893
0.15624417 -0.13065939 -0.18745801 -0.055122204 -0.103582814 -0.02496531 -0.11695338 -0.025738018
0.033638556 -0.21584633 0.10693979 -0.15080619 0.035501517 0.014309146 0.0640991 0.037566826
00000000: f61e 8d3d ae32 82bc 248c 7dbe fcf6 023e
00000010: 68a7 19bd acde 453d efef 1b3d 373d 0a3d
00000020: 49e6 093e 481f 9e3d 5790 24be 41ff 00be
00000030: a8b5 843c 6ce9 06bc c8c2 3abd 7bef 01be
00000040: 4e29 113e 86ea 79bd a7d0 afbd 2f0c f63d
00000050: 156f 80be 4152 13be fbf0 203e 8bb8 9fbd
00000060: e734 0b3d 76c8 d0bd ffde 383d cfbb 29be
00000070: 5c01 ce3d 0e36 b63c 6669 60bd 5d97 363d
00000080: ec77 1c3d d415 efbc 9823 86bd f15f 7cbc
00000090: fcd7 20bd 3fbb c63d 40ac 273e d62a b73c
000000a0: 6a84 df3b e2c0 13be e426 4bbd aad7 24be
000000b0: bdef 3d3d e3f5 293c b5fa 0cbe 9516 a4bc
000000c0: e40a 193e 4b70 b2bd 0a09 d6bd 614b e1bd
000000d0: febb a7bc 8e55 333d 7207 9e3d 4a65 b03c
000000e0: 752b 69bc 92aa 36bd c66d 80bb 29f2 1bbe
000000f0: 31a8 fa3b 0971 e0bd 2465 f63c 4dfd 93bd
00000100: c66c 88bc 5e2a 81bc 5abc 93bd 60e3 9e3c
00000110: ad61 d83c 4527 32bd 30ce 97bd fb0e 033e
00000120: 2051 8c3d 05e9 fabd 88df abbd 4be6 e43b
00000130: 7130 32be 9303 c83c 994a 4cbd e1b9 32bd
00000140: 025f 8838 45a1 d83d ce81 07be 3d41 2b3e
00000150: 95ab 63be 0a9b 5fbd 459d 4e3e 78f4 59bc
00000160: ce9d c9bd f1ce 893c fe4e 10bc 6ed3 38be
00000170: 110e 103d 4ef1 db3c 9c19 14bd b919 3b3c
00000180: becd cf3d 2b2c 5abc 9355 bf3d d3e8 2d3e
00000190: 6040 123d eaf6 35bd e494 233e f2fb c5bd
000001a0: 9aff 143e 015b 463d 1203 25be 01c8 c5bd
000001b0: 4964 dd3c 9b65 25be 5216 4abe 9cf8 583c
000001c0: eca9 a43d e0e5 41bc 8d8a 473c c84c 04be
000001d0: 184f ccbc d094 683d 7b96 cc3d 2115 b0bd
000001e0: b370 3f3e f9e0 38be 5f14 3cbd f1b7 9a3d
000001f0: 44db 2c3e d293 c8bc c61f cbbd 9ca6 873c
00000200: aec6 3f3d 9e03 3f3d 2e3b 90bd 70b8 cc3d
00000210: 4825 e93c ddf4 50bd 3f36 8c3d 9159 653c
00000220: 2fda 373e ba49 1dbc 8858 50be 0bb2 073d
00000230: 5c5c 2dbe cbda 4abe 228d 44be dd56 153b
00000240: 1a39 d03d 635e 95bd c132 0e3d 6d8b 113e
00000250: 8e1f 4dbe 0ee8 313d 48b8 f43d 8385 39be
00000260: e822 cb3a 766d 21be 17e4 443d 9b77 3ebe
00000270: b7b9 993c a3eb 1e3e a20c af3d 7dfd 11bb
00000280: e7e8 4bbd 922d 95bc af3c bfbd f067 a03d
00000290: 635f c3bd 875b fcbc 9d23 62bd a4d0 5ebe
000002a0: 795f 233e 4ad9 36be 78c1 e93c 3287 3ebe
000002b0: e1c6 35be a952 22be 01c4 38be 0e0b cfbd
000002c0: b9a1 c43d 404c c5bd 89c0 70bd d21a d5bd
000002d0: d5ef f23b 69b9 a0bd 5dfd 1c3d 7834 ff3d
000002e0: 9f61 023d bfa9 fcbd 21eb dfbd d957 833d
000002f0: 58bc 363d dd23 b83b 7485 10bd a90f 083d
00000300: 3ef6 8a38 98b1 983d 0dca 2abe 831b 493e
00000310: cd23 e5bd 12c0 57bd 7448 293e 1b49 1e3c
00000320: edfb 8cbc fc80 0abe b7a0 1ebe 5fe5 ef3c
00000330: e0bd f8bd c886 f5bd 9a9c 8ebd 44a2 60be
00000340: e84d ed3d 4f9a 0c3d 69ef 463d e516 673e
00000350: 5c51 0cbe b3bb 7cbd eaad ed3c 525e 2f3c
00000360: 4255 6dbc 4a30 0ebe 5504 0f3d 8833 46be
00000370: 8ace 94bc faca 4c3d 8378 653c 3fc5 84bc
00000380: 0c84 adbd 3468 49bc 37e0 09bd 2191 4b3e
00000390: 4d8c 063d 66d2 91bc 75aa e43d 1545 03be
000003a0: f503 0f3e c3ab 6fbd bb39 c0bc 088a d8bd
000003b0: 4738 60bc 5868 afbd d116 1ebe d0ab 5d3d
000003c0: 79fe 1f3e 93cb 05be fef4 3fbe d2c7 61bd
000003d0: 3a23 d4bd 0d84 ccbc 4185 efbd 89d8 d2bc
000003e0: 95c8 093d d206 5dbe 4003 db3d f06c 1abe
000003f0: 0a6a 113d e970 6a3c 6446 833d acdf 193d

rnn.weight_hh_l1 f4 [256, 64]
0.0027805227 0.063838825 0.0821534 -0.0893722 0.015828457 0.032698333 -0.09364313 0.070112094
-0.086147726 0.043644756 0.038307235 -0.08591279 -0.014895593 0.020873457 -0.08675366 -0.0874616
-0.09994366 -0.0420883 0.098489374 0.047087174 -0.12525743 -0.02690058 0.066159025 0.032054383
0.034651387 -0.110391125 -0.013757982 0.06052675 -0.04250724 0.1250218 0.113702565 -0.08246119
-0.014270902 -0.07195982 0.041780263 -0.062174026 -0.055009678 -0.047387913 -0.002279919 0.027853513
-0.10836996 -0.05734807 0.10105796 -0.040419266 -0.08059609 -0.072038144 -0.05090433 0.12545967
0.099967934 0.010954794 0.029443307 -0.041388426 0.07480234 -0.13574748 0.046350267 -0.03374302
0.013050115 0.12656073 0.07914016 0.040934034 0.093484655 0.025064627 -0.12028418 0.030103777
0.07163153 0.039732296 -0.046980746 -0.0013696478 -0.10746852 -0.04446708 -0.058360968 -0.049162924
0.08284842 0.08236515 -0.10233649 -0.15672228 0.074959144 0.124176875 0.08855407 0.038877673
-0.027751552 0.11086365 -0.112258285 0.056001697 -0.011805741 -0.09795083 0.1703797 -0.087943636
-0.09653831 -0.0035355235 -0.107273534 -0.024787372 -0.07779414 0.08693255 -0.050924398 0.022932643
-0.08269258 -0.0001678668 0.11489082 0.072967194 -0.067752406 -0.026217835 0.08111411 0.112312004
-0.11593827 -0.03896412 0.12209918 -0.17423728 -0.014853878 0.08643397 0.11784376 0.11034087
0.10225485 -0.08997891 0.054588605 -0.08041479 -0.041113906 -0.0024329575 -0.07769487 0.017660102
0.07005068 -0.07939652 0.081649475 -0.14061564 0.17419374 -0.16364448 0.11622403 0.06123689
-0.066962205 -0.03338684 -0.008760243 -0.018968998 0.03651214 0.028686289 -0.06847666 0.06745026
0.07849707 0.06887439 0.06384523 -0.13162252 0.11160495 0.07198083 0.11356312 0.06741687
0.12072394 0.11543596 -0.023689536 -0.12852293 -0.010861403 -0.103336915 -0.05129843 -0.15487745
0.0022216442 0.0008323764 0.046708025 0.09787313 -0.108471 -0.092252605 0.07955602 0.034625247
-0.03539593 -0.1573248 -0.06161854 0.05917 0.16015695 -0.08315271 0.058219615 -0.09488511
0.112581454 -0.026966063 -0.034675874 -0.024035579 -0.025789917 -0.045121647 0.0361502 0.04638112
-0.04127563 -0.10471654 -0.14531094 -0.019660896 -0.10529547 -0.022728613 0.08720857 0.039632775
0.03899711 -0.032286536 0.120814495 -0.016977487 -0.0020654167 0.05328902 -0.010728177 0.067556396
-0.048345096 -0.024548188 -0.046700228 -0.10126116 0.06960564 -0.11126673 0.11897688 -0.007458022
0.072665006 0.025467416 0.049635142 0.057284094 -0.023751682 0.007125539 0.06707578 -0.085048296
-0.036965918 -0.095303796 -0.11496679 0.018214665 -0.02639272 -0.021620657 0.13001867 -0.10293476
-0.02075289 -0.07895115 0.11943089 -0.06486425 0.03273586 -0.033641413 -0.027211519 -0.08587901
-0.05089799 -0.00010295816 0.058688823 -0.06861456 -0.028774839 -0.0013535231 0.06322681 -0.0966461
-0.05191747 -0.039050512 0.099875055 -0.042196784 0.07179523 0.0653961 -0.049141537 0.074569315
-0.056628924 0.08294053 -0.011441091 -0.030774737 -0.045214355 -0.08883242 0.051104125 -0.10214715
0.09918377 -0.079785764 0.06039218 -0.16039288 -0.058157697 0.019857647 0.040561844 0.10046632
00000000: 6e39 363b eebd 823d 0b40 a83d c608 b7bd
00000010: aeaa 813c b0ee 053d f8c7 bfbd ee96 8f3d
00000020: 386e b0bd d8c4 323d 0ce8 1c3d 0bf3 afbd
00000030: a50c 74bc d0fe aa3c e7ab b1bd 111f b3bd
00000040: 43af ccbd c864 2cbd ccb4 c93d 7bde 403d
00000050: 7c43 00be 9b5e dcbc 627e 873d 754b 033d
00000060: 9dee 0d3d be14 e2bd 2969 61bc e6ea 773d
00000070: 121c 2ebd b705 003e e4dc e83d 6ae1 a8bd
00000080: 80d0 69bc ac5f 93bd c821 2b3d 31aa 7ebd
00000090: d451 61bd d419 42bd b26a 15bb 0d2d e43c
000000a0: 12f1 ddbd cfe5 6abd 7af7 ce3d ac8e 25bd
000000b0: 900f a5bd bc88 93bd 0f81 50bd 8078 003e
000000c0: fdbb cc3d bc7b 333c 1733 f13c e986 29bd
000000d0: f831 993d 6301 0bbe c7d9 3d3d 1f36 0abd
000000e0: 26d0 553c 2399 013e 3c14 a23d 72aa 273d
000000f0: e274 bf3d 5554 cd3c 8d57 f6bd 329c f63c
00000100: 8db3 923d 55be 223d e26e 40bd c185 b3ba
00000110: 7518 dcbd 1d23 36bd e90b 6fbd 105f 49bd
00000120: 6fac a93d 0faf a83d cb95 d1bd ce7b 20be
00000130: 2e84 993d 7250 fe3d d65b b53d 323e 1f3d
00000140: 3957 e3bc 7b0c e33d ace7 e5bd 0962 653d
00000150: de6c 41bc 729a c8bd 0478 2e3e cb1b b4bd
00000160: e1b5 c5bd 3eb4 67bb 3ab2 dbbd e30e cbbc
00000170: 8952 9fbd b109 b23d 1a96 50bd 3ddd bb3c
00000180: ba5a a9bd 6705 30b9 e14b eb3d d36f 953d
00000190: c6c1 8abd c9c6 d6bc 281f a63d d603 e63d
000001a0: 0b71 edbd d798 1fbd 230f fa3d 426b 32be
000001b0: ae5d 73bc 4b04 b13d 1258 f13d 65fa e13d
000001c0: fe6a d13d dd46 b8bd 4d98 5f3d 82b0 a4bd
000001d0: 0e67 28bd 4172 1fbb 7d1e 9fbd ebab 903c
000001e0: bb76 8f3d a59a a2bd d737 a73d 8cfd 0fbe
000001f0: d85f 323e 6b92 27be dd06 ee3d 88d3 7a3d
00000200: 7b23 89bd a4c0 08bd 1f87 0fbc df64 9bbc
00000210: c18d 153d 82ff ea3c 7e3d 8cbd 5d23 8a3d
00000220: 12c3 a03d 040e 8d3d 4ac1 823d 0ec8 06be
00000230: 2391 e43d af6a 933d c893 e83d db11 8a3d
00000240: 1d3e f73d b069 ec3d 8f10 c2bc 849b 03be
00000250: 07f4 31bc 4ea2 d3bd 4d1e 52bd 3298 1ebe
00000260: 0199 113b d633 5a3a ea50 3f3d b571 c83d
00000270: 0b26 debd efee bcbd 44ee a23d 34d3 0d3d
00000280: 53fb 10bd c119 21be b963 7cbd 3e5c 723d
00000290: 2f00 243e f84b aabd b177 6e3d 2053 c2bd
000002a0: 1b91 e63d efe7 dcbc 4a08 0ebd 43e6 c4bc
000002b0: 6045 d3bc 7ad1 38bd 3b12 143d 21fa 3d3d
000002c0: a310 29bd a075 d6bd 64cc 14be e30f a1bc
000002d0: 27a5 d7bd 5b31 babc 689a b23d fa55 223d
000002e0: 6fbb 1f3d e33e 04bd 976d f73d 5f14 8bbc
000002f0: f15b 07bb 9645 5a3d 3cc5 2fbc 025b 8a3d
00000300: 8205 46bd 4819 c9bc bd48 3fbd 0362 cfbd
00000310: 678d 8e3d d0df e3bd 27aa f33d 6c62 f4bb
00000320: 64d1 943d 0ba1 d03c 384e 4b3d baa2 6a3d
00000330: e392 c2bc 5a7d e93b 075f 893d cd2d aebd
00000340: 9369 17bd a32e c3bd b573 ebbd ec36 953c
00000350: 8c35 d8bc ce1d b1bc 9d23 053e 76cf d2bd
00000360: f701 aabc 24b1 a1bd 2f98 f43d 8cd7 84bd
00000370: 0a16 063d 94cb 09bd b1ea debc 56e1 afbd
00000380: 697a 50bd 3eeb d7b8 b163 703d ca85 8cbd
00000390: 36b9 ebbc b368 b1ba 0f7d 813d 64ee c5bd
000003a0: 6aa7 54bd 6ef3 1fbd 4b8b cc3d 89d6 2cbd
000003b0: 6109 933d 64ee 853d a348 49bd ccb7 983d
000003c0: bbf3 67bd b9dc a93d 6a73 3bbc 4d1b fcbc
000003d0: b032 39bd c6ed b5bd 8f52 513d 8632 d1bd
000003e0: dc20 cb3d b866 a3bd ca5d 773d 083e 24be
000003f0: c436 6ebd 81ac a23c 2d24 263d 49c1 cd3d

rnn.bias_ih_l1 f4 [256]
0.075879216 -0.04240635 0.037896805 -0.030615348 -0.020245133 -0.005431256 -0.09150141 -0.008490487
0.043904014 -0.076928 0.09727119 0.06187686 0.101320714 0.1614851 0.0488585 0.13588756
-0.034833904 -0.06108446 0.043380205 0.053099904 0.07095627 0.1497684 -0.015914537 -0.023607604
-0.04581924 0.1056923 -0.082444824 0.102269925 0.1335188 -0.048204746 -0.049107306 -0.06613153
0.06560138 0.02705992 -0.018141486 -0.031985685 0.08369428 0.12804605 -0.018846804 -0.051644754
-0.0049993778 0.17906967 -0.072265774 0.062624164 0.2383962 0.03739726 0.062378455 0.021045951
0.048366074 -0.06283859 -0.043869313 0.14181478 -0.11513563 0.01375014 -0.07204941 0.13581596
-0.040054355 0.07439787 -0.041445553 0.08279766 -0.05202197 -0.022044543 0.14729641 0.16236264
-0.010483015 -0.1320679 0.0071795997 -0.022004971 0.10513514 0.06857131 -0.02496197 -0.02522168
0.017889017 -0.08278515 0.04918143 -0.06068424 0.06336975 -0.076733805 0.043650705 0.03259696
-0.009373359 -0.07956337 -0.053493965 -0.03140747 -0.102983944 0.054492306 0.027942013 -0.14346097
0.04288462 0.07903074 -0.049361475 0.0922234 0.006312731 -0.11029922 -0.0047361744 0.013526974
0.11893 -0.023588218 -0.09759074 -0.06465094 0.04212534 -0.056078617 0.024351254 -0.006461051
0.056271166 0.084691845 -0.076810054 -0.112800956 -0.050331295 -0.032118894 0.012714824 -0.040975384
-0.09923299 -0.018085808 -0.016093932 0.096435286 0.05815307 0.026317926 -0.09396871 0.10958265
-0.104701154 -0.07246088 0.009379023 -0.12387008 -0.13339347 -0.07326892 0.037622053 -0.034349214
-0.11718342 0.043359455 0.13283361 0.0729751 0.045423254 -0.025665136 0.029020177 0.04702942
0.0473443 0.069239795 0.098250486 0.039350692 0.10692021 -0.053054117 0.07788983 0.061418768
-0.14901426 0.08139001 0.08861112 -0.06079337 -0.011125632 -0.025934095 -0.07982239 0.11048882
-0.09946135 0.096607685 0.010922401 0.14150685 0.031301368 -0.0038580706 0.119466044 -0.14383516
-0.07262423 0.13811237 -0.0459236 -0.029145606 -0.08819784 -0.039004855 -0.024331188 0.0825803
0.056015406 -0.011102145 -0.07903337 0.026881754 -0.07115983 -0.06765188 0.07392544 0.006489074
0.07457761 0.074041225 0.11550049 -0.14732248 -0.0060921973 0.060580213 -0.024904365 -0.00023663658
0.052538622 -0.03006484 -0.07503348 0.020113774 -0.058244497 0.053508278 0.056318097 0.010307674
-0.050531182 0.13062547 0.07606688 -0.01936708 0.14071028 -0.07151738 0.12527923 0.13472196
-0.072638795 0.045435656 0.0006043024 0.11733376 0.08195875 0.14268918 0.016167238 0.15506412
0.01212907 0.1078663 0.14006573 0.087491035 0.11493818 0.029003287 0.02214035 -0.012750272
0.08582107 -0.0017394493 -0.06808655 -0.06057865 -0.047227237 0.055793326 0.14097935 0.110787906
-0.08210637 0.0714781 0.12661427 0.11198226 -0.08411988 0.047239132 -0.10213326 0.10019361
0.037155855 0.16596968 0.018129911 0.11816443 0.08483362 -0.06738585 0.04812673 0.029430583
0.13190015 0.16532944 -0.031961415 0.11858267 -0.013503107 0.00034378737 0.026825605 0.08807946
-0.023442818 0.14573488 -0.063523605 -0.02188769 -0.0012823212 0.16120777 -0.033376817 -0.027455365
00000000: 9066 9b3d 48b2 2dbd ae39 1b3d 0acd fabc
00000010: 1fd9 a5bc adf8 b1bb 1765 bbbd af1b 0bbc
00000020: b2d4 333d 6d8c 9dbd 1e36 c73d 9772 7d3d
00000030: 3c81 cf3d 5a5c 253e da1f 483d 1c26 0b3e
00000040: ffad 0ebd b333 7abd 71af 313d 497f 593d
00000050: 8551 913d e35c 193e 345f 82bc bc64 c1bc
00000060: f5ac 3bbd 3475 d83d d5d8 a8bd e572 d13d
00000070: 27b9 083e 5772 45bd be24 49bd f86f 87bd
00000080: 045a 863d c4ac dd3c 749d 94bc 6c03 03bd
00000090: e867 ab3d 811e 033e 9d64 9abc 7389 53bd
000000a0: d2d1 a3bb 0a5e 373e 1400 94bd 1941 803d
000000b0: 221e 743e df2d 193d 8d80 7f3d 8f68 ac3c
000000c0: 811b 463d 85b1 80bd 4fb0 33bd e537 113e
000000d0: 3bcc ebbd 4448 613c a48e 93bd 5713 0b3e
000000e0: 0910 24bd e95d 983d d0c2 29bd d291 a93d
000000f0: fd14 55bd c296 b4bc dfd4 163e 6442 263e
00000100: f4c0 2bbc cf3c 07be d942 eb3b c543 b4bc
00000110: 1851 d73d 1d6f 8c3d 0c7d ccbc b29d cebc
00000120: fd8b 923c 438b a9bd 7872 493d 0a90 78bd
00000130: 00c8 813d 9d26 9dbd 15cb 323d 6484 053d
00000140: b892 19bc 1ff2 a2bd 7d1c 5bbd 1fa5 00bd
00000150: 3fe9 d2bd 5333 5f3d a6e6 e43c 6fe7 12be
00000160: c9a7 2f3d deda a13d 422f 4abd 9fdf bc3d
00000170: 07db ce3b 8fe4 e1bd e931 9bbb 3ea0 5d3c
00000180: 9291 f33d 143c c1bc a7dd c7bd b667 84bd
00000190: 9f8b 2c3d b1b2 65bd 487c c73c 39b7 d3bb
000001a0: 987c 663d eb72 ad3d 974e 9dbd 3004 e7bd
000001b0: 3028 4ebd 1a8f 03bd d651 503c ced5 27bd
000001c0: aa3a cbbd b028 94bc 6cd7 83bc dd7f c53d
000001d0: ea31 6e3d b198 d73c ab72 c0bd de6c e03d
000001e0: 8f6d d6bd 5f66 94bd 79aa 193c 99af fdbd
000001f0: 4c98 08be 040e 96bd 9519 1a3d c3b1 0cbd
00000200: dcfd efbd af99 313d 8905 083e f873 953d
00000210: bc0d 3a3d b13f d2bc b9bb ed3c eca1 403d
00000220: 19ec 413d 98cd 8d3d 8d37 c93d 312e 213d
00000230: fcf8 da3d 464f 59bd b484 9f3d 3f92 7b3d
00000240: 3297 18be ceaf a63d bf79 b53d 7802 79bd
00000250: 4848 36bc bd73 d4bc ec79 a3bd f647 e23d
00000260: 64b2 cbbd 40da c53d dff3 323c 2ce7 103e
00000270: dd35 003d afd7 7cbb 9daa f43d 8649 13be
00000280: 03bc 94bd 546d 0d3e 631a 3cbd c4c2 eebc
00000290: 12a1 b4bd 8ec3 1fbd 3352 c7bc dc1f a93d
000002a0: 6970 653d c5e5 35bc 3fdc a1bd 2037 dc3c
000002b0: 3fbc 91bd 128d 8abd 3966 973d 4ca2 d43b
000002c0: 25bc 983d eda2 973d 858b ec3d b4db 16be
000002d0: 0ea1 c7bb f522 783d 3d04 ccbc a621 78b9
000002e0: bd32 573d 8a4a f6bc 27ab 99bd a4c5 a43c
000002f0: c891 6ebd 7f2b 5b3d cead 663d 85e1 283c
00000300: c9f9 4ebd afc2 053e f4c8 9b3d b6a7 9ebc
00000310: 5b16 103e b477 92bd 3349 003e 8ef4 093e
00000320: a6c3 94bd bd1a 3a3d 0c6a 1e3a af4c f03d
00000330: fdd9 a73d 1d1d 123e 2871 843c 21c9 1e3e
00000340: 02b9 463c 02e9 dc3d 646d 0f3e 802e b33d
00000350: b564 eb3d 4d98 ed3c ae5f b53c 84e6 50bc
00000360: f5c2 af3d 3cfe e3ba f670 8bbd 5221 78bd
00000370: 5971 41bd 8b87 643d e45c 103e c5e4 e23d
00000380: 6227 a8bd 1c63 923d 2ca7 013e f556 e53d
00000390: 0b47 acbd d27d 413d 3e2b d1bd 4f32 cd3d
000003a0: bd30 183d f5f3 293e 2e85 943c 3100 f23d
000003b0: 40bd ad3d 9801 8abd 8920 453d 6818 f13c
000003c0: d510 073e 1f4c 293e f9e9 02bd 79db f23d
000003d0: 233c 5dbc 5c3e b439 5fc1 db3c 0163 b43d
000003e0: 270b c0bc 863b 153e aa18 82bd d04d b3bc
000003f0: 8f13 a8ba a613 253e 21b6 08bd 13ea e0bc

rnn.bias_hh_l1 f4 [256]
0.0013247913 -0.0494797 -0.03583449 0.13225122 0.100355245 0.020622265 -0.03910756 -0.103230245
0.06252875 0.057736896 -0.053626843 -0.046943747 -0.013709157 0.17148384 -0.05959332 0.159272
0.06504685 0.15463598 -0.034207776 -0.02187106 0.012482251 -0.046182092 0.041484043 0.05056085
-0.046111558 -0.08147623 0.0059035015 -0.010806009 -0.0007995102 0.14223002 -0.0729081 0.0721446
0.009954059 0.017208524 -0.040610075 0.06270371 -0.0002266449 -0.020106822 0.00083482737 -0.006852075
0.043399528 0.12826626 0.07375935 0.0369308 0.24504289 0.028650437 -0.08164484 0.013680258
-0.053689167 0.06895006 0.10374147 -0.051187087 0.12521686 -0.014676323 0.056663223 0.06569599
0.13789195 0.17733213 -0.003955358 -0.10630043 0.09336408 0.19009547 -0.08688379 0.11460461
0.05210667 0.06381254 -0.003852412 -0.10867143 -0.09153391 0.063651465 -0.09272103 -0.06013672
-0.10198166 -0.03212627 -0.11742301 -0.12000632 -0.03909389 -0.008407484 -0.05030873 0.11257829
0.05034169 0.014236729 0.10704168 0.016299618 -0.010183714 0.07919621 0.031419817 -0.03740528
-0.02833353 -0.008698252 -0.06429556 0.026583241 0.015461569 0.0052898596 -0.12845398 0.041417174
-0.052433997 -0.07117431 -0.028513763 -0.091163725 -0.0057206275 0.042317588 0.025372153 -0.06415106
-0.11885334 -0.03419987 -0.11736159 -0.18266581 0.0005108414 0.07043899 -0.041841898 0.02998601
-0.11296817 -0.0063158707 -0.01509669 -0.07468416 -0.007838344 -0.18106778 -0.059805743 -0.054503925
0.006530056 -0.12386739 0.065732755 -0.014705317 -0.031351484 -0.059695795 -0.04744658 0.040041585
-0.04738468 0.09304716 -0.0126502495 0.0018525888 0.076136746 0.08695899 0.08443841 -0.06571801
0.09342041 -0.0050565484 0.0075857616 -0.052623462 0.08834463 0.029622108 -0.14043629 0.01922857
0.006536589 0.03360642 0.07904782 -0.025429802 -0.07296923 -0.12709649 0.018690541 -0.033540532
-0.047895007 0.025329748 0.09304093 -0.055572677 0.14004514 -0.07068391 0.0147052435 0.0070308
-0.12869987 -0.04267488 -0.012786684 -0.051627837 0.05540269 0.0036374496 0.019786222 -0.020938646
0.033437148 0.07403623 -0.047217753 0.015087995 0.02043307 0.05842268 -0.10884187 0.05003961
-0.1311427 -0.012293734 -0.07091338 -0.046267346 -0.016948683 -0.008653158 -0.002207355 -0.03859586
-0.044391986 0.007904874 0.0016085951 -0.014896559 0.0526794 -0.08655853 0.06330034 -0.14647138
-0.028903915 0.12071143 -0.08109397 -0.021362696 0.057519447 0.08807798 0.003529303 -0.053670228
-0.07547876 -0.07410918 0.035461824 0.10120351 0.09058184 0.03955206 0.012908057 0.15479067
0.069868825 -0.018982772 0.14979306 -0.067214526 -0.03588927 -0.044153843 0.112802885 0.015020212
0.05831383 0.024489604 -0.11508278 0.073136345 -0.020071268 -0.013810203 -0.058134962 0.019078117
0.0023229904 0.12950338 0.10705945 0.045456316 -0.027712513 0.04215566 -0.10511396 0.0038867032
-0.033613592 0.14898004 0.12739153 0.014695118 0.033269968 0.040281758 0.09315383 0.087582946
0.058291867 0.07945457 0.18733215 0.13209495 -0.059606314 0.063865036 -0.06096741 0.16612029
-0.06149447 0.09013621 0.05253933 0.10468305 -0.030832686 0.11428364 0.033351224 -0.0023387216
00000000: 9fa4 ad3a 3aab 4abd 30c7 12bd dd6c 073e
00000010: 0d87 cd3d 06f0 a83c 402f 20bd 616a d3bd
00000020: 130f 803d 867d 6c3d d2a7 5bbd 1648 40bd
00000030: 5f9c 60bc 7699 2f3e 2018 74bd 3318 233e
00000040: 4837 853d e558 1e3e 741d 0cbd f02a b3bc
00000050: 5b82 4c3c 6f29 3dbd 2ceb 293d e518 4f3d
00000060: 79df 3cbd 02dd a6bd 2972 c13b b00b 31bc
00000070: 3996 51ba bfa4 113e d850 95bd 8cc0 933d
00000080: 5916 233c e4f8 8c3c c056 26bd cd6a 803d
00000090: 87a7 6db9 10b7 a4bc 51d8 5a3a 5f87 e0bb
000000a0: b4c3 313d 3b58 033e 240f 973d c044 173d
000000b0: 86ec 7a3e 52b4 ea3c 6935 a7bd 2923 603c
000000c0: 2ce9 5bbd b035 8d3d 6876 d43d 8da9 51bd
000000d0: d938 003e f674 70bc b217 683d 9f8b 863d
000000e0: 8c33 0d3e 8e96 353e f39b 81bb 0ab4 d9bd
000000f0: ab35 bf3d 63a8 423e 21f0 b1bd d2b5 ea3d
00000100: ce6d 553d 26b0 823d c078 7cbb 208f debd
00000110: 2176 bbbd b35b 823d 86e4 bdbd ec51 76bd
00000120: c3db d0bd d696 03bd 7a7b f0bd e0c5 f5bd
00000130: ea20 20bd 8bbf 09bc 8710 4ebd 728f e63d
00000140: 1733 4e3d 2b41 693c ab38 db3d c786 853c
00000150: 98d9 26bc 9f31 a23d 11b2 003d 4736 19bd
00000160: b81b e8bc 1d83 0ebc 64ad 83bd 19c5 d93c
00000170: 8552 7d3c 8f56 ad3b 7189 03be 0ea5 293d
00000180: 08c5 56bd d6c3 91bd b295 e9bc 0cb4 babd
00000190: 1a74 bbbb 3555 2d3d 43d9 cf3c a261 83bd
000001a0: 6169 f3bd 2a15 0cbd 465b f0bd bf0c 3bbe
000001b0: fce9 053a 5142 903d 6962 2bbd 39a5 f53c
000001c0: db5b e7bd 5df5 cebb 1b58 77bc 02f4 98bd
000001d0: 666c 00bc d569 39be def6 74bd 823f 5fbd
000001e0: 14fa d53b 30ae fdbd e59e 863d 92ee 70bc
000001f0: 6a6a 00bd 9483 74bd 5857 42bd a502 243d
00000200: 7016 42bd 828f be3d fe42 4fbc 91d2 f23a
00000210: 95ed 9b3d 8e17 b23d 0cee ac3d 2a97 86bd
00000220: 3353 bf3d 67b1 a5bb fb91 f83b b38b 57bd
00000230: 08ee b43d 10aa f23c 88ce 0fbe 3c85 9d3c
00000240: e230 d63b e3a6 093d d3e3 a13d 2952 d0bc
00000250: e470 95bd 9525 02be e81c 993c cc61 09bd
00000260: 8e2d 44bd 5580 cf3c 3e8c be3d 2da0 63bd
00000270: fe67 0f3e bac2 90bd 43ee 703c a062 e63b
00000280: e6c9 03be dbcb 2ebd 3d7f 51bc b677 53bd
00000290: eeed 623d 4762 6e3b b716 a23c 8687 abbc
000002a0: 64f5 083d 4fa0 973d 6767 41bd a333 773c
000002b0: 4163 a73c 9f4c 6f3d 7de8 debd 56f6 4c3d
000002c0: 464a 06be a86b 49bc 093b 91bd d482 3dbd
000002d0: f7d7 8abc fac5 0dbc 46a9 10bb b116 1ebd
000002e0: 5fd4 35bd 7283 013c 7fd7 d23a b210 74bc
000002f0: 5bc6 573d 9945 b1bd 9ca3 813d 98fc 15be
00000300: e7c7 ecbc 8e37 f73d 9814 a6bd d200 afbc
00000310: 8399 6b3d 3a62 b43d e14b 673b 50d5 5bbd
00000320: 9c94 9abd 8ec6 97bd 6b40 113d c943 cf3d
00000330: f982 b93d 5701 223d 517c 533c 7281 1e3e
00000340: 6317 8f3d c281 9bbc 5a63 193e c5a7 89bd
00000350: a100 13bd a9da 34bd 3305 e73d 5617 763c
00000360: 7cda 6e3d 6c9e c83c 85b0 ebbd 82c8 953d
00000370: 806c a4bc 3144 62bc ed1e 6ebd b649 9c3c
00000380: 503d 183b 899c 043e fc41 db3d 6730 3a3d
00000390: 5a05 e3bc 6aab 2c3d fd45 d7bd 0fb8 7e3b
000003a0: 68ae 09bd 398e 183e ed72 023e cbc3 703c
000003b0: 1746 083d 7cfe 243d 6fc7 be3d b05e b33d
000003c0: 74c3 6e3d 14b9 a23d 00d4 3f3e e643 073e
000003d0: c025 74bd accb 823d f7b8 79bd 701b 2a3e
000003e0: a0e1 7bbd 5599 b83d 7b33 573d 1164 d63d
000003f0: d494 fcbc 8b0d ea3d 4b9b 083d 3d45 19bb
