000651.SZ_stock_model.pth (torch, 205359 bytes, 9 tensors)

rnn.weight_ih_l0 f4 [256, 1]
000000 ff 0a 36 bd e5 ba 22 3d f8 31 cf 3d c2 ae 64 3e
       -0.04444408 0.039729018 0.10116953 0.2233229
000010 ec 5f 15 3e ab ed dd 3d 42 71 e7 3b 53 96 9a 3d
       0.14587373 0.10836347 0.007063062 0.07548203
000020 ea 47 2d 3e a3 c5 4b 3e de 08 cb bd bd a0 19 3d
       0.16921964 0.19899611 -0.09913801 0.037506808
000030 4a 5c 46 3e d7 bd 71 3e 66 63 09 3e cf 7e 42 3e
       0.19371143 0.23607574 0.13416824 0.18993686
000040 22 fd 59 3e 13 83 81 3d e0 e8 3e 3e e8 2c c6 3d
       0.21287969 0.063238285 0.18643522 0.09676534
000050 6c 5a 05 3e 4f 7c 95 3d 55 86 87 bd 6a d1 8b 3e
       0.13022774 0.072991006 -0.06617419 0.27308208
000060 a1 0a 26 3e 74 ae 49 3d 4b a2 9c bc 06 c0 fb 3d
       0.16214992 0.049238637 -0.019120356 0.12292485
000070 71 43 65 3d f2 c7 28 3e d1 18 85 3e 3f 59 ea 3c
       0.05597252 0.16482523 0.25995496 0.028607009
000080 9b e8 91 3e f8 b2 04 3e ad e1 00 3e fc 88 84 3e
       0.28497776 0.12958896 0.12586088 0.2588576
000090 9d 8b b9 3d 98 2f 38 3e 56 bf 7e 3d 75 e1 b9 3d
       0.09059832 0.17986906 0.06219419 0.09076206
0000a0 90 a5 42 3e f7 33 a2 3e 3c 0b c3 3c 0e 2b 68 3e
       0.1900847 0.3168027 0.023809068 0.22672674
0000b0 c3 4f 8f bd f2 1f 55 3e e3 13 27 3e 63 a1 59 3d
       -0.06997635 0.20812967 0.1631618 0.053132426
0000c0 8f de 56 3e 2c ec bb 3d 12 82 e3 bd 0c 1f b8 3d
       0.20983337 0.091759056 -0.11108793 0.08990297
0000d0 d9 42 01 be 9a 72 0a 3d 4f 45 90 bd e5 3b 6c 3c
       -0.12623157 0.0338007 -0.070444696 0.014418577
0000e0 a1 50 62 3e 61 c5 1b 3c 62 11 ef 3d 14 3e 5c 3d
       0.2210107 0.009507508 0.116732374 0.05377014
0000f0 72 8c 51 3e 70 07 2c 3e c9 27 81 3d c9 01 21 3e
       0.20463732 0.16799712 0.063064165 0.15723337
000100 30 d6 ce bd 66 c6 cd 3d 10 39 0e 3e ae 6b e3 3c
       -0.10099447 0.10047607 0.13888955 0.027761307
000110 a5 64 2f 3d 7c 93 25 3e c9 46 0e bd 6f 7b 63 bd
       0.04282059 0.16169542 -0.034735475 -0.055537637
000120 26 a1 ee 3d ba 67 7c bc ee f5 a6 bd 51 7f 3e 3e
       0.116518304 -0.01540559 -0.08152376 0.18603255
000130 cf 15 00 3e 4e fe 70 bd 8d 38 60 bd b0 83 c7 3d
       0.1250832 -0.058836274 -0.05474143 0.09741914
000140 9b 5d 64 3d 57 77 43 bd 4d dc 4e 3d 13 6d 04 3c
       0.05575333 -0.047721233 0.050503064 0.008082646
000150 f5 ac bc 3d 11 62 de 3d 21 90 37 bc 09 a3 26 bd
       0.092126764 0.108585484 -0.011203797 -0.040682826
000160 cb 80 7d bd bd 21 22 be 8e d6 aa 3c d0 34 7e bd
       -0.061890405 -0.15833183 0.02085426 -0.062062085
000170 48 6c 20 3e e5 20 c7 3d 2a b7 33 3e d9 8e 12 3e
       0.15666306 0.09723071 0.1755034 0.14312305
000180 cd 0f a3 bd 63 d3 2e 3c 01 bd 02 3e fb d8 45 3d
       -0.07961998 0.010670516 0.12767412 0.04830263
000190 9d 13 29 bd 4e 20 d1 3d 06 4f 79 bc d8 9d b4 3d
       -0.04127847 0.1021124 -0.015216595 0.08819169
0001a0 37 ef 30 bd b4 74 41 bd 94 d9 fc 3d 0c 1d b2 3d
       -0.043196883 -0.047230437 0.12346187 0.086969465
0001b0 d1 25 62 bd df 7d 08 3e 43 b0 d6 3d 33 ea 58 be
       -0.055211846 0.13329266 0.10482838 -0.2118309
0001c0 e9 99 93 3d 7f ce 8d bd 00 b0 5d be a6 a3 aa bd
       0.072070904 -0.06924152 -0.2164917 -0.08331995
0001d0 7c 11 44 be 00 12 c1 3d d8 12 61 be 4f 5a 6e be
       -0.19147295 0.09427261 -0.21979845 -0.23276637
0001e0 69 17 7a bd 08 60 3c be 75 be bf 3d 01 da 68 be
       -0.061057482 -0.18396008 0.09362499 -0.22739412
0001f0 b4 db 0e 3e 35 ae 90 3c 20 33 88 bd 27 b8 67 3d
       0.13950998 0.017661193 -0.06650376 0.056572106
000200 a7 fb 01 be 6d c6 60 be ff 98 13 be 61 6f 27 3e
       -0.12693654 -0.21950693 -0.14413832 0.16351081
000210 b3 b9 39 3e b3 57 f4 3d 0c 5a 11 3c e7 d2 03 be
       0.18137245 0.1193079 0.0088715665 -0.12873422
000220 4e e9 44 3c ac b3 22 3e a9 38 ca 3d 35 1d 51 3d
       0.012018515 0.15888852 0.09874088 0.051053245
000230 af a4 31 be 61 8c 5a 3e d7 7e 26 3e d4 e2 16 be
       -0.17347978 0.21342613 0.16259323 -0.14734966
000240 1a d0 8d bd 81 13 65 be 96 7e bc 3d d1 a9 35 be
       -0.06924458 -0.22370721 0.09203832 -0.17740561
000250 ad c8 e0 3d 60 c4 1a 3e 9b 5d 33 3e c0 bd 25 be
       0.10975776 0.15113974 0.17516176 -0.16185665
000260 ab 38 49 be 9d f8 da 3d 1e 3f d0 3d 41 95 04 bc
       -0.19650523 0.106919505 0.10168289 -0.0080922255
000270 16 b4 c3 3d 28 3d 59 be 91 a0 7a 3e 6f 2c fe 3d
       0.09555833 -0.21214736 0.24475314 0.12410819
000280 73 d9 2a 3e c4 53 23 be 57 98 20 3e 38 d1 3e be
       0.16684513 -0.15949923 0.15683113 -0.18634498
000290 8f 9e 3d be 9c 50 dd bd 39 66 19 3d d6 ef 41 be
       -0.18517517 -0.10806391 0.037451003 -0.18939146
0002a0 b6 f2 fa 3d 74 ed 3a be 0c 0d a4 bc 9e fa 58 3e
       0.12253325 -0.18254644 -0.020025752 0.21189353
0002b0 cd 57 54 3e 3a 6e 64 be 76 8e 98 3d ea 77 43 be
       0.20736618 -0.22307673 0.07449047 -0.19088712
0002c0 22 f5 e2 3d a2 eb 0e 3e 61 71 f6 bd fa fc 3d be
       0.110819116 0.13957074 -0.12033344 -0.18553534
0002d0 ab 67 29 be ff 16 e6 3d f7 89 04 be 2e 8c 3d be
       -0.16543452 0.11234855 -0.12943254 -0.18510506
0002e0 6e 25 15 be 8b 85 02 be dd 4f 6b 3e c2 0c 3a 3e
       -0.1456506 -0.12746255 0.22979684 0.18168929
0002f0 58 57 3c 3e 1a e5 31 be cd 1a 20 3e bd 0b e4 3d
       0.18392694 -0.17372552 0.15635224 0.111350514
000300 40 ca 10 be 1f 39 7d 3e 42 59 c1 3d 56 1a fb 3c
       -0.14139652 0.24728821 0.09440853 0.030652206
000310 1a bb ed 3d 69 1a 10 3d 31 65 f0 3d fc fe 96 bc
       0.116079524 0.035181437 0.11738051 -0.018432133
000320 0c 67 b3 3b 17 95 41 3d 0d f8 0a be b5 ef 67 3e
       0.0054749306 0.047261324 -0.13571186 0.22650035
000330 5a 29 75 3e 82 64 90 3e 35 26 42 3d fa 74 22 3e
       0.23941556 0.2820168 0.04739972 0.15864936
000340 16 78 43 3d f1 67 9f 3d a9 5a 72 3e d4 b1 8a 3e
       0.047721945 0.07783497 0.23667397 0.27088797
000350 6f 61 29 3e 26 35 af 3d 99 e7 b0 bc c9 31 7a 3e
       0.16541074 0.08555059 -0.02159481 0.24433054
000360 61 d8 79 3e 44 4b 05 3c 3e 82 4f 3e 19 8d 44 3d
       0.24398948 0.0081356205 0.20264527 0.047986124
000370 12 19 6c 3d 38 72 3d 3e 61 eb ee 3d e6 38 e4 3c
       0.057641096 0.18500602 0.11665989 0.027859163
000380 f3 3a 5b 3e 43 d2 18 3e 99 19 eb 3d 65 5f 73 3e
       0.21409206 0.14923958 0.11479492 0.23766859
000390 f8 ab 10 3d 4b 69 31 3e 31 83 20 3e b8 47 0b 3e
       0.035320252 0.17325322 0.15675046 0.13601577
0003a0 f5 b1 ab 3d d4 04 5e 3e d3 bf 1c 3e 4d c1 5f 3d
       0.08383552 0.2168153 0.1530755 0.054627705
0003b0 80 32 58 bd 5a 34 1a 3e 8c 64 07 3e 04 ad 07 be
       -0.052782536 0.15059033 0.1322195 -0.13249594
0003c0 1d 51 84 3e f2 38 8a 3d 11 07 44 be 18 ba 8b 3e
       0.25843135 0.06749143 -0.1914332 0.27290416
0003d0 0a 06 06 3d 01 9b fe 3d 27 4f 3f 3d b0 41 2a 3c
       0.032720603 0.124319084 0.046706345 0.010391638
0003e0 ce 7a 75 3e d5 27 6a bd 0d bf 11 3e 8f 90 c5 3c
       0.23972628 -0.057166893 0.14233036 0.024116782
0003f0 74 1c 83 3e 48 a0 a1 3d c9 b0 f5 3c 66 a7 22 3e
       0.25607646 0.07891899 0.029991524 0.1588417

rnn.weight_hh_l0 f4 [256, 64]
000000 ed 43 e3 3d 21 d2 5a bd 0f 74 d2 bd 95 55 d1 3d
       0.1109694 -0.05342305 -0.10276043 0.102214016
000010 51 d6 5b 3d 0f 47 b8 bd 73 87 c5 3d 40 3c 14 bc
       0.053671185 -0.08997928 0.096449755 -0.009047568
000020 b3 3f cf bd 40 d0 a0 bd 51 0c 0c bd d0 4b a3 3d
       -0.101195715 -0.078522205 -0.034191433 0.079734445
000030 bf 3c 78 bd ce de b0 3a 79 e5 00 3e 1e 5a 9a 3d
       -0.060604807 0.0013494135 0.12587537 0.0753672
000040 c8 b9 ec bc e5 c3 01 be c6 64 bb 3d 8d 93 aa bd
       -0.028897181 -0.12672384 0.091500804 -0.08328924
000050 ee d9 be 3d d9 f1 a1 3d 98 12 1a bd 2e 1c 86 3b
       0.093189105 0.07907457 -0.03761539 0.0040927147
000060 57 b6 bb 3c c6 52 34 bd fd 41 aa bc 5b 5a 05 3d
       0.022914095 -0.04402425 -0.020783419 0.032556873
000070 dd db 23 3d 3d ed a2 bd 36 9f 15 bd 04 a7 9d 3d
       0.0400046 -0.07955406 -0.03652879 0.07697871
000080 04 b7 0d 3e 89 18 b9 ba 6c bf 19 3e ec 5a 85 3d
       0.13839346 -0.0014121692 0.15014428 0.065114826
000090 aa 18 82 bc 8e a8 9e 3c 44 1d fb 3d b3 c2 d4 3b
       -0.015880901 0.019367483 0.12261441 0.0064929365
0000a0 9e 2a 18 3d 9f 05 da 3d ca c9 e1 bd 8a 99 e4 3b
       0.037150018 0.106456034 -0.11024816 0.006976311
0000b0 5e e8 ef bd 8d 25 f0 bd 49 ef b0 3d b5 24 db bc
       -0.117142424 -0.11725912 0.0863939 -0.026750902
0000c0 db 0d 6f bd 9a 08 05 3e 58 ee 93 bd d0 4e e7 3d
       -0.058362823 0.12991562 -0.07223195 0.11294329
0000d0 e3 58 c6 3d d6 f1 3e bb de 43 8e 3d e8 7a a7 bc
       0.096849225 -0.0029135845 0.069465384 -0.020444348
0000e0 ea a5 81 3d 3e cd fd ba 09 3d 32 bc bf e3 af 3d
       0.06330474 -0.0019363535 -0.01087881 0.08588361
0000f0 14 12 cb bd 1e e3 bd bd 90 7f a2 3d 72 7c b4 bd
       -0.099155575 -0.09271835 0.07934487 -0.088127986
000100 95 b1 02 3e 9c 53 06 be 61 6b d5 3c 65 79 b1 3d
       0.12763055 -0.13117832 0.026052179 0.08665732
000110 b7 24 5f 3c 5d e9 b3 3d 3f 28 5e bd aa 33 0e bd
       0.013619593 0.08784745 -0.0542376 -0.03471724
000120 41 84 fd 3d 56 27 11 3e c8 7d 26 bd 2a 5f 60 3c
       0.12378741 0.14175162 -0.040647298 0.013694564
000130 af c7 79 bd 2f 02 8a bd c9 fa f1 3d ea 57 d1 bd
       -0.06098145 -0.06738698 0.118154116 -0.102218464
000140 0f 6c fe bd ef 6c 21 be e4 30 0c bd 46 3c 2c be
       -0.12422954 -0.15764211 -0.034226313 -0.16819867
000150 84 e4 09 3d 7c ca 80 3b f0 95 de 3d 5f ac 0e be
       0.033665195 0.003930388 0.10868442 -0.13932942
000160 9f b2 f6 bd 17 13 a7 3d ed e7 62 bd f9 de fe bd
       -0.12045788 0.08157938 -0.055396963 -0.124448724
000170 4d 4a 67 bd 53 5d 9d 3d 98 5e 2c bd 6f df 95 bd
       -0.056467343 0.07683816 -0.0420824 -0.07318007
000180 fe 90 d6 3c 03 cf ae 3d 79 61 4b bd 5d 81 49 bd
       0.026192185 0.08535578 -0.049653504 -0.049195636
000190 62 60 11 be 4f a3 e3 bd 15 6c d3 3d c5 04 21 bd
       -0.14196923 -0.11115133 0.103233494 -0.03931119
0001a0 0e a8 cc bd fd be af bb c8 dc d0 3c 7b ee 23 3b
       -0.099929914 -0.0053633437 0.025495902 0.0025013972
0001b0 6c 47 0e 3e a9 4e 6f bd b1 bd 4e 3d 69 0b a5 bd
       0.13894433 -0.058424626 0.050473873 -0.08058817
0001c0 f5 a6 20 3d 3c 52 9d bb 31 35 d8 bd 6c d6 c6 ba
       0.039221723 -0.004801063 -0.105570205 -0.0015170104
0001d0 84 24 8e 3d 53 d0 88 3d b6 80 31 3d 36 04 4b 3d
       0.069405586 0.0668036 0.04333564 0.049564563
0001e0 7c 43 55 3d 1d 1f e9 3d 4e 84 e3 bb 0f eb 4d bd
       0.05206631 0.113828875 -0.006943262 -0.050272997
0001f0 2b 3c e0 3d 3b 40 96 3d 87 af 9a bb a4 b8 8a bc
       0.10948976 0.0733647 -0.0047206315 -0.016933747
000200 d2 8a 40 3d 93 5a 5e bd 51 6a 80 bd c8 24 a3 bd
       0.04700739 -0.054285597 -0.06270278 -0.07966
000210 cb f7 d0 bd 59 40 cc bc 75 7e 84 3d f9 78 0e bc
       -0.10203513 -0.024933027 0.06469432 -0.008695834
000220 3d f7 32 3d ff cf 15 3d 31 3f 3f 3d 0d 11 e8 bb
       0.043692816 0.036575314 0.046691123 -0.0070821107
000230 ac 7b 91 bd 4e 91 a3 bd 19 e2 11 bc 0c 06 7d 3c
       -0.07103667 -0.07986699 -0.008904004 0.015443336
000240 ee 51 1c bd 39 d9 4c bc 16 dc ca 3d e1 9f 2e be
       -0.03816407 -0.012502962 0.09905259 -0.17053176
000250 3a 5b d6 bd 9b cf c7 3d cb 38 d2 3d 6c bd d7 bd
       -0.10466619 0.097563945 0.10264739 -0.10534176
000260 10 d4 30 bd be dd e6 bd b6 4c 43 3d f2 d7 7e bd
       -0.04317099 -0.11272763 0.04768058 -0.06221766
000270 f3 22 0d bc 96 ca 9e bd 50 55 e9 bc 43 7c ed 3d
       -0.00861429 -0.07753484 -0.028483063 0.11595967
000280 f8 f7 df 3d df 2b d6 3d 04 73 84 bd f3 18 b4 3d
       0.10935968 0.104575865 -0.0646725 0.08793821
000290 cb 30 b5 bd 8d ad 4a bd e5 f2 5e 3d 9a 5f 80 3c
       -0.08847197 -0.049481917 0.05443086 0.015670586
0002a0 9a 34 0b 3d a6 8a 01 bd 18 66 22 3c d4 71 25 3d
       0.03398571 -0.031626366 0.009912036 0.040391758
0002b0 73 b3 1d 3e 16 05 0a be 2c 49 2b 3d ad e1 a7 bd
       0.15400486 -0.13478503 0.04181783 -0.08197341
0002c0 d5 09 ff 3b b1 75 a7 3b b9 f1 33 3c 3a 78 97 3d
       0.0077831545 0.0051104655 0.010982924 0.07395978
0002d0 62 95 d4 bd 20 84 a8 bd 3b a2 b1 bd 3d f8 bc bd
       -0.10380055 -0.08228326 -0.08673521 -0.09227035
0002e0 db 59 8a bc 2e 59 d2 3d a9 0f 09 3d f0 ed 4e bd
       -0.01688855 0.10270916 0.0334622 -0.050519884
0002f0 a4 dd bc 3d 0b 06 b5 3d 38 35 9c 3c 53 a4 22 3d
       0.09221962 0.08839043 0.019068345 0.039707493
000300 2c 84 cb bd db 4c b2 3d 2d 0a a6 bd fc f4 01 3e
       -0.09937319 0.08706065 -0.081074096 0.1269111
000310 b4 c8 45 3d b6 f0 c2 bc f9 a0 c9 bd 82 36 01 be
       0.04828711 -0.02379642 -0.09845156 -0.1261845
000320 e2 d3 2d bd 0d 7b a6 bd 49 01 52 bc a6 5e ca bd
       -0.042438395 -0.08128939 -0.012817689 -0.09881334
000330 dc b6 da bd 00 d3 e1 3d fb 1e 71 3d d2 a7 1a be
       -0.10679409 0.11026573 0.058867436 -0.15103081
000340 f4 50 e4 3a 67 0f 27 be 6c 70 c2 bd 1a fd df 3c
       0.0017419145 -0.1631447 -0.09494099 0.027342368
000350 40 f0 94 bd fb 7a 20 bd e5 0a 07 3e 61 17 03 be
       -0.072723866 -0.039179783 0.1318775 -0.12801887
000360 fa 0a 5b 3d a6 b7 9d bd df ce f8 3d 9a 13 d9 bd
       0.053477265 -0.07701044 0.121488325 -0.10599442
000370 b6 d5 84 3d d7 af e5 3d 87 f3 83 3d 00 c6 4b 3b
       0.064860746 0.112151794 0.064429335 0.003109336
000380 8c 21 a8 bd d3 63 08 be 45 e5 87 3d 14 78 bd bb
       -0.082095236 -0.1331933 0.066355266 -0.0057821367
000390 c4 70 90 3d ab f2 a2 bd ad b6 9c 3d e0 0b 82 bd
       0.07052758 -0.079564415 0.0765203 -0.06349921
0003a0 38 ed 8d bc 1c 60 4e 3c 28 5f 9a bd 8d 68 8a bd
       -0.017325029 0.012596156 -0.07537681 -0.06758223
0003b0 52 4a 4c 3e 67 cc 91 bd 73 74 14 bd e2 2b c0 3c
       0.19950226 -0.07119065 -0.036243867 0.023458425
0003c0 35 dc e6 bb e0 9f 12 3e 9b c0 cc 3d 27 76 b3 3c
       -0.0070452937 0.143188 0.09997674 0.021906925
0003d0 e6 98 92 bd a0 33 22 3d 88 32 a9 bd 26 69 c6 3c
       -0.07158069 0.039600015 -0.08261591 0.02422006
0003e0 33 00 8f 3d 3b c3 cc 3d cf 9c 10 bd 22 dd e4 bd
       0.0698246 0.09998175 -0.035305794 -0.1117499
0003f0 b2 74 e8 3b 9b 94 a3 bd 7e 9e da bc a9 af 00 3e
       0.0070939893 -0.079873286 -0.026686903 0.12567009

rnn.bias_ih_l0 f4 [256]
000000 2f 51 8b 3c 17 c8 81 bd 5f 02 33 3d 89 cf eb 3d
       0.017006485 -0.06336992 0.043703433 0.115141936
000010 9a 72 a5 bd 0a 73 a3 bd 7f 65 a7 bc 9c d1 e6 3d
       -0.08078499 -0.07980926 -0.02043414 0.112704486
000020 b9 d3 8c 3c fc 95 14 3c c7 ce ea bd 2f 4b 2d bd
       0.017190801 0.009068962 -0.11465221 -0.04230803
000030 6e da 3b 3d 00 77 02 3e 5c 85 ae 3d 24 7c c5 3d
       0.045862608 0.12740707 0.0852153 0.096428186
000040 5c 1a d6 3d 43 56 bc 3d e9 51 15 3d a9 49 58 3e
       0.104542464 0.091961406 0.03645507 0.21121849
000050 af 55 12 3e a7 f6 b1 3d b5 40 9f 3c 8c 0d 8c 3d
       0.14290498 0.08689623 0.019440034 0.06838521
000060 8c 39 fb 3d 1c ca ba bb 0c f0 39 3d 77 21 34 3d
       0.122668356 -0.005700363 0.045394942 0.043977227
000070 09 ba 3b bd c3 bd 46 3d 8b cb 16 bd cd 8c 64 bd
       -0.045831714 0.048520815 -0.036815207 -0.05579834
000080 eb e8 39 3d 6b cd ab 3d 5a de 03 3e 0a da 36 3e
       0.045388144 0.0838879 0.12877789 0.17856613
000090 dc 50 e7 3d 76 c0 56 3b 42 85 c9 3d 53 97 b2 3d
       0.112947196 0.0032768524 0.0983987 0.08720269
0000a0 02 ed 90 bd d0 ef 4b 3e 9a ba e6 3d a0 4b 04 3e
       -0.07076456 0.199157 0.1126606 0.12919474
0000b0 a6 25 a5 3d 2b 96 8a bd 36 e5 3c bd 7a 9d 5a 3e
       0.080638215 -0.067669235 -0.04611703 0.21349135
0000c0 11 23 f8 3d 93 96 1d 3d 5c 3c 03 3e 51 e7 4a 3d
       0.121160634 0.038473677 0.12815994 0.049537007
0000d0 b9 61 c2 3d 2d 71 13 3e 06 5e aa bc a9 25 68 3d
       0.09491295 0.14398642 -0.020796787 0.05667654
0000e0 7e 0d 23 bc 1c b9 47 3e 4e 04 68 bc e0 5e 72 3d
       -0.009951947 0.19504207 -0.014161183 0.05917251
0000f0 c9 ff 3f bc af 23 ed bb 23 b3 dc bc 7e c9 6e 3d
       -0.011718699 -0.00723692 -0.026940888 0.058297627
000100 35 dc 7f 3d e9 24 c0 3d 9e 35 9c bd e4 36 51 3d
       0.062465865 0.0938204 -0.07627414 0.05107774
000110 5d e8 c0 3c b7 f2 d0 3c ff 27 07 be 83 ea d3 bd
       0.0235483 0.02550636 -0.13198851 -0.10347464
000120 a5 e1 fc bd 85 c0 1b bd da 26 1c be 58 44 30 be
       -0.12347726 -0.038025398 -0.15249196 -0.17213571
000130 57 74 83 3d 00 77 f2 3d 78 cb a6 3d 45 2e 06 be
       0.064186744 0.11839104 0.08144277 -0.13103588
000140 de 3b f5 bc 35 74 a8 3b be 86 a4 bd 00 75 86 3d
       -0.029935773 0.005140806 -0.080335125 0.06565285
000150 b2 9d b3 bd 53 cc 5f bd 75 eb 8f bc d7 d6 f7 bd
       -0.08770312 -0.054638218 -0.01756833 -0.12101524
000160 9d e0 11 bd e8 8d c9 bd 04 c1 89 bd 22 49 f3 bc
       -0.0356146 -0.098415196 -0.06726268 -0.029697958
000170 a8 ed 05 bc 54 dc 7b 3d fb d1 b0 bd 81 a3 9e ba
       -0.008174337 0.06148942 -0.086338006 -0.0012103171
000180 ed db cd 3d ae 43 28 3d ca 4a 30 be 61 2f b8 bd
       0.10051713 0.04108017 -0.1721603 -0.08993412
000190 80 14 a0 bc a1 db 0e bd 7d 15 b9 bd 29 da c8 3c
       -0.019541025 -0.034877423 -0.09037302 0.02451809
0001a0 55 9d 58 3d 9a 9c 4e 3d 80 25 d4 bd 4f 7a d5 bd
       0.05288442 0.050442316 -0.10358715 -0.10423719
0001b0 cc 44 71 3d 30 04 8d ba 9d c4 b6 3c 27 aa 54 3d
       0.0589035 -0.0010758694 0.02231055 0.051920082
0001c0 4a 66 89 bd ef 70 ae bc 8f 0e d0 bc f4 d3 3a 3d
       -0.06708963 -0.021294085 -0.025397567 0.04561229
0001d0 c1 a1 f6 bb 3a ad 46 3c 7d dd 06 be c0 80 ff 3d
       -0.007526607 0.012126261 -0.13170429 0.12475729
0001e0 3a 23 a0 3c 07 23 03 be 68 46 36 bc a1 34 93 bd
       0.019548047 -0.1280633 -0.011125185 -0.071877725
0001f0 4f 7e c8 3d 7d 41 fe bc a5 3a 53 3c 35 d8 ad 3d
       0.097897165 -0.031037087 0.0128924 0.08488504
000200 62 17 96 3d 5c 4a b5 ba 82 82 a2 bd e1 e8 bf 3d
       0.07328679 -0.0013831365 -0.07935049 0.0937059
000210 fe 94 c4 3d 29 ba 95 3d 7f 84 81 bd 46 b7 b8 3c
       0.095987305 0.07310898 -0.063241 0.02254833
000220 7a 16 d7 bd 66 18 66 3d f2 b7 93 bd be c2 0e 3e
       -0.10502334 0.056175612 -0.07212819 0.13941476
000230 d2 98 56 3d 6b 3d c0 bd 95 4a 04 3e c6 eb 92 bd
       0.052391835 -0.093867145 0.12919076 -0.071738765
000240 e3 19 16 bd 25 88 9e bd eb 4d d7 3d 2f a4 ab 3c
       -0.03664578 -0.07740811 0.105129085 0.020952312
000250 4b 14 54 3b ab e6 04 bd 84 35 8f ba a9 d7 d7 bd
       0.0032360728 -0.032446545 -0.0010925983 -0.10539181
000260 f7 88 f0 bd f2 74 f8 bd 98 84 ac 3d 21 a8 85 bd
       -0.11744874 -0.121316805 0.08423728 -0.06526209
000270 48 32 fd 3d d8 0a 9f bc 85 00 c4 3a a2 3e e3 3d
       0.12363106 -0.01941435 0.0014953768 0.11095931
000280 06 8a a2 bd b3 0d 03 be a9 75 aa 3d ba 16 08 bd
       -0.07936482 -0.12798195 0.08323223 -0.0332248
000290 4f c6 44 bd 61 34 af bd 07 57 b4 3d 77 f4 a2 3c
       -0.048040684 -0.08554912 0.08805662 0.01989196
0002a0 0b 57 88 3d f1 a3 31 3d c3 ee e7 3c 56 2e 01 bd
       0.06657227 0.043369237 0.028312093 -0.03153833
0002b0 81 fd d3 3b 69 e6 fc bd 11 2f 8e 3d 71 da b1 3d
       0.006469429 -0.12348635 0.06942571 0.086842425
0002c0 1d 7b a1 3d db c3 8c bd 00 64 ef bb 85 2a f2 3c
       0.0788481 -0.06873294 -0.007305622 0.02956129
0002d0 6b 31 aa 3d d4 1e 96 3d 9f 8f 95 bd ae b4 a8 3a
       0.08310207 0.07330099 -0.07302784 0.001287123
0002e0 53 ee 94 3d 0c a9 a8 bc 86 80 13 3d 8a ff 32 bd
       0.07272019 -0.02058842 0.03601124 -0.043700732
0002f0 ea 4f 1a 3d 3f 21 39 bc 06 0b a1 bc d0 cd 83 3c
       0.03767387 -0.01129943 -0.019658577 0.01608935
000300 6f 86 d0 3d 26 06 1f 3e 7c bb 19 3d 77 ba 1b 3d
       0.10181891 0.15529689 0.037532315 0.038019624
000310 b9 82 d2 3b 78 0a e5 bb db 26 56 bd 5a 22 2b 3e
       0.0064242748 -0.0069897734 -0.05228315 0.16712323
000320 31 ff 32 3d e6 9d 03 3d c0 b9 04 3c ac 6a 89 3d
       0.0437004 0.032133006 0.008100927 0.06709799
000330 ce 49 b8 3d 16 1e ac 3d 06 38 98 bd 92 1b 89 bd
       0.08998452 0.08404176 -0.074325606 -0.06694712
000340 34 05 30 bd 75 d5 05 3e af 16 14 3d 10 6c 49 3e
       -0.042973712 0.13069709 0.036154445 0.19670129
000350 00 88 db 3c de 6e d9 3d ce d0 5a 3e e6 35 4b 3e
       0.026798248 0.10616849 0.21368715 0.1984478
000360 5d ab b7 3d 6d 6b d2 3d 6f 39 0f bd 0f b7 4e bc
       0.08968232 0.10274396 -0.034966882 -0.012616887
000370 f5 02 4a 3c 2b 3e 31 3e a0 2a 22 3e 8e 44 3f bd
       0.012329807 0.17308871 0.15836573 -0.04669624
000380 e6 f2 25 3e 50 6e f1 3d 04 f6 5d 3e a8 4d 5d 3e
       0.1620594 0.117886186 0.21675879 0.21611655
000390 3e 31 c0 3d 43 dd d4 3d 23 59 0f bd 3f c8 72 3d
       0.09384392 0.10393765 -0.034997117 0.059273
0003a0 95 64 1b 3e 19 85 9e 3e f8 02 80 3d cf 72 59 3d
       0.15175088 0.3096092 0.06250566 0.053088006
0003b0 e6 ce 86 3c 54 69 60 3d 54 20 95 3c 7c 77 6a 3e
       0.016456079 0.05478795 0.018203892 0.22897142
0003c0 5d a5 e6 3d 00 cb 46 3e e9 04 2c 3d 35 e3 e7 3d
       0.11262009 0.19413376 0.04199687 0.11322633
0003d0 46 8b 5b 3e b2 c7 9b 3d e1 62 0e 3e 2d e3 88 3e
       0.21439847 0.07606448 0.13904907 0.2673582
0003e0 00 68 25 3e 39 08 54 3d 9a c3 30 3e bf 88 8e 3d
       0.16152954 0.051765654 0.17262116 0.06959676
0003f0 cb 93 50 3e d8 ca ad 3d bc bd 14 3e 39 3c b5 3d
       0.20368879 0.08485955 0.14525503 0.08849377

rnn.bias_hh_l0 f4 [256]
000000 b6 20 1b 3e c7 43 07 3d 21 0e 94 3d a0 d8 59 3d
       0.15149197 0.033023622 0.072292574 0.053185105
000010 d4 fb 87 bd c8 18 ca 3d 21 45 8d 3d a8 6c 99 3c
       -0.06639829 0.09868008 0.06897951 0.01872857
000020 f6 85 22 3c b5 19 2c bd 3e 60 f7 bd 01 1c a6 3d
       0.009919634 -0.042016704 -0.120789036 0.0811081
000030 d1 a3 32 3d 10 90 06 3c bc b4 78 bd 58 3e e8 3d
       0.04361326 0.008213058 -0.060719237 0.11340016
000040 27 94 51 3c d1 a2 59 3e 53 33 a2 bc df c2 8c 3e
       0.01279167 0.21253516 -0.019799864 0.27492425
000050 2b 18 cd 3d 74 c7 48 3e 01 00 cb 3c 6e 90 fd 3d
       0.10014375 0.19607335 0.024780275 0.123810634
000060 b5 fd 01 bb 86 a8 3d 3a 38 f7 1b 3e cf 39 96 3d
       -0.001983506 0.000723489 0.15231025 0.07335245
000070 03 93 31 3d 70 6c 20 bd f2 58 f7 3d 4d 5d c0 3d
       0.043353092 -0.039165914 0.12077512 0.09392796
000080 6e 40 2e 3e ce 3e 44 3d d5 72 77 3d 32 74 a7 bb
       0.17016765 0.047911458 0.060412247 -0.005110287
000090 71 53 75 bd f7 b0 91 3d c9 15 29 3d 5f 37 5f 3c
       -0.05989403 0.071138315 0.04128054 0.013624041
0000a0 59 20 a6 3d b3 af 83 3e c2 df 60 bd bf 4e 15 bd
       0.081116386 0.25719985 -0.054900892 -0.03645205
0000b0 6b 40 1e 3e 0f 44 1d 3e 4a f3 26 3e 0b 75 79 3d
       0.15454261 0.15357994 0.16303745 0.060902636
0000c0 6f 3b 6c bc 14 a0 15 3d 36 9a 16 3c 4f 2b 8f 3e
       -0.014418467 0.036529616 0.00919204 0.2796273
0000d0 d6 f8 c4 3d 7d 7f 14 3e ca c8 2e 3c c0 dd 0e 3e
       0.09617774 0.14501758 0.010667989 0.13951778
0000e0 58 8c 16 bc 3e d6 56 3e 4d 31 ac 3d 5d 8f 22 3e
       -0.009188734 0.20980164 0.08407841 0.15875001
0000f0 7b 36 46 3e 20 30 55 3d 61 17 d1 3d b9 cb af 3d
       0.1935672 0.05204785 0.10209537 0.08583779
000100 85 b3 4a bd 29 c4 fe bd 2e 5f eb bd d5 60 9e bd
       -0.04948761 -0.12439758 -0.114927635 -0.07733313
000110 55 58 bc 3a 1d 1a 02 bd bb de 19 3d 9c 05 63 3d
       0.0014369587 -0.031763185 0.037565928 0.05542527
000120 f2 0b 43 be a9 85 2e bd c9 bf 2d 3d 6d c6 69 3d
       -0.19047526 -0.042607937 0.04241923 0.057074
000130 fc 85 38 bd 46 a5 0f 3e bd ed 1f bd 2d 3c 87 3d
       -0.045049652 0.1402789 -0.039045084 0.066032745
000140 20 da 18 be 92 db 6d bd cd 58 0a be dd 65 fc 3d
       -0.14926958 -0.058070727 -0.13510437 0.123241164
000150 68 35 be 3d 37 9b 74 3d 63 49 c4 bd 68 cc fc 3d
       0.0928753 0.059718337 -0.0958431 0.12343675
000160 07 da 33 bc 8c e2 2c be 12 1c f5 bc 05 7d e3 bd
       -0.010977275 -0.16883296 -0.029920612 -0.1110783
000170 98 2b 58 3d 29 02 b0 bd 42 45 32 3d 7f 5c 0d be
       0.05277595 -0.08594162 0.04352308 -0.13804816
000180 0f d9 f4 bd fd aa ef 3c 98 73 c7 bd 87 a0 ea 3d
       -0.11955463 0.029256338 -0.09738845 0.114563994
000190 e3 66 2f bd 18 5b d0 bd 04 a4 5c bd ef 0f 91 3d
       -0.04282273 -0.10173625 -0.053867355 0.07083117
0001a0 ba 99 c7 3d e4 bf 86 3c 0a 75 79 bd 07 ed 99 3d
       0.09746118 0.016448922 -0.060902633 0.075159125
0001b0 ec 8c 07 3d 23 95 c7 bc 42 c3 c7 bd 0f 75 86 3c
       0.033093378 -0.024363106 -0.09754039 0.01641324
0001c0 58 c3 03 be 04 d1 ef bd c9 e8 da bb 6c 01 ab 3d
       -0.12867486 -0.117097884 -0.006680582 0.083498806
0001d0 fb 64 a1 3b 40 12 cf bd 06 1c 92 3d 48 5f 50 3d
       0.004925368 -0.10110903 0.07134251 0.050872117
0001e0 cb f8 28 be e1 b9 d6 bb cf 07 d9 bd f1 f1 c2 bd
       -0.16501157 -0.00655292 -0.105971925 -0.09518803
0001f0 9f 3f cd 3d 99 29 a7 bd ad eb b0 bd e2 be 00 be
       0.100219004 -0.08162231 -0.086387016 -0.12572816
000200 3a d8 18 3c ab 85 fb bd 52 f3 72 3d 97 c1 c9 bd
       0.009328896 -0.122813545 0.05931408 -0.098513775
000210 7e aa 50 3d cf 66 a4 3d 20 73 ef bd 90 f2 98 bd
       0.050943844 0.08027422 -0.1169188 -0.0746814
000220 8d 31 1b bc ab 55 86 3d 6b 83 b3 bd ae 3c a0 3b
       -0.009472263 0.065593086 -0.087653 0.004890046
000230 82 1a f5 bd df 72 e2 3d e1 67 cb bc 94 09 d7 bc
       -0.119679466 0.11057066 -0.024829807 -0.026249684
000240 25 42 fd bd 17 38 9b 3d 08 25 0f 3e 8b 58 f3 3c
       -0.12366132 0.07579058 0.1397897 0.029705307
000250 0d eb c8 3c 49 2d 9f 3d a4 33 dc bd 7b 10 8a 3d
       0.024526143 0.07772309 -0.10752037 0.06741425
000260 01 91 a0 3d 62 92 bf bd 16 48 95 3c 77 fa 15 be
       0.07840157 -0.09354092 0.01822285 -0.14646326
000270 ca 38 68 bc bf aa 79 bd 31 83 f1 3d e0 46 cb 3d
       -0.014173696 -0.06095385 0.11792601 0.09925628
000280 a4 62 a0 3d 8c ad 0d bb 36 9a 94 bd 58 06 b7 3c
       0.07831314 -0.0021618335 -0.07255976 0.022341892
000290 b3 85 a6 bd f8 c5 9c bc bb 56 3f 3c 6b f4 5c bd
       -0.0813097 -0.019137368 0.011678393 -0.053944033
0002a0 9a 03 8b 3b 53 e2 08 3c 27 5d e1 bd 15 87 f7 3d
       0.0042423727 0.008354741 -0.110040955 0.12086312
0002b0 39 07 f2 bd a2 ae bb 3c 98 96 c7 bb ee 3c f8 3c
       -0.11817784 0.02291042 -0.00609095 0.030302491
0002c0 45 25 8e bc 93 bf ab 3d c7 e9 df 3d 2b 26 9c ba
       -0.017351756 0.08386149 0.10933261 -0.001191323
0002d0 a5 af c2 3c 5e f4 c6 3d 51 49 1d 3e 50 67 ca 3d
       0.023765394 0.09714578 0.15359999 0.098829865
0002e0 04 f1 c7 bd 96 bc c4 3d 77 5e fb 3d 44 d4 54 bd
       -0.09762767 0.096062824 0.12273877 -0.051960245
0002f0 92 d2 1c 3b e7 91 92 3c 6e 47 6a 3d 03 2e 0a 3e
       0.002392922 0.017891837 0.057197027 0.13494115
000300 48 cf 30 3e 57 04 2a bb 92 48 38 3e ad c9 6c 3e
       0.17266572 -0.0025942528 0.17996433 0.23123808
000310 26 ee 9a bd f0 10 37 bd fc ae 25 bd 05 a0 c9 3d
       -0.075649545 -0.044693887 -0.04045008 0.098449744
000320 fe d0 1c 3e ff 39 05 3e b1 b6 d2 bd 85 86 05 3e
       0.15314099 0.13010405 -0.10288752 0.13039596
000330 0c c2 91 3b 6b c3 7a 3d 99 5e 05 3e ef e0 3d 3d
       0.004448181 0.06122152 0.13024367 0.04635709
000340 ac 10 50 3d 36 ea 6e 3e 7a 9d 93 bd 78 f3 aa 3e
       0.05079715 0.23331532 -0.07207771 0.33388877
000350 5f b9 07 3e 40 30 39 3e f3 4f c5 3d b1 89 7f 3d
       0.13254307 0.18084812 0.0963439 0.062387172
000360 66 f5 da 3d 17 29 8d bd df 34 60 3d 8d 53 45 3d
       0.10691337 -0.06892603 0.05473792 0.048175383
000370 69 d1 55 bc 5c 53 2b bd 09 74 53 bd a7 7d 30 bd
       -0.013050416 -0.041827545 -0.05162433 -0.04308858
000380 84 89 8b 3e 94 5e 0f 3e 91 3f 0f 3e 31 58 b2 3d
       0.27253354 0.14000922 0.13989092 0.087082274
000390 44 7c 92 3c 39 c7 81 bc 02 c4 e6 3d 99 9b ff 3d
       0.01788152 -0.015842067 0.11267854 0.1248085
0003a0 e5 d6 da 3c 59 7a 0c 3e 3e 78 5b bd 0d a9 e5 bc
       0.026713798 0.13718547 -0.05358147 -0.028034711
0003b0 9e 86 70 3d f8 f0 20 3b 34 55 97 3d 33 b6 66 3d
       0.05872213 0.002455769 0.07389298 0.056326102
0003c0 c4 0b c2 bb a7 aa 86 3d 8f 65 e1 3c 88 34 b9 3d
       -0.0059218127 0.06575518 0.027514247 0.09043223
0003d0 c8 95 4e 3e 31 ac 8d 3d 18 59 c3 3c 87 37 13 3e
       0.20174325 0.069176085 0.023846194 0.14376651
0003e0 38 ea a5 3d 78 ab 2c 3e 3f d0 53 3d a4 33 b8 3c
       0.08101314 0.16862285 0.05171227 0.022485562
0003f0 a4 e7 9c 3d c0 d6 34 3e aa ea d8 3d c0 80 f7 3c
       0.076613694 0.17660046 0.105916336 0.03021276

rnn.weight_ih_l1 f4 [256, 64]
000000 96 3b 81 bd 1b 0e 9a bc 0d 1d 92 bd 6a b2 5d 3b
       -0.06310193 -0.018805554 -0.07134447 0.0033828267
000010 15 1f 25 bd dd 19 0e 3e 4e 96 31 bd 37 3e 32 be
       -0.040312845 0.13877054 -0.043356232 -0.17406546
000020 3d da 05 bd ce 3f 80 3d 9f eb 2f 3d 2d b4 2d 3e
       -0.03267883 0.0626217 0.042949315 0.16963263
000030 07 dc 22 3c 72 6b 69 3e 2c 6c 10 3d 76 59 b7 3c
       0.009940154 0.22794893 0.03525941 0.022381525
000040 f7 8d 17 be 12 0b 1a be e1 44 c0 3d 83 a1 2b be
       -0.14800249 -0.15043285 0.093881376 -0.1676083
000050 f7 7c 92 3d 2b 50 d5 3c 6b 5d 2c 3e 83 70 a9 bd
       0.071527414 0.026039204 0.16832511 -0.08273413
000060 60 7f 77 bd c3 73 47 3d 34 a6 35 bc a4 7b 9d bd
       -0.06042421 0.048694383 -0.011086989 -0.07689598
000070 85 ce 21 3d 10 d6 e7 3c 09 d2 da 3d b1 69 10 3e
       0.039503593 0.028300315 0.10684592 0.14102818
000080 5d 47 cc 3d 09 b8 25 be e3 bf 07 3d a9 f8 a3 bd
       0.09974549 -0.16183485 0.03314198 -0.080064125
000090 31 59 5e bd 82 a0 c8 bd 7f 01 c7 b9 31 14 04 be
       -0.05428428 -0.097962394 -0.00037957352 -0.12898327
0000a0 ee 81 12 3e d5 15 50 be 1d ce a1 bc 95 a3 8f 3b
       0.14307377 -0.20320828 -0.019751603 0.004383514
0000b0 9b 7c 8a 3e 3a b9 60 bd 0b c7 01 3c 0e 7b ce 3a
       0.2704819 -0.054864146 0.007920991 0.0015753226
0000c0 87 21 c1 3d 77 1c 89 3c 14 7e 15 be 1e a8 48 be
       0.09430223 0.016737206 -0.14598876 -0.19595382
0000d0 bc 52 0c be 1a ea 02 3e 25 97 9d bd 2d b6 7f be
       -0.13703436 0.12784615 -0.07694844 -0.24971838
0000e0 e2 13 28 be ee 1a 83 bd 5b 8d 74 3d 2e ec 0e 3e
       -0.16413835 -0.06401621 0.05970512 0.13957283
0000f0 36 cd cd 3d 07 b8 44 bd 1e e4 74 3d ed c7 81 3d
       0.100489065 -0.048027065 0.059787862 0.06336961
000100 87 c6 43 be 82 93 1e 3d 34 55 10 bd 4a db 99 bb
       -0.19118701 0.038714893 -0.035237506 -0.0046953307
000110 3f 26 a5 3d 62 0a 32 3d 10 d6 dd bd f4 39 16 be
       0.080639355 0.043466933 -0.10831845 -0.14670545
000120 a6 7e c6 bd 70 89 ae 3d f5 93 de 3d a8 00 71 3d
       -0.09692125 0.08522308 0.10868064 0.058838516
000130 77 25 bf bc cd 73 4c 3d 11 05 1e 3e 57 5c 02 bd
       -0.023333294 0.049915124 0.1543162 -0.031826343
000140 97 e3 02 bd ab f6 25 be 39 06 bc bd 8f 8a d8 bd
       -0.031955328 -0.16207378 -0.091808744 -0.10573303
000150 40 e9 20 3e ea c8 00 bd 71 8c 4d 3d 8f 94 f0 bc
       0.15713978 -0.031441607 0.050182763 -0.029367713
000160 89 39 6e bd 62 ae b4 3d a5 3e af bb 2f 6b 17 3c
       -0.05816034 0.088223234 -0.005348044 0.009241863
000170 0b ce 10 3e 54 d3 53 3d 4b 9d 3b bd 03 2a 77 3d
       0.14141099 0.05171521 -0.045804303 0.0603428
000180 bc 93 93 3e 7c 7a e9 ba c5 fe 2f bc 9b 72 80 3b
       0.2882365 -0.0017812992 -0.010741894 0.003919912
000190 09 79 76 3d 9f 61 47 bd 0d 08 18 3e 47 10 ca bd
       0.060174022 -0.048677083 0.14846821 -0.09866386
0001a0 6b 92 53 3d 5c d0 28 be 07 df 70 3d 51 f0 07 bd
       0.051653307 -0.16485733 0.058806445 -0.033188168
0001b0 d1 16 85 3d df e0 2b be b9 f8 ab 3b 06 3b f8 bd
       0.064984925 -0.16785 0.005248156 -0.12120633
0001c0 c3 2b a4 3d 69 09 e6 3d 46 5d 20 be ed 48 4c bd
       0.080161594 0.112322636 -0.15660581 -0.049874235
0001d0 93 3f 34 be 1d da 44 bd f2 f9 02 be 7b 46 4c be
       -0.17602377 -0.04805957 -0.12790659 -0.19948761
0001e0 8d 01 f7 bd 8a 55 4d be e7 93 1d 3e e9 b4 69 3e
       -0.12060843 -0.20052162 0.15388452 0.22822918
0001f0 a8 ec da bb c2 f5 fb bd 48 7a 54 bd 15 0e af bc
       -0.0066810437 -0.12302734 -0.05187443 -0.02136902
000200 bf fd fa 3c 56 7b 48 be 1a c8 77 be f9 f4 88 3e
       0.030638574 -0.19578299 -0.24197426 0.267494
000210 33 79 80 3e a4 3c 32 3e 58 95 92 bd c1 22 49 be
       0.25092468 0.17405945 -0.07157391 -0.19642164
000220 18 c2 85 be b3 65 81 3d 60 ab 22 be e2 fc a2 3e
       -0.26124644 0.06318226 -0.15885687 0.3183356
000230 f4 86 3d be f5 23 3d 3e 66 05 90 3d 23 a8 af bd
       -0.18508512 0.18470748 0.0703228 -0.085769914
000240 70 a6 1f be 9b 09 3d be a6 d8 2e 3e 0b e8 1b be
       -0.15590835 -0.18460695 0.17074832 -0.15225236
000250 56 b2 2e 3e 0c d6 ff 3d 96 16 e5 bd 12 d2 4a be
       0.17060217 0.12491998 -0.111859486 -0.19806698
000260 98 a6 3c be f6 ae 83 bd b3 88 20 3d bb 3c 33 be
       -0.18422925 -0.064298555 0.039192867 -0.17503636
000270 a9 83 13 3e 6b fd 70 be cf 7a 34 3e b2 19 a9 3d
       0.14405693 -0.23534171 0.17624973 0.08256854
000280 22 2c 2d 3e ca bb 08 be 98 ce 81 3e a7 2a b7 bd
       0.16911367 -0.13352886 0.2535293 -0.08943682
000290 a6 a5 47 be 65 6a 77 be c3 3f 85 3e cb 32 05 be
       -0.19496784 -0.2416168 0.2602521 -0.13007657
0002a0 16 a6 5e 3e bf 02 b6 3d d2 99 6f be 32 58 7b 3e
       0.21743044 0.088872425 -0.23398522 0.24545363
0002b0 9f f6 2e 3d 31 54 56 be 9a 5a 0c 3e 85 14 b2 3d
       0.042715665 -0.20930554 0.13706437 0.0869532
0002c0 4e 1c bb 3e 31 ff fd 3d 5b 53 2b 3e c6 2c 6c be
       0.36545032 0.124021895 0.16731016 -0.23063955
0002d0 c6 3f 8f 3c bf 89 4f 3e e9 27 40 3b d8 86 b9 3d
       0.017486464 0.2026739 0.0029320663 0.090589225
0002e0 cd e5 fa bd ee f4 39 3e 40 ee 36 3e 4e 27 08 bc
       -0.12250862 0.1815984 0.17864323 -0.008310152
0002f0 a1 c8 6d 3e 49 72 f9 bd f7 ce 6b 3e b8 f6 e4 3d
       0.23221065 -0.12180001 0.2302817 0.1117987
000300 3a eb cf bd 83 2b 64 be 14 4f f1 bd cc 84 d3 3d
       -0.10152288 -0.22282223 -0.11782661 0.10328063
000310 fe bc 1a 3e bb 8f 0b 3e 86 4e d6 bd aa 03 4c be
       0.15111157 0.13629048 -0.10464196 -0.19923273
000320 2e 95 54 3d 57 be 56 3e b6 6a 05 be 81 0a 39 3e
       0.05190008 0.20971046 -0.13028988 0.18070413
000330 99 7f 6c be d6 27 7d 3e c6 0f b9 3d 97 df a2 bd
       -0.2309555 0.24722227 0.09036212 -0.07952803
000340 31 c8 09 be a5 ef 74 be 6a 25 03 3e b5 79 8a be
       -0.13455273 -0.23919542 0.12807241 -0.2704598
000350 7c d4 83 3d 50 ee ff 3d 22 8e 8e 3e 91 d5 83 bd
       0.064370126 0.124966264 0.27842814 -0.06437219
000360 6e 9b 41 be d5 8f f6 bd 1c 76 13 3e 0f e9 2a be
       -0.18906948 -0.120391525 0.14400524 -0.16690467
000370 4b 57 33 3d 8d 1b 5c be c7 4d d3 3d 4e 62 45 3e
       0.04378442 -0.21494885 0.10317569 0.19275782
000380 62 fd 08 3e 86 17 31 bd c6 67 59 3e 17 18 5a bd
       0.13377908 -0.043235324 0.21230993 -0.05324563
000390 64 b1 2b be b2 1d c7 bd cd 02 1f 3e 7e ff b2 bd
       -0.16766888 -0.09722461 0.15528412 -0.087401375
0003a0 00 d4 55 3e 42 5f d5 be 41 23 e5 bd c6 cf ae 3d
       0.20881653 -0.41674238 -0.11188365 0.085357234
0003b0 fa db d0 3d fa eb e8 bd ff 29 33 3d 08 13 56 be
       0.10198207 -0.11373134 0.043741222 -0.20905697
0003c0 40 94 6e 3e 4a 65 2b 3e 52 07 21 be b9 a4 34 be
       0.2329874 0.16737857 -0.15725449 -0.17640962
0003d0 cc b3 26 be a8 ea 10 3e 8f 71 3f bd 38 9c 80 be
       -0.16279525 0.14152014 -0.046739157 -0.25119185
0003e0 00 d5 03 be f7 53 37 be a4 2f 77 3e d4 3d 95 3e
       -0.12874222 -0.17903124 0.24139267 0.29148734
0003f0 90 b0 48 3d 06 df 84 be 5a a0 c9 3c 2e db 5e 3e
       0.048996508 -0.25951403 0.024612594 0.21763298

rnn.weight_hh_l1 f4 [256, 64]
000000 ea 51 8f bd 64 c8 12 bc 8f a0 f3 bc 0f a6 4f 3a
       -0.06998046 -0.00895891 -0.029739646 0.0007921168
000010 da 93 8b 3d 12 43 14 3d 98 65 d9 3d 49 f6 67 bd
       0.0681531 0.036196776 0.106150806 -0.05663136
000020 ec 3d ee 3d ae 20 48 3d 4d ec 80 bd d2 c5 f8 bd
       0.116329044 0.04885929 -0.06295071 -0.12147106
000030 77 bf 36 bd 79 0f 27 bc 95 ea d5 3c d6 99 55 bd
       -0.04461619 -0.01019656 0.026112834 -0.052148663
000040 95 23 89 bd 3f 36 f4 3d e4 1c ce bd eb d2 87 bd
       -0.0669624 0.11924409 -0.10064104 -0.06632026
000050 6c 5d 4e bd 3b 2b b0 3d 1a 6e 1d bd 82 d3 f6 3d
       -0.050382063 0.086019956 -0.03843508 0.12052061
000060 82 74 d3 3c cd f8 cc 3d a4 49 16 bd 5b 6c ec bd
       0.025812391 0.100083925 -0.036691323 -0.11544105
000070 35 1f 7e bd 76 2e a5 bd ed 0c de bc 2b 75 c4 bd
       -0.06204148 -0.08065502 -0.027105773 -0.095926605
000080 81 3e a3 bd 29 eb 58 bc db 93 7d bd 8e 10 a1 bd
       -0.07970906 -0.01323966 -0.061908584 -0.07864486
000090 02 76 6c bd f8 e6 08 be 88 3f 4f 3d cb 7f be 3d
       -0.05772973 -0.13369358 0.050597697 0.09301718
0000a0 d0 a4 20 3e d4 5b ec ba 99 93 e5 bc d3 db 15 be
       0.15687871 -0.0018032738 -0.028024482 -0.14634638
0000b0 27 33 a1 bd 76 bf 06 3d 12 1b 97 3d 28 af 14 3e
       -0.07871085 0.032897435 0.0737821 0.14519942
0000c0 f3 90 8d 3d b8 f6 4a 3d d9 8a 0c bd a5 34 08 bd
       0.069124125 0.049551696 -0.034312103 -0.03325333
0000d0 10 f8 b0 3d ac 43 8d 3d c8 04 b9 3d 69 62 42 bd
       0.08641064 0.06897673 0.09034115 -0.047457132
0000e0 e7 6c 5c 3d 7a c2 a8 3d d3 4a fa 3d 62 4a c0 3c
       0.053814795 0.082402185 0.12221303 0.023472968
0000f0 3f cb ed bd d0 d4 42 3c 39 9d bc bd 0a aa c4 3d
       -0.11611032 0.011891559 -0.09209675 0.09602745
000100 13 06 87 3d a0 3b de bc f0 aa 11 bd 81 c9 5b 3d
       0.065929554 -0.02712804 -0.03556341 0.053658966
000110 09 ef 2b bd af 13 fc bc 34 9b 3e bd a9 6a 3a bd
       -0.04197601 -0.030771105 -0.046534732 -0.045511875
000120 c4 67 f3 bd 70 a0 84 3d 41 bd 9c 3d 3d 34 cd bc
       -0.11885026 0.064759135 0.07653285 -0.025049323
000130 bf a9 a5 3d f3 39 92 3d 13 79 aa 3d 6b 12 b8 bd
       0.08089017 0.07139959 0.08323874 -0.08987888
000140 3a 54 a0 3b bf b1 e9 bd 5a b4 0b bd 73 f4 d1 bd
       0.004892853 -0.114108555 -0.034107544 -0.10251703
000150 61 5f a1 3d 8a 63 57 bd 10 37 b9 bd b0 65 f7 3d
       0.0787952 -0.052585162 -0.090437055 0.12079942
000160 af 5c da bc 9d e1 bc 3d 62 eb bd 3d 09 39 dd 3c
       -0.026655523 0.0922272 0.09273411 0.027004736
000170 8b 33 ab bd f3 3f 32 bd 97 f5 8c bc 9e 09 a5 3d
       -0.083594404 -0.043518018 -0.01720695 0.08058475
000180 85 d1 8b 3d 7f 99 7b 3c 08 b4 61 bd c9 01 79 bd
       0.06827072 0.015356421 -0.05510333 -0.060792718
000190 d5 f9 a5 3d ee a6 80 bd 93 fb ad bd 85 da 96 3c
       0.08104292 -0.06281839 -0.084952496 0.018414745
0001a0 c0 9a e7 3d ff 92 47 3d f1 65 1c be a5 34 ae 3d
       0.11308813 0.04872417 -0.15273263 0.08506135
0001b0 a0 83 93 bd 88 ad ce bd 61 7e f0 bb 55 b6 03 3e
       -0.0720284 -0.10091692 -0.0073392843 0.12862523
0001c0 99 cb 47 bd 96 91 17 3d d8 c8 f5 bc 51 c3 b5 3d
       -0.04877815 0.037004076 -0.030002996 0.08875144
0001d0 bc 11 88 3d 01 c7 00 be ce a8 f3 3d 58 20 fd bd
       0.066440076 -0.12575914 0.11897431 -0.12359685
0001e0 d7 21 3c 3d 1c d2 f9 bd b6 91 a4 3d 1e 4d 6f bb
       0.04593071 -0.12198278 0.08035605 -0.0036514471
0001f0 f7 e8 b0 3d 2c c7 f3 3c 26 05 14 bd 15 0d 92 bd
       0.086381845 0.029758058 -0.036137722 -0.071314014
000200 7e 34 02 3e 77 15 d3 bd f9 aa c3 bc ff 60 36 be
       0.12715337 -0.103068285 -0.023885237 -0.17810439
000210 1a 91 ed 3c 93 be c8 3d e2 fc 93 bd b2 3f c2 3d
       0.028999854 0.09801974 -0.07225968 0.09484805
000220 f7 b7 b7 3d d0 35 c8 3d f5 6c 75 3c 9b fa 20 3d
       0.089706354 0.09775889 0.014979591 0.039301496
000230 18 5b 2c bc ed 84 df 3d 6a 0b b6 3a c1 59 fe bd
       -0.010519765 0.109140255 0.00138889 -0.12419463
000240 4d 51 20 3d f0 f8 94 bd 32 61 ec 3d 41 70 59 3d
       0.039140034 -0.072740436 0.11541976 0.05308557
000250 be c3 8c bd 96 ba 6c 3d e1 a6 9e 3d 93 8a f7 bd
       -0.06873272 0.05779513 0.077466734 -0.12086978
000260 ec 9c 66 be 44 b5 ee bc 1f 35 ae bc ae 8d 09 3e
       -0.22520798 -0.029139169 -0.021265564 0.13432953
000270 a1 71 a4 3c c7 7d b4 bc 86 0f bf bd 63 9b 3c 3e
       0.020073714 -0.022032632 -0.09329133 0.1841865
000280 06 ee 3b be e0 b2 81 3d e0 22 18 bd 73 cd 0e be
       -0.18352517 0.06332946 -0.037142634 -0.1394556
000290 14 25 2e be 4a 0a 8d 3c ba 2a 86 3d e8 bd 85 3d
       -0.17006332 0.01721682 0.06551118 0.06530362
0002a0 dc b9 8e 3c c7 55 7f 3d 93 a2 9b bd d2 a9 0e be
       0.017422609 0.062337663 -0.07599368 -0.13931969
0002b0 91 9a 07 be dc f3 9c bd 1d 46 61 bd 12 ef a3 bc
       -0.13242556 -0.076637 -0.054998506 -0.020011459
0002c0 20 a4 34 bd e6 42 36 3e 16 d2 7f bd 5a b8 88 3d
       -0.044101834 0.17798957 -0.062456213 0.06675787
0002d0 15 63 9e 3d fc 84 8c 3d ae 13 ca 3d 33 82 34 3d
       0.07733742 0.06861302 0.09867035 0.04406948
0002e0 86 85 f8 bd a7 08 40 bd 15 52 74 3b a8 68 13 3e
       -0.121348426 -0.04688325 0.003728037 0.14395392
0002f0 46 41 00 bd 91 b9 86 3d 94 d8 90 3d b7 f5 b9 bd
       -0.03131225 0.06578363 0.07072559 -0.090800695
000300 a7 a1 3a bd 74 1f fb bb 18 1f 4f 3e 2e a7 b9 3d
       -0.04556432 -0.0076636616 0.20226705 0.0906509
000310 ed a9 95 3d 13 56 de 3d e3 79 a1 3d 5a 42 a2 3c
       0.073078014 0.10856261 0.07884576 0.01980703
000320 f1 3a 6d 3d 1c 93 ad bc 92 aa df bd 98 5f 00 bd
       0.05791754 -0.021188311 -0.109212056 -0.031341165
000330 9c 26 ca 3c 8c 54 cc 3d 2a 7c 9b 3d a9 4f d8 bd
       0.024676614 0.099770635 0.07592042 -0.10562069
000340 88 24 60 3a 7f d2 93 3d a2 6a 5c bd b2 b6 74 3b
       0.00085503655 0.07217883 -0.05381263 0.003734034
000350 16 df d6 3c 1e 43 09 bc c3 1f 95 bd ad 14 31 bd
       0.026229423 -0.008377818 -0.07281449 -0.04323261
000360 ce 29 2d 3d c0 8f a2 3d 5f 0f 14 bd b9 83 30 3c
       0.042276196 0.079375744 -0.03614747 0.010773593
000370 dc 1b 06 3e 7e d8 f4 bc e1 f0 38 be 28 83 9d 3d
       0.13096565 -0.029888388 -0.18060638 0.07691032
000380 84 00 84 bd eb 10 d6 bd 05 ea 59 3d e1 b7 83 bd
       -0.06445411 -0.104524456 0.053201694 -0.064315565
000390 c2 22 c8 bc 0d eb 94 3d 99 1d e2 bd c6 f6 bf 3d
       -0.024430636 0.07271395 -0.110408016 0.0937324
0003a0 e5 01 84 3e 28 1e 18 be e4 c1 cf bd 1a e1 7f bd
       0.25782695 -0.14855254 -0.101444036 -0.062470533
0003b0 b9 09 2a be c0 c8 35 3d 72 62 9c 3d ae 18 84 3c
       -0.16605271 0.044380903 0.076359645 0.01612505
0003c0 b6 b0 f4 3d fa 20 0e 3e ef db 84 3d 4e 62 b2 3d
       0.119477674 0.13879767 0.064872615 0.087101564
0003d0 69 69 7f bd fb c9 a8 bd 6d 79 30 3d 73 25 92 ba
       -0.062356386 -0.0824165 0.04308455 -0.0011150077
0003e0 6d 60 a1 3c 3f a1 21 bd 59 f4 8e bd 4a 29 23 3e
       0.0196993 -0.039460417 -0.06980199 0.1593372
0003f0 19 de fe bd 23 d8 93 bd 68 fa ba 3d 7a f8 bf bd
       -0.124447055 -0.07218959 0.091297925 -0.09373565

rnn.bias_ih_l1 f4 [256]
000000 e1 55 0d bd 70 7f 5f 3d f7 6b 28 3e e4 e0 62 3d
       -0.03450573 0.054564893 0.16447435 0.055390254
000010 f6 ec 19 bd 87 a7 db 3d de 29 56 3d de 6d 99 3d
       -0.0375795 0.10725313 0.05228602 0.07491659
000020 3d 26 1e 3e b9 57 ac bc 71 87 76 3d 1b 3a 1a 3e
       0.15444274 -0.021037923 0.06018776 0.15061228
000030 7c a7 da 3d c1 f3 75 3d c9 90 d7 bd a9 d0 13 3e
       0.10676476 0.060046915 -0.105256625 0.14435066
000040 27 64 05 3d 9d ed 84 bb 43 58 95 3d 61 24 c2 bc
       0.032566216 -0.004056646 0.07292225 -0.023698987
000050 9e 67 18 3d 2d 36 2a 3d 9c 39 5e 3d af c9 0c bd
       0.037208192 0.041555572 0.05425416 -0.034372028
000060 fc 8d 2d 3d 01 c8 a7 bd f6 e5 8e bd 2a b6 dc 3a
       0.042371735 -0.081924446 -0.06977455 0.0016838957
000070 1a 07 1d bd 8f 2f 5d 3d d6 a4 8b 3c 51 1f 72 3e
       -0.03833685 0.054000434 0.017046373 0.23644759
000080 82 4f 06 3e db d8 9b 3d 11 29 96 3c 07 cd 0b bb
       0.13116267 0.07609721 0.018330129 -0.0021331923
000090 f9 6d ba 3d 56 74 35 3d a9 a0 fb bc d3 81 5d bd
       0.09103007 0.0443004 -0.030716257 -0.05407889
0000a0 c1 54 5d 3e 2c 34 90 bd 47 da 9d 3d 11 38 35 bb
       0.21614362 -0.07041201 0.07707649 -0.0027651826
0000b0 4b 4f 14 3e aa 32 04 be 10 6b 50 bd 10 4c 8b bd
       0.14483373 -0.12909952 -0.050883353 -0.06801617
0000c0 c0 d2 e7 3d 2d 7b a7 3d 2f 28 26 bd b2 88 b8 3d
       0.11319494 0.08177791 -0.040565666 0.090104476
0000d0 26 ab 43 bd 47 ea ef 3c 58 a7 00 3d 3e ba 83 bd
       -0.04777064 0.029286517 0.03140959 -0.06432007
0000e0 b4 6e 16 3e 20 f0 e6 bc 7f 04 11 3e e4 75 b4 3d
       0.14690667 -0.028190672 0.14161871 0.08811548
0000f0 79 50 2d 3d 5d 82 b3 bc bb de 07 3e cb ca 91 bd
       0.042313073 -0.021912748 0.13268559 -0.07118758
000100 3f 11 94 3d 9a 7d 1a bd d4 2d 97 bd 35 e9 24 be
       0.07229852 -0.03771744 -0.07381788 -0.16104586
000110 7f f5 03 be 7c c6 fc bb 67 83 81 3d be fd 6c 3c
       -0.12886618 -0.007714091 0.06323891 0.014464794
000120 d4 08 73 3d 98 05 b1 3d b0 e4 cb bc a0 e2 6c bd
       0.05933459 0.08643645 -0.02488932 -0.057833314
000130 fa 24 79 3d 8f a9 a6 bd 89 06 2f bd 82 ee 80 bd
       0.06082628 -0.081378095 -0.04273084 -0.06295492
000140 8e c2 dc 3c 17 69 a3 bd 21 49 06 be c7 d4 d3 bd
       0.02694824 -0.07979029 -0.13113834 -0.103433184
000150 91 51 38 3d 7f 02 a6 3d a8 5f ab bc f6 c5 ab 3c
       0.044999663 0.08105945 -0.020919636 0.020968419
000160 b0 82 7f bd 5b c0 29 bc c0 06 fd bb 08 e5 d1 bd
       -0.062380493 -0.0103608025 -0.007721752 -0.10248762
000170 43 f3 98 bd 89 fb fa bd d6 33 0f bd 21 ee d0 bd
       -0.074682735 -0.12255008 -0.034961544 -0.102016695
000180 c0 b2 da bd dc a7 be bc d3 ee 79 3d c4 65 cc bd
       -0.10678625 -0.023273401 0.061018776 -0.09980348
000190 17 ee c4 3c 49 12 a2 3d 5d 8b d8 3d 17 ae a0 3d
       0.024039311 0.07913644 0.105734564 0.07845705
0001a0 13 44 9e bd 7e 9e a2 bd 81 1a d0 bd 66 ad 84 3d
       -0.07727828 -0.07940386 -0.10161305 0.064783856
0001b0 d0 39 f1 bd bf 5b fc bd 63 99 c9 3c b6 4b 79 3c
       -0.11778605 -0.12322187 0.024609273 0.015215805
0001c0 a9 50 7e 3c a3 8e 03 be 68 0f 82 bd 75 1b 09 be
       0.015522161 -0.1284738 -0.06350595 -0.1338938
0001d0 e7 45 ab 3d 1c 10 6f 3d 0e 00 9f 3b aa 6e e0 bd
       0.08362942 0.058364972 0.0048523014 -0.109586075
0001e0 a4 c9 19 be 7b 12 45 bd 22 d8 17 bd de 51 7d 3c
       -0.15018326 -0.048113327 -0.037071355 0.015461413
0001f0 4c e8 44 bd 54 a6 95 3d 7c f1 9c bd 28 58 49 3d
       -0.048073098 0.07307115 -0.07663247 0.049156338
000200 df 59 e8 3c d5 89 a6 bc 0f af 1c 3b 33 28 f2 bd
       0.028363166 -0.020329395 0.0023908054 -0.11824074
000210 1b 83 03 3e 95 1a 07 be 60 cf f5 bd c2 75 c1 bd
       0.12842982 -0.13193734 -0.12002444 -0.09446289
000220 ac 05 29 3d f4 57 a0 3d e2 6f 4f 3c 91 be 08 bc
       0.041265175 0.07829276 0.012660952 -0.008346216
000230 25 df f1 bd 03 d0 07 bc b4 d9 ab bd 5d c3 b9 bc
       -0.118101396 -0.00828934 -0.08391133 -0.022676164
000240 1d 4d e2 3d 0e 8c 2f 3d f2 a1 68 3d 1d db 2c 3d
       0.110498644 0.042858176 0.056795068 0.04220115
000250 ea 47 2f 3d 52 3c ce 3c 99 70 d1 bc dd f0 ce bc
       0.042793192 0.025175247 -0.025566386 -0.025261337
000260 f7 48 12 3d 79 38 16 bd a5 ee a0 3d 73 72 89 3d
       0.035714116 -0.03667495 0.07858018 0.067112826
000270 b1 8e 8f bd 7f a5 81 bd 38 4a 13 bb 35 55 9c bd
       -0.07009638 -0.06330394 -0.0022474658 -0.076334395
000280 76 bc bc 3c 58 df ae 3d ad c0 fd 3c 55 17 d6 bd
       0.023039084 0.08538693 0.030975664 -0.10453669
000290 2a 5c c0 bd 8c 35 bc 3d 30 73 0a 3d 1c 83 4d 3d
       -0.09392579 0.09189901 0.033801258 0.050173864
0002a0 e9 7f b9 3c f2 ad 81 3d 0d 5d 41 bc 7b f2 fd 3c
       0.022644 0.063320056 -0.01180197 0.030999413
0002b0 bb ec 6e bd cc df bd 3d 10 9c 41 bd 02 53 4f bd
       -0.058331233 0.092712015 -0.047267973 -0.05061627
0002c0 02 28 5d bd c6 a8 e1 3c 6a c6 64 3d e4 1d 82 3d
       -0.053993233 0.027546298 0.055853285 0.063533574
0002d0 05 33 9c 3d ef 01 dd 3c a1 fd da bd 34 3a 69 3d
       0.07626919 0.026978461 -0.10692907 0.056940272
0002e0 b3 58 ca bd 67 39 c3 3d bd 83 5c 3d 1a 30 fe 3c
       -0.09880199 0.09532433 0.053836573 0.031028796
0002f0 47 eb 0b 3e 54 28 91 3d 7e 67 0e be 13 b8 b9 3b
       0.1366397 0.0708777 -0.13906667 0.0056676953
000300 12 e8 ba 3d f9 77 f2 3d 04 5b 36 3e 58 bd 4c 3c
       0.09126295 0.11839289 0.17808157 0.012496315
000310 ce 49 75 bd 9a e8 e0 3c 78 7a a9 3c 03 1e 9a 3d
       -0.05988484 0.027454663 0.02068828 0.075252555
000320 af 16 a4 3d ec 31 08 3e d8 26 ee 3d 91 56 eb 3d
       0.08012139 0.13300294 0.116285026 0.114911206
000330 24 2a be 3c 32 fc 1f 3e 9c b9 b7 bd f5 79 e4 3d
       0.023213454 0.15623549 -0.08970949 0.11156074
000340 8a c0 72 bd 40 6a 96 3c 7e 54 13 bd 6d f0 f0 bd
       -0.05926565 0.01836121 -0.03596925 -0.117646076
000350 82 80 16 3e 77 e5 ea 3b e7 24 6e bd 5b e7 dd bb
       0.1469746 0.0071684676 -0.05814066 -0.0067719645
000360 02 be 11 3e f2 25 c8 3d 3f 51 70 3d 94 62 b5 3d
       0.14232638 0.097728625 0.058671232 0.08856693
000370 e1 2b 2f 3e ba 57 97 3b 77 b4 77 3d 47 b4 a1 3d
       0.17106582 0.004618612 0.06047484 0.07895713
000380 3a ef c8 bd 8a f5 4b bd c2 1c 95 bd 0b fe 38 3e
       -0.09811254 -0.04979471 -0.07280876 0.1806566
000390 bc 4e dd 3d 24 18 eb 3d 0e 4e fc 3d 7d f8 d7 3c
       0.10806033 0.11479214 0.12319575 0.026363606
0003a0 b4 3d 6f 3d d9 f9 b4 3d 0d ea 22 3e 3c bc 43 3d
       0.058408454 0.08836717 0.15909596 0.047786936
0003b0 66 16 c0 3d 5b 76 e2 bd d5 0e a1 bd 4a 34 eb 3d
       0.09379272 -0.11057731 -0.07864157 0.11484583
0003c0 e5 3b 4e 3e 66 1a f3 3d 51 08 07 bc 05 3f 07 bd
       0.20140035 0.118702695 -0.008241729 -0.033019084
0003d0 18 95 1a 3e 3f e0 e7 3d c3 60 8e bd 80 3f 4d 3c
       0.15095937 0.113220684 -0.069520496 0.012527347
0003e0 e3 f9 2b 3e 6c 53 11 3e a7 ef 02 3e 59 07 99 3d
       0.16794543 0.14191979 0.12786733 0.074721046
0003f0 34 60 39 3d 2c 75 0e 3d 3b 56 65 3c a7 6a ee 3d
       0.045257762 0.034779713 0.01399761 0.11641436
