0700.HK_stock_model.pth (torch, 205335 bytes, 9 tensors)

rnn.weight_ih_l0 f4 [256, 1]
-0.18501998 0.2876993 0.10321031 0.22324128 0.12054672 0.035964202 -0.13934185 0.017044604
0.15367618 0.27210888 0.028768513 0.12929563 0.050915133 0.3056421 0.23753475 0.09857483
0.10579857 0.21122426 0.18624656 0.24197388 0.031788915 0.15164587 0.13916743 0.25518754
0.029556932 -0.14744496 0.03684176 0.1615846 0.11223484 0.15544404 0.18426539 0.17393823
-0.016882567 0.11189375 0.10179853 0.18388969 0.15703298 0.1736016 0.11366349 -0.07964366
0.055122092 0.23598486 0.02241233 0.09289782 0.013001249 -0.0053611943 0.022952389 0.26905656
-0.04766709 0.19731244 0.11550607 0.19680978 0.12865071 -0.015225036 0.13021412 0.08265356
0.11544583 0.14555027 -0.0068962607 -0.050454795 0.15441659 0.010561343 -0.11343388 0.06921368
-0.12285543 0.07499164 -0.045418467 0.058310278 -0.0029508602 0.16552603 -0.25061506 0.09554559
0.022956468 0.19234039 -0.05522613 -0.008172779 -0.0012322947 0.00064544973 0.027063234 0.06812103
0.14778918 0.13241322 0.08859956 0.0783859 -0.0527996 0.07608812 0.093940735 0.15306903
0.19477206 -0.24030551 -0.07487182 0.089686036 0.02417241 0.20115109 -0.0667336 -0.08596846
0.023531359 0.10659399 0.07345451 0.08905597 0.025045546 0.058999274 -0.007300242 -0.09904657
-0.04165928 0.19189814 0.074753284 0.07838614 -0.023325874 -0.032822687 -0.040419616 -0.029982911
-0.10664868 -0.03597011 -0.025522005 -0.037242454 -0.11258709 0.14487474 0.00531395 0.0049993056
0.09690596 -0.054088935 0.040350992 -0.01977599 0.1086276 0.010120226 -0.16474757 0.13666639
0.15549588 0.16920178 0.17613871 -0.21866709 0.21439171 0.18136403 0.19562708 -0.13789341
0.027011484 0.19660594 -0.17872256 0.16401802 0.005962283 0.25503457 0.17923401 -0.25491276
0.20323399 -0.14999253 -0.20318991 -0.22755034 -0.11048088 -0.104042836 -0.1993064 0.14794254
0.12529121 0.21025702 -0.075002864 -0.11471178 -0.050413586 -0.0909232 -0.012301179 0.16335951
0.18396655 -0.21891491 0.21796536 0.20389123 -0.09894531 0.16447721 -0.23686473 0.12434704
0.13100962 -0.12009582 -0.23923238 -0.23407474 -0.009508613 -0.09477274 -0.1763 0.2179047
0.04313797 0.14893341 -0.20850046 -0.23454684 0.2364636 -0.042565405 0.21237701 -0.19576581
0.18706378 0.16490835 0.04134515 0.110408455 -0.19788435 0.038302507 -0.072856516 -0.14435571
-0.15502661 0.26331645 0.1776382 0.060958177 0.22544056 0.069232345 -0.13454142 0.17796537
0.018771458 0.15916766 0.07878282 0.26491934 0.12446959 0.27571282 0.064041026 0.098529056
0.19769631 0.20247445 0.042262 0.19299598 0.049757153 0.15783979 0.14533706 0.034317367
0.19433352 0.044541005 0.012978507 0.22804655 0.114724666 0.05932809 -0.046235308 0.25001764
0.012483351 0.059344836 0.15815443 0.13399272 0.19232324 0.16889389 0.27464917 -0.16468355
0.10830639 0.15059459 0.12483564 0.064826466 0.069322824 0.03769142 0.046163123 0.08117458
0.08689312 0.048284516 0.02458304 0.09142861 0.28043994 0.037380334 0.21711022 0.05375686
0.17997435 0.24018559 0.19645342 -0.064663745 0.20693798 -0.0014521466 -0.09252666 0.24102461
00000000: e175 3dbe 534d 933e ed5f d33d 5d99 643e
00000010: 33e1 f63d 334f 133d a1af 0ebe 20a1 8b3c
00000020: 4a5d 1d3e db51 8b3e f2ab eb3c 1366 043e
00000030: 638c 503d 1f7d 9c3e 4f3c 733e 9ae1 c93d
00000040: ecac d83d 2c4b 583e 6bb7 3e3e 00c8 773e
00000050: 1835 023d 0e49 1b3e e881 0e3e f1a7 823e
00000060: 6121 f23c d0fb 16be 63e7 163d 6f76 253e
00000070: 61db e53d b92c 1f3e 11b0 3c3e dd1c 323e
00000080: 4f4d 8abc 8d28 e53d bf7b d03d 944d 3c3e
00000090: 41cd 203e 9ec4 313e 67c8 e83d 371c a3bd
000000a0: b4c7 613d 04a6 713e 109a b73c 3641 be3d
000000b0: 3103 553c f5ac afbb a606 bc3c c8c1 893e
000000c0: 913e 43bd 460c 4a3e 728e ec3d 8188 493e
000000d0: 03bd 033e 6e72 79bc da56 053e 4546 a93d
000000e0: dd6e ec3d 210b 153e 07fa e1bb b0a9 4ebd
000000f0: 621f 1e3e 7c09 2d3c 0650 e8bd e7bf 8d3d
00000100: a19b fbbd 3895 993d b708 3abd c2d6 6e3d
00000110: 3863 41bb a87f 293e 9e50 80be 68ad c33d
00000120: 340f bc3c e1f4 443e cb34 62bd 1fe7 05bc
00000130: f384 a1ba 6633 293a b7b3 dd3c 0a83 8b3d
00000140: 0c56 173e 5597 073e b073 b53d c988 a03d
00000150: 6544 58bd 17d4 9b3d 0064 c03d 21be 1c3e
00000160: 5472 473e a612 76be 6656 99bd 50ad b73d
00000170: 3805 c63c 8dfa 4d3e a0ab 88bd 3b10 b0bd
00000180: d6c4 c03c f34d da3d 516f 963d fa62 b63d
00000190: 512c cd3c 39a9 713d de36 efbb eed8 cabd
000001a0: eca2 2abd f280 443e 4018 993d ea88 a03d
000001b0: e715 bfbc 1571 06bd 0a8f 25bd b99e f5bc
000001c0: a06a dabd 6555 13bd 8613 d1bc 8b8b 18bd
000001d0: 0f94 e6bd 0b5a 143e a520 ae3b 37d1 a33b
000001e0: a276 c63d 5c8c 5dbd 1547 253d 4201 a2bc
000001f0: 2678 de3d 4ecf 253c 96b3 28be 46f2 0b3e
00000200: 503a 1f3e 3b43 2d3e b55d 343e 44ea 5fbe
00000210: 8089 5b3e 7eb7 393e 7752 483e ee33 0dbe
00000220: 3047 dd3c 1153 493e 0c03 37be 57f4 273e
00000230: 415f c33b e493 823e 1f89 373e ed83 82be
00000240: 921c 503e a497 19be 0411 50be f502 69be
00000250: cd43 e2bd 6914 d5bd fa16 4cbe 407e 173e
00000260: 574c 003e 9e4d 573e 1a9b 99bd 02ee eabd
00000270: 7a7e 4ebd f135 babd e28a 49bc b747 273e
00000280: ba61 3c3e 3b2b 60be 5032 5f3e ddc8 503e
00000290: d7a3 cabd b76c 283e ab8c 72be a9a9 fe3d
000002a0: 6327 063e ccf4 f5bd 55f9 74be 4ab1 6fbe
000002b0: 03ca 1bbc 3618 c2bd fd87 34be 6922 5f3e
000002c0: 71b1 303d 0082 183e 2581 55be 0c2d 70be
000002d0: 8423 723e 1059 2ebd 5c79 593e d576 48be
000002e0: a68d 3f3e bcdd 283e 8859 293d d41d e23d
000002f0: 32a2 4abe 17e3 1c3d cc35 95bd fcd1 13be
00000300: 4cbf 1ebe 6ad1 863e cae6 353e 48af 793d
00000310: e4d9 663e b0c9 8d3d 3ac5 09be 8e3c 363e
00000320: 9ac6 993c d9fc 223e e358 a13d 82a3 873e
00000330: eae9 fe3d 3b2a 8d3e f127 833d 9ac9 c93d
00000340: e770 4a3e 7655 4f3e eb1a 2d3d bda0 453e
00000350: 28ce 4b3d c1a0 213e 3dd3 143e 5e90 0c3d
00000360: 5eff 463e a170 363d cea3 543c 0985 693e
00000370: c4f4 ea3d 0302 733d 3c61 3dbd 5002 803e
00000380: f886 4c3c 9213 733d 3cf3 213e 6335 093e
00000390: 62f0 443e 85f2 2c3e d19e 8c3e cea2 28be
000003a0: becf dd3d 7835 1a3e d4a9 ff3d bdc3 843d
000003b0: 20f9 8d3d 5262 1a3d 8b15 3d3d dc3e a63d
000003c0: 05f5 b13d fcc5 453d 5f62 c93c ec3e bb3d
000003d0: d395 8f3e 1f1c 193d 2452 5e3e 2730 5c3d
000003e0: 324b 383e 36f3 753e 162b 493e 6d6e 84bd
000003f0: 8de7 533e f455 beba 9e7e bdbd 28cf 763e

rnn.weight_hh_l0 f4 [256, 64]
-0.06589258 0.10240762 0.1518097 0.051486295 0.06563418 -0.048814297 -0.08531662 0.010727561
-0.16327761 0.1413953 -0.037223138 0.028519807 0.041093525 -0.15190461 0.0745384 -0.038583048
0.122092165 -0.158508 -0.13170622 -0.070002966 -0.10485461 -0.20849459 0.053220544 0.06502648
0.033931587 0.028025726 0.028527487 0.062893525 -0.14604679 0.054466017 0.0266031 0.0771665
-0.06538664 0.032779187 0.14838691 -0.022441562 -0.07985991 -0.027479932 -0.08921352 -0.04736415
0.010182286 -0.18804918 -0.15557419 0.07521188 -0.028389132 0.0066711046 0.15415245 -0.0056383912
-0.03107794 0.041025992 -0.077289455 -0.0022773237 0.06885377 -0.006929872 -0.11817553 -0.06924395
0.052852705 -0.051631697 0.08103925 0.026869977 0.021488484 -0.12732124 -0.05627744 0.02496728
0.0959223 0.16529226 0.06252522 0.014192959 0.07257876 0.059582125 0.05658749 0.015584124
0.13919944 0.06989211 -0.10019326 0.08278028 -0.0051049185 0.2768473 0.02743552 -0.28248253
0.1392251 -0.17202576 -0.03188228 -0.011783688 -0.1247929 0.06839395 -0.06819127 -0.014559512
-0.022158718 0.20919596 0.0020602571 0.021662554 -0.0214792 0.043587383 0.0885712 0.26172322
-0.050153933 0.0052879155 0.097181514 -0.08308121 -0.01674631 -0.051540423 -0.0036295773 0.13226677
0.091721304 -0.077009454 -0.16125269 -0.115361914 0.010488978 -0.07210915 -0.094056636 0.074343875
0.08101799 -0.01673466 0.0869518 -0.1188461 0.101504736 -0.17560285 0.20779803 -0.008047383
-0.012609682 -0.028549531 0.023739189 0.06395384 -0.11391583 0.034765437 0.07037516 -0.076797746
0.07351541 0.11624655 0.061898112 0.03433042 -0.060254835 0.083898984 0.17143057 -0.09631267
-0.050268214 0.050168924 -0.067026936 0.114757046 0.14409909 0.244059 0.1419562 -0.15944293
0.047929652 0.055579223 -0.11102454 0.03911869 -0.011139556 0.041657146 0.07895394 0.011122609
-0.0396304 0.01439896 0.10092601 -0.047713064 0.033615664 -0.06176624 0.15155986 0.1549452
-0.00876986 0.044953153 -0.09460855 -0.087122485 -0.09800083 0.075231954 0.0371053 -0.030065596
0.0063213566 0.06600747 -0.03829048 -0.11873616 0.046924815 -0.09138828 -0.2188487 0.1864467
0.03701347 0.111055486 0.07397722 0.01823277 0.09968228 -0.06056991 0.24676667 0.08690073
0.007117996 -0.093460426 -0.09272752 0.07705266 -0.00025222154 -0.02728736 0.014264345 -0.104776695
0.06517928 0.09459925 -0.08317078 -0.041699782 -0.0007547653 0.13499847 -0.055913255 -0.065018825
-0.07606529 0.016071763 -0.09688747 -0.11025645 -0.012784815 -0.06094256 0.098915055 -0.13750169
0.13879107 -0.005511594 0.0019664892 0.05073721 -0.022628432 0.02756392 0.01111516 -0.039877266
-0.02889236 -0.059448052 0.096358724 -0.013564494 -0.08069558 0.022035955 -0.049500175 0.12996393
0.051846627 -0.0506019 -0.016386807 -0.068406306 0.016250793 -0.022153364 -0.002229618 -0.11394549
-0.045745697 0.007691684 -0.06310884 0.08347975 0.1191346 0.010092399 -0.002646094 -0.06303316
-0.10676478 -0.09649563 -0.0032879612 -0.13972081 0.048882294 -0.07138739 -0.08835726 -0.044869367
-0.07817527 -0.025587382 -0.014765862 -0.10361754 -0.083297804 0.060944133 -0.007011092 -0.099900626
00000000: b0f2 86bd 16bb d13d 0174 1b3e 4be3 523d
00000010: 376b 863d 80f1 47bd 7bba aebd a7c2 2f3c
00000020: 3f32 27be eec9 103e 4a77 18bd 5fa2 e93c
00000030: af51 283d e28c 1bbe 97a7 983d 4209 1ebd
00000040: 750b fa3d ec4f 22be ffdd 06be b75d 8fbd
00000050: 04be d6bd 9b7f 55be c9fd 593d 9a2c 853d
00000060: d9fb 0a3d 3596 e53c 7ab2 e93c 52ce 803d
00000070: 4a8d 15be c217 5f3d bfee d93c 7809 9e3d
00000080: 6ee9 85bd 7843 063d bdf2 173e 5ed7 b7bc
00000090: 988d a3bd 981d e1bc 94b5 b6bd e900 42bd
000000a0: 9ad3 263c f78f 40be d74e 1fbe b008 9a3d
000000b0: 5390 e8bc 4899 da3b 24da 1d3e 41c2 b8bb
000000c0: 2a97 febc df0a 283d ef49 9ebd 273f 15bb
000000d0: 3503 8d3d fb13 e3bb 0306 f2bd c6cf 8dbd
000000e0: 147c 583d c27b 53bd e8f7 a53d 6d1e dc3c
000000f0: 9e08 b03c 8060 02be 2c83 66bd 2e88 cc3c
00000100: e972 c43d 6042 293e 390d 803d 9689 683c
00000110: 2ca4 943d 630c 743d 49c8 673d 8e54 7f3c
00000120: 4c8a 0e3e 9823 8f3d 2032 cdbd b588 a93d
00000130: 2947 a7bb eebe 8d3e 75c0 e03c 8da1 90be
00000140: 0691 0e3e 8527 30be fe96 02bd 5f10 41bc
00000150: 6c93 ffbd 2112 8c3d dda7 8bbd 058b 6ebc
00000160: 3386 b5bc 7737 563e 6105 073b ab75 b13c
00000170: 26f5 afbc af88 323d d164 b53d 9600 863e
00000180: 366e 4dbd 4046 ad3b 1a07 c73d 7b26 aabd
00000190: 8f2f 89bc 0d1c 53bd 34de 6dbb f170 073e
000001a0: 61d8 bb3d 22b7 9dbd 6d1f 25be de42 ecbd
000001b0: f6d9 2b3c f6ad 93bd c4a0 c0bd 9a41 983d
000001c0: c3ec a53d 2017 89bc c913 b23d 9665 f3bd
000001d0: b7e1 cf3d 3cd1 33be 02c9 543e 2cd9 03bc
000001e0: d798 4ebc b5e0 e9bc b078 c23c 3bfa 823d
000001f0: b44c e9bd 3466 0e3d da20 903d 2348 9dbd
00000200: 3f8f 963d ac12 ee3d e088 7d3d 0e9e 0c3d
00000210: c6cd 76bd 3bd3 ab3d 7f8b 2f3e 943f c5bd
00000220: 0be6 4dbd ee7d 4d3d 6b45 89bd be05 eb3d
00000230: b68e 133e 9aea 793e f75c 113e 0245 23be
00000240: e251 443d 0aa7 633d d660 e3bd eb3a 203d
00000250: af82 36bc afa0 2a3d 9ab2 a13d 9a3b 363c
00000260: 7c53 22bd 9ee9 6b3c 4cb2 ce3d c66e 43bd
00000270: 94b0 093d 99fe 7cbd 8232 1b3e f4a9 1e3e
00000280: 75af 0fbc cc20 383d 21c2 c1bd 466d b2bd
00000290: a9b4 c8bd 3613 9a3d bafb 173d 204c f6bc
000002a0: 6223 cf3b ed2e 873d 7ad6 1cbd f22b f3bd
000002b0: 3c34 403d c729 bbbd e019 60be e2eb 3e3e
000002c0: 709b 173d 0f71 e33d 5e81 973d e45c 953c
000002d0: 3926 cc3d 2718 78bd 67b0 7c3e 03f9 b13d
000002e0: 143e e93b 2e68 bfbd ede7 bdbd c9cd 9d3d
000002f0: 9a3c 84b9 be89 dfbc 00b5 693c 2a95 d6bd
00000300: b77c 853d 40bd c13d 7155 aabd 64cd 2abd
00000310: 71db 45ba 0a3d 0a3e 4c05 65bd 9728 85bd
00000320: 1ec8 9bbd eea8 833c f06c c6bd 22ce e1bd
00000330: 6777 51bc e89e 79bd fa93 ca3d 3ecd 0cbe
00000340: 3f1f 0e3e 9a9a b4bb 37e0 003b d2d1 4f3d
00000350: 435f b9bc bbcd e13c 5c1c 363c 5856 23bd
00000360: acaf ecbc cd7f 73bd b957 c53d 9d3d 5ebc
00000370: b943 a5bd bf84 b43c b2c0 4abd 4415 053e
00000380: 215d 543d f043 4fbd a03d 86bc 9b18 8cbd
00000390: 6220 853c f97a b5bc c81e 12bb 415c e9bd
000003a0: d75f 3bbd 860a fc3b 353f 81bd 6ef7 aa3d
000003b0: d7fc f33d 975a 253c 176a 2dbb 8817 81bd
000003c0: 7ea7 dabd 809f c5bd d67a 57bb f912 0fbe
000003d0: cd38 483d 8d33 92bd a7f4 b4bd f1c8 37bd
000003e0: 5b1a a0bd a19c d1bc 84ec 71bc 6f35 d4bd
000003f0: 0a98 aabd 8ea0 793d 4dbd e5bb b398 ccbd

rnn.bias_ih_l0 f4 [256]
0.105928555 0.07029238 -0.015674982 -0.0560405 -0.028145129 0.1786022 0.17588231 -0.04187248
-0.08337771 -0.025336891 0.20101717 0.09816466 -0.10748266 0.18737628 -0.0059828353 0.30345613
0.17585352 0.088104635 0.032391053 0.14981554 -0.04731925 0.1325132 -0.044198092 0.07315349
0.12738763 0.038490478 0.07299154 0.113089025 -0.008457752 -0.086544015 0.008420272 0.22269468
-0.036085356 0.15183975 0.11077204 -0.0086529525 -0.06418633 0.16195665 0.02831506 0.085814245
0.1613022 0.18883385 0.11162059 0.05978014 0.12134618 0.061278637 0.14374745 0.17403425
0.1158052 -0.047526665 0.062427253 0.11534387 0.33182815 -0.037614614 0.29704875 0.16171898
0.11481943 0.03366581 0.06065543 0.045702785 -0.059805993 -0.013535816 -0.03239628 0.0878998
-0.046882376 -0.12013408 -0.19346756 0.023015305 -0.046937525 -0.09368037 -0.17755692 -0.058010295
0.012596982 -0.108156584 0.10792266 -0.03520429 0.07572596 -0.020189151 -0.0051621064 0.00070368475
0.025056506 -0.08145928 -0.08844951 0.13344713 -0.12414022 -0.042986695 0.008471457 -0.00420951
0.010405381 0.049556363 -0.050432716 -0.04823027 -0.055142067 0.067828506 0.036985677 0.06227563
0.01185192 -0.0908329 -0.10891651 0.07312337 -0.12696968 0.047516752 -0.10713787 -0.036949452
-0.107930936 -0.039830055 0.11621608 0.096655555 -0.053395413 -0.0028202264 0.07000653 -0.07802636
-0.10449839 0.014306682 0.040859424 0.036680017 0.08500055 -0.02612374 -0.01711976 -0.0972632
-0.051641088 -0.0064300094 -0.12553993 -0.18580084 0.019435046 -0.17285971 -0.13943928 -0.041380007
-0.03329797 0.08894908 0.0031646276 -0.097008124 0.013868587 0.08329242 -0.1077513 0.058879346
-0.106448255 -0.023314623 0.038535696 -0.07459571 -0.11751439 0.013925513 0.10319444 0.083471134
-0.029204473 0.07791076 -0.015153432 -0.06898095 0.076825716 0.070012145 0.02576875 0.09420384
0.043964397 -0.07658941 -0.09104681 -0.030373283 -0.10337563 -0.062120415 -0.067242995 -0.06502578
0.07438533 -0.076537475 0.101315394 -0.005204785 -0.0075146155 -0.07688937 -0.028542137 -0.06685843
0.10478153 -0.07164149 -0.08979915 0.10555134 0.12455501 0.1483884 0.09824568 0.061264046
-0.019885607 -0.049427036 -0.07060264 -0.055638142 -0.08430558 0.03486182 -0.05812978 -0.053237475
0.104877345 -0.0067813355 -0.04151159 -0.008978048 -0.13994028 -0.068085216 0.08624756 -0.07178629
0.097928084 0.1263076 0.0020316928 0.013768979 0.011573948 0.07343977 0.04135819 0.032399878
-0.11193121 0.12228982 0.066682085 0.095817156 0.04489941 0.34773123 -0.0039057871 0.28166103
0.014484522 0.09778363 0.048440304 0.2077957 -0.018209342 -0.053009722 0.09388976 0.17529538
-0.048312232 0.20231564 0.06722986 -0.08327951 -0.10981182 0.13647723 0.08921552 0.28904077
0.13122341 0.14101653 0.00790128 0.075104535 0.016803982 0.04836316 0.09100951 0.10786803
-0.0730079 -0.0043698144 0.2573883 0.10362425 0.04995006 0.11737338 0.13573198 0.13669983
-0.09074037 0.12522416 0.046318438 -0.040878218 0.28662494 0.119378485 0.3732244 0.090200156
-0.059128925 0.08108701 0.009992618 0.005628439 0.15782845 0.03726711 0.10938113 -0.014935182
00000000: 12f1 d83d 74f5 8f3d d268 80bc b98a 65bd
00000010: 9d90 e6bc 7fe3 363e 7e1a 343e 7a82 2bbd
00000020: efc1 aabd 508f cfbc 72d7 4d3e 8e0a c93d
00000030: de1f dcbd 91df 3f3e a90b c4bb 9a5e 9b3e
00000040: f212 343e 3470 b43d 7bac 043d 3f69 193e
00000050: d4d1 41bd 8ab1 073e 0f09 35bd 7fd1 953d
00000060: e771 023e 31a8 1d3d 977c 953d 389b e73d
00000070: 6292 0abc fd3d b1bd 2ef5 093c 130a 643e
00000080: 3dce 13bd e17b 1b3e 74dc e23d 1dc5 0dbc
00000090: 1f74 83bd f7d7 253e fcf4 e73c 61bf af3d
000000a0: 672c 253e a95d 413e 5699 e43d 05dc 743d
000000b0: 5984 f83d 4fff 7a3d 8832 133e 0936 323e
000000c0: 472b ed3d 52ab 42bd b8b3 7f3d 6839 ec3d
000000d0: 61e5 a93e c811 1abd c616 983e a999 253e
000000e0: 7326 eb3d 29e5 093d d471 783d d832 3b3d
000000f0: 21f7 74bd 54c5 5dbc f6b1 04bd cf04 b43d
00000100: bc07 40bd db08 f6bd 5c1c 46be 988a bc3c
00000110: 9041 40bd 7edb bfbd 7bd1 35be 349c 6dbd
00000120: 9263 4e3c 3381 ddbd 8e06 dd3d 6032 10bd
00000130: 3616 9b3d b863 a5bc e326 a9bb 7c77 383a
00000140: 4d43 cd3c 1fd4 a6bd 0425 b5bd 5da6 083e
00000150: 3a3d febd d112 30bd decb 0a3c eeef 89bb
00000160: 557b 2a3c 9dfb 4a3d 8992 4ebd 1b8d 45bd
00000170: a6dc 61bd ace9 8a3d 4b7e 173d bb14 7f3d
00000180: 8e2e 423c 9906 babd 9f0f dfbd b5c1 953d
00000190: 5704 02be eda0 423d 196b dbbd 4f58 17bd
000001a0: e50a ddbd d724 23bd b202 ee3d 59f3 c53d
000001b0: 26b5 5abd 8cd3 38bb 955f 8f3d 49cc 9fbd
000001c0: 4003 d6bd 9366 6a3c 365c 273d c93d 163d
000001d0: c514 ae3d 7401 d6bc bd3e 8cbc ee31 c7bd
000001e0: 9b85 53bd d4b2 d2bb 8a8d 00be 9342 3ebe
000001f0: 3f36 9f3c 2302 31be 2cc9 0ebe 157e 29bd
00000200: 7463 08bd ef2a b63d a465 4f3b 32ac c6bd
00000210: 1239 633c 3795 aa3d b7ac dcbd 782b 713d
00000220: 8b01 dabd 4ffe bebc 9bd7 1d3d a3c5 98bd
00000230: 62ab f0bd d627 643c 9b57 d33d eaf2 aa3d
00000240: 383e efbc ad8f 9f3d 1a46 78bc e245 8dbd
00000250: cd56 9d3d 8762 8f3d fc18 d33c f1ed c03d
00000260: 0314 343d e9da 9cbd c076 babd 64d1 f8bc
00000270: 9ab6 d3bd fa71 7ebd b2b6 89bd 3c2c 85bd
00000280: 5657 983d aebf 9cbd 727e cf3d e78c aabb
00000290: 2a3d f6bb 2d78 9dbd 33d1 e9bc 13ed 88bd
000002a0: b397 d63d c6b8 92bd 9ee8 b7bd 4d2b d83d
000002b0: b216 ff3d 21f3 173e 0835 c93d 02f0 7a3d
000002c0: 24e7 a2bc 0174 4abd 1e98 90bd d2e4 63bd
000002d0: 67a8 acbd 45cb 0e3d 7e19 6ebd 8a0f 5abd
000002e0: efc9 d63d f735 debb 0f08 2abd aa18 13bc
000002f0: 814c 0fbe 4370 8bbd 90a2 b03d b104 93bd
00000300: 858e c83d c856 013e 2626 053b 4997 613c
00000310: a8a0 3d3c 9767 963d 3567 293d bcb5 043d
00000320: 313c e5bd 1673 fa3d 9e90 883d c93b c43d
00000330: 72e8 373d d409 b23e 3cf8 7fbb e035 903e
00000340: 7d50 6d3c c942 c83d 5769 463d 65c8 543e
00000350: c22b 95bc b920 59bd 4649 c03d a280 333e
00000360: 0ce3 45bd d52b 4f3e cfaf 893d 738e aabd
00000370: 05e5 e0bd b0c0 0b3e a0b6 b63d 27fd 933e
00000380: 6e5f 063e a366 103e 5f74 013c 68d0 993d
00000390: 81a8 893c 7318 463d 3263 ba3d eae9 dc3d
000003a0: 2a85 95bd a930 8fbb 66c8 833e f338 d43d
000003b0: 6f98 4c3d 7461 f03d 53fd 0a3e 0afb 0b3e
000003c0: 16d6 b9bd c33a 003e 67b8 3d3d eb6f 27bd
000003d0: 81c0 923e b57c f43d 4517 bf3e dcba b83d
000003e0: 2c31 72bd f210 a63d 14b8 233c c56e b83b
000003f0: c89d 213e 66a5 183d 3703 e03d b2b2 74bc

rnn.bias_hh_l0 f4 [256]
0.018754207 0.09708065 0.00973793 -0.05756238 0.042495437 -0.032218743 0.08186463 0.07915723
-0.041042026 0.019407842 0.020238668 0.049308147 0.10930544 0.36003748 -0.025502168 0.35035494
0.13307607 0.15493035 0.082263194 0.022629607 -0.04320465 0.11555226 0.16130778 0.12411337
-0.015846396 0.034251936 0.04006571 0.010638494 -0.0670102 -0.032381203 -0.07956271 0.18247305
0.03686696 -0.0645538 0.12681031 0.051093508 0.10612909 -9.33607e-05 0.018698249 0.01768811
0.012013421 0.0049559227 0.013439037 0.29356077 0.066063516 0.06952778 0.19086245 0.12830392
-0.013202436 -0.065442994 0.08312084 -0.0844474 0.31685027 -0.05850842 0.15851976 0.13530074
-0.027229136 -0.041184105 0.05042259 0.12057457 0.16169779 -0.006879563 0.157481 0.20152588
-0.0016271026 -0.0876908 -0.18874097 -0.14004418 -0.083261296 -0.0685745 0.021799771 -0.0584912
-0.13930787 -0.03067411 0.049044296 -0.1431404 0.02013402 0.1379183 0.0061419695 0.08244999
0.077419706 -0.09099383 -0.056346748 0.13181776 0.08116102 0.05726487 -0.12719804 -3.2812433e-05
-0.13166429 -0.103305675 -0.02708019 -0.074484356 -0.10490763 -0.09368737 -0.14448291 0.047382027
0.010974664 0.014230252 0.04947471 0.112698205 0.026744243 -0.06880357 -0.047261845 -0.03152986
-0.018546324 -0.17055917 0.11338038 -0.0055004368 0.010092744 -0.10330539 -0.041351482 -0.128209
-0.09878942 0.05627993 -0.058466025 -0.06622491 0.050028402 -0.08301204 0.0012618651 -0.08460521
0.10880012 0.007483716 0.019161426 -0.18063292 0.11556938 -0.00077716704 -0.1579366 -0.10013597
-0.085345976 -0.01975737 0.11215823 -0.03858477 0.0317936 -0.06415469 -0.060309313 -0.12727784
-0.06761839 0.08341723 -0.033653848 0.07132577 -0.03397695 -0.098807745 -0.059865028 -0.0060124695
0.10225063 -0.0934586 -0.045533005 0.076223016 -0.121029265 -0.09453596 -0.09432467 -0.083289705
0.111639835 -0.10296155 0.01841513 -0.12900552 -0.0060564564 -0.061741784 -0.0848753 0.022064393
0.116779774 -0.07122144 -0.01862892 0.12414747 -0.13683014 0.13229595 -0.044877045 -0.08678423
0.038424913 0.016818264 0.10368557 -0.060977414 0.12783928 0.0024756496 0.04606961 -0.08543873
-0.12280104 0.09166305 -0.09632376 -0.11518373 0.0149369845 0.13962543 0.00043002208 0.0577725
0.046756465 0.124831155 0.097192585 -0.09077537 -0.07248641 -0.04877127 0.06762665 0.05010047
0.23938313 0.11972136 0.06904981 0.123825654 0.14399256 0.013425196 0.060817707 -0.045122474
0.09789013 0.081534036 0.20744169 0.05767089 0.022925124 0.19698119 0.08370759 0.3475286
0.18794455 0.11321281 0.14207949 0.07664705 0.09327094 -0.047813848 0.08005277 0.12832995
0.08657864 0.076434426 -0.015991556 -0.011360614 -0.06267489 0.01630997 0.09880498 0.15947582
-0.056878038 0.00078647654 0.0049412823 0.106302805 0.02521196 0.076175034 -0.01841942 0.038674805
0.07620148 0.06088671 0.21227065 0.29646733 -0.073508 0.09526217 0.23512067 0.2210184
-0.00016836374 0.13201603 -0.017399337 0.031826396 0.26324812 -0.07291471 0.17984848 0.222005
0.16242562 -0.03686106 0.08430879 0.13528925 0.054182164 0.13026266 0.0750123 0.16777088
00000000: 6ca2 993c 38d2 c63d d78b 1f3c 88c6 6bbd
00000010: b20f 2e3d cdf7 03bd a5a8 a73d 301d a23d
00000020: af1b 28bd 32fd 9e3c 90cb a53c 57f7 493d
00000030: 88db df3d d556 b83e ece9 d0bc b961 b33e
00000040: 1845 083e 10a6 1e3e 9b79 a83d ba61 b93c
00000050: 5cf7 30bd aaa6 ec3d de2d 253e 272f fe3d
00000060: 4dd0 81bc c24b 0c3d f11b 243d 144d 2e3c
00000070: a53c 89bd 27a2 04bd c6f1 a2bd 37da 3a3e
00000080: cf01 173d c834 84bd 90da 013e 6d47 513d
00000090: 355a d93d a5ca c3b8 122d 993c a8e6 903c
000000a0: f1d3 443c 4b65 a23b 682f 5c3c 994d 963e
000000b0: 4f4c 873d 9564 8e3d 7271 433e 1a62 033e
000000c0: 084f 58bc fa06 86bd 423b aa3d c2f2 acbd
000000d0: 333a a23e 86a6 6fbd 0153 223e 478c 0a3e
000000e0: a30f dfbc aab0 28bd eb87 4e3d cdef f63d
000000f0: 1b94 253e f56d e1bb b342 213e cd5c 4e3e
00000100: 8144 d5ba 3c97 b3bd 5045 41be be67 0fbe
00000110: e684 aabd ca70 8cbd 6f95 b23c 7894 6fbd
00000120: b9a6 0ebe 4548 fbbc ace2 483d 6693 12be
00000130: 1af0 a43c 743a 0d3e 9342 c93b 8adb a83d
00000140: 398e 9e3d f95a babd d9cb 66bd 3cfb 063e
00000150: c037 a63d 918e 6a3d 3440 02be 15a0 09b8
00000160: 01d3 06be ed91 d3bd 46d7 ddbc 418b 98bd
00000170: d0d9 d6bd 2adf bfbd 54f3 13be a813 423d
00000180: 14cf 333c 0126 693c fea5 4a3d 51ce e63d
00000190: be16 db3c e3e8 8cbd a395 41bd 7425 01bd
000001a0: 76ee 97bc 10a7 2ebe f933 e83d 023d b4bb
000001b0: 095c 253c c791 d3bd 2c60 29bd 3849 03be
000001c0: 1c52 cabd c985 663d 127a 6fbd eda0 87bd
000001d0: 95ea 4c3d 3702 aabd 2b65 a53a 7f45 adbd
000001e0: 99d2 de3d f639 f53b 6cf8 9c3c d6f7 38be
000001f0: a4af ec3d ccba 4bba 22ba 21be 1614 cdbd
00000200: dfc9 aebd 35da a1bc 37b3 e53d 100b 1ebd
00000210: 023a 023d 8963 83bd e606 77bd 1f55 02be
00000220: 837b 8abd a7d6 aa3d 9ed8 09bd 3f13 923d
00000230: 6a2b 0bbd b75b cabd 0835 75bd 4004 c5bb
00000240: c768 d13d 3967 bfbd d180 3abd d01a 9c3d
00000250: 31de f7bd 129c c1bd 4b2d c1bd cb93 aabd
00000260: 6da3 e43d 81dd d2bd 54db 963c 061a 04be
00000270: 3d75 c6bb f4e4 7cbd 1ad3 adbd 63c0 b43c
00000280: 3c2a ef3d 8cdc 91bd ad9b 98bc 0741 fe3d
00000290: 331d 0cbe 9778 073e fed0 37bd eebb b1bd
000002a0: 7163 1d3d 75c6 893c 1a59 d43d 74c3 79bd
000002b0: 4de8 023e 823e 223b 7db3 3c3d 80fa aebd
000002c0: 1d7f fbbd d6b9 bb3d 6445 c5bd 73e5 ebbd
000002d0: 41ba 743c f8f9 0e3e 9674 e139 dba2 6c3d
000002e0: b583 3f3d 7aa7 ff3d e80c c73d 70e8 b9bd
000002f0: c173 94bd 62c4 47bd d77f 8a3d 2736 4d3d
00000300: da20 753e 7930 f53d fd69 8d3d 4e98 fd3d
00000310: c972 133e 5af5 5b3c fd1b 793d 58d2 38bd
00000320: 9f7a c83d 51fb a63d 986b 543e 5038 6c3d
00000330: 78cd bb3c 70b5 493e e36e ab3d 45ef b13e
00000340: 8974 403e 1edc e73d 497d 113e 21f9 9c3d
00000350: d604 bf3d 74d8 43bd b5f2 a33d ed68 033e
00000360: 2450 b13d a789 9c3d b900 83bc de21 3abc
00000370: b15b 80bd 7c9c 853c 445a ca3d a14d 233e
00000380: f2f8 68bd 8c2b 4e3a 7bea a13b 49b5 d93d
00000390: 5089 ce3c a801 9c3d 53e4 96bc 7969 1e3d
000003a0: 860f 9c3d 5864 793d 7a5d 593e 91ca 973e
000003b0: 5d8b 96bd d018 c33d 79c3 703e a652 623e
000003c0: cc8a 30b9 362f 073e 0e89 8ebc 655c 023d
000003d0: 75c8 863e 4f54 95bd 332a 383e 4755 633e
000003e0: e752 263e 9ffb 16bd 16aa ac3d 4489 0a3e
000003f0: 1eee 5d3d 9363 053e 0ca0 993d 21cc 2b3e

rnn.weight_ih_l1 f4 [256, 64]
0.18901694 -0.038240906 0.07599264 -0.10795578 -0.022498451 0.015858112 0.025979375 -0.16645168
-0.07598286 0.0749619 -0.0577038 0.13503748 -0.08281503 0.14293434 0.12657389 -0.19324644
0.18993033 0.012473893 -0.1537431 -0.07905773 -0.13447766 -0.13258795 0.013071941 0.094988264
-0.012975426 -0.052822903 -0.16745777 -0.08221493 -0.04051142 -0.13492534 -0.0051830728 0.16024902
-0.045203302 -0.035961866 -0.026074944 -0.07084294 -0.057866003 0.14800416 -0.1637861 0.11331938
0.15088512 -0.0069567044 -0.0047049536 -0.26474807 -0.009725961 0.013413075 -0.104795314 0.15711643
0.069832966 -0.036700178 0.018441275 -0.14371662 0.1557568 0.023981513 0.31127432 -0.09796423
0.08449893 -0.002397471 -0.05077113 0.02034572 -0.06383459 -0.0951618 0.072036184 -0.20580623
-0.013968975 0.1522249 -0.046078935 -0.06783308 0.081555694 0.08686365 0.014739069 -0.13573283
0.06916255 0.19692817 -0.12024162 0.15763903 0.074772716 0.16589582 0.16303907 -0.121531166
-0.03594379 -0.068824604 -0.00723448 -0.15245973 0.01870563 -0.018347593 -0.13769326 0.20140672
-0.056884762 0.16448891 -0.1169836 -0.13254367 -0.10243102 0.062309034 -0.07927912 0.23473172
-0.057666432 -0.046384588 0.17537923 0.11701122 -0.11138812 -0.02602432 -0.09206669 0.10315991
0.18166947 -0.16624318 -0.14040124 -0.11368138 0.032634597 -0.0445317 -0.057464525 0.2858045
-0.08948657 0.14046298 0.043879863 -0.021640077 0.17009695 -0.034056883 0.13488573 -0.03867925
0.17636192 0.03873705 -0.07315047 0.056781 0.04017896 -0.04014674 -0.042011466 -0.15509851
0.04319379 0.15807877 0.15739296 0.03855686 0.06366642 0.123085216 -0.06763708 -0.0020268033
-0.09166834 -0.067994125 -0.08023112 0.0437458 -0.11378962 0.2146255 0.047471095 -0.17734684
-0.04819598 -0.07320621 0.048737273 -0.19315161 0.012741711 -3.833343e-05 -0.1388036 0.106584325
0.13001378 -0.044775497 0.018116985 0.012211313 -0.13441427 -0.01597637 -0.058781058 0.064506315
0.053594463 -0.10417674 0.059093047 -0.04216503 0.054653507 0.09781925 -0.12716365 0.028103268
-0.022314558 0.08307793 -0.11725962 -0.08328458 0.11305278 -0.035644494 -0.058433924 0.21432695
0.02842051 0.034515735 0.024150152 -0.09568118 0.19564024 -0.10969868 0.17198366 -0.13512222
0.091832176 0.022099564 0.12868872 -0.04007109 0.0003053005 0.0070943385 -0.097028114 0.042539906
0.06817611 0.093630426 0.022003975 -0.17326494 -0.010477275 0.04427185 -0.042439755 0.037312858
-0.015930852 0.16154258 -0.17415619 0.0007003117 -0.12049743 0.15584414 0.04035443 -0.3161602
0.0110945 -0.107415535 0.01638307 -0.057638403 -0.07166608 -0.08958132 -0.13523264 0.02759954
-0.047958616 0.016392251 0.054947212 -0.16690843 0.08039697 0.0855471 0.059295435 0.2642139
0.0327931 -0.08355749 0.0779502 0.09508855 0.0035211358 0.0099555105 -0.2068577 0.06187058
0.075972356 -0.036957093 -0.20346783 -0.053670175 0.114569955 -0.09181887 0.04283349 0.15627833
0.0646268 -0.02868037 -0.1394676 -0.117982134 0.10538131 0.12775224 0.23746498 -0.2060444
0.1481322 0.1068689 0.023415023 -0.07134836 -0.016145593 0.11187078 -0.07143238 -0.019754132
00000000: a88d 413e 7fa2 1cbd 07a2 9b3d ec17 ddbd
00000010: ac4e b8bc dfe8 813c b3d2 d43c 4f72 2abe
00000020: e79c 9bbd a085 993d d25a 6cbd 4447 0a3e
00000030: ed9a a9bd 615d 123e 969c 013e 65e2 45be
00000040: 197d 423e 4d5f 4c3c d56e 1dbe 05e9 a1bd
00000050: 83b4 09be 23c5 07be b22b 563c 3589 c23d
00000060: e296 54bc d45c 58bd 0d7a 2bbe 4d60 a8bd
00000070: 4eef 25bd de29 0abe c4d6 a9bb 5218 243e
00000080: 1927 39bd c04c 13bd 1f9b d5bc 1a16 91bd
00000090: e704 6dbd 678e 173e 8bb7 27be fe13 e83d
000000a0: a181 1a3e 11f5 e3bb 032c 9abb 0f8d 87be
000000b0: a359 1fbc 84c2 5b3c ed9e d6bd 21e3 203e
000000c0: 9604 8f3d ed52 16bd 2812 973c 732a 13be
000000d0: b67e 1f3e e174 c43c 595f 9f3e 78a1 c8bd
000000e0: c60d ad3d e41e 1dbb 63f5 4fbd 11ac a63c
000000f0: b6bb 82bd 31e4 c2bd b587 933d debe 52be
00000100: 21de 64bc d8e0 1b3e 44bd 3cbd 12ec 8abd
00000110: ac06 a73d 92e5 b13d 237c 713c 8cfd 0abe
00000120: 18a5 8d3d 8aa7 493e 3d41 f6bd 206c 213e
00000130: 7022 993d 98e0 293e b7f3 263e 55e5 f8bd
00000140: cc39 13bd eaf3 8cbd 380f edbb 671e 1cbe
00000150: 8d3c 993c b14d 96bc 76ff 0cbe 903d 4e3e
00000160: ffff 68bd c86f 283e 1995 efbd 87b9 07be
00000170: 5bc7 d1bd c237 7f3d 175d a2bd 835d 703e
00000180: a333 6cbd c4fd 3dbd 9d96 333e 94a3 ef3d
00000190: 741f e4bd f430 d5bc 768d bcbd 8145 d33d
000001a0: 9007 3a3e a73b 2abe 58c5 0fbe c9d1 e8bd
000001b0: dbab 053d df66 36bd ec5f 6bbd f854 923e
000001c0: bc44 b7bd 87d5 0f3e 5fbb 333d 8846 b1bc
000001d0: e52d 2e3e 3b7f 0bbd 7c1f 0a3e 226e 1ebd
000001e0: 3898 343e beaa 1e3d eacf 95bd 3293 683d
000001f0: b192 243d e870 24bd 3714 2cbd 25d2 1ebe
00000200: f9eb 303d 67df 213e 9f2b 213e cced 1d3d
00000210: 8a63 823d 1a14 fc3d 4f85 8abd 1ed4 04bb
00000220: 9cbc bbbd 8140 8bbd 3750 a4bd cc2e 333d
00000230: 880a e9bd c9c6 5b3e 0d71 423d 699a 35be
00000240: 2669 45bd 23ed 95bd bca0 473d 89c9 45be
00000250: 9cc2 503c 35c8 20b8 8822 0ebe e248 da3d
00000260: 5522 053e 8366 37bd 126a 943c f511 483c
00000270: e5a3 09be e0e0 82bc 68c4 70bd e31b 843d
00000280: de85 5b3d 9d5a d5bd 8d0b 723d 3db5 2cbd
00000290: 5bdc 5f3d 7555 c83d 3037 02be d338 e63c
000002a0: 05cd b6bc c324 aa3d d025 f0bd 1b91 aabd
000002b0: 3788 e73d f6ff 11bd 6958 6fbd 8678 5b3e
000002c0: 21d2 e83c 5f60 0d3d 8ad6 c53c 7ff4 c3bd
000002d0: ea55 483e b4a9 e0bd 7c1c 303e 7b5d 0abe
000002e0: 8212 bc3d 250a b53c fac6 033e 9521 24bd
000002f0: bd10 a039 a077 e83b adb6 c6bd 533e 2e3d
00000300: eb9f 8b3d 4fc1 bf3d ae41 b43c 5d6c 31be
00000310: e0a8 2bbc 6656 353d 4fd5 2dbd 5ed5 183d
00000320: 6b81 82bc 6b6b 253e 0056 32be 1f95 373a
00000330: 5bc7 f6bd 9b95 1f3e b04a 253d c0df a1be
00000340: b5c5 353c adfc dbbd ca35 863c 3f16 6cbd
00000350: aac5 92bd 6976 b7bd 6d7a 0abe 6e18 e23c
00000360: 4170 44bd 0b49 863c 5410 613d 0bea 2abe
00000370: 2ba7 a43d 5133 af3d c5df 723d 0b47 873e
00000380: 0f52 063d 3020 abbd 5ba4 9f3d c9bd c23d
00000390: dbc2 663b 701c 233c 81d2 53be 016c 7d3d
000003a0: 6597 9b3d 5260 17bd df59 50be 42d5 5bbd
000003b0: a7a3 ea3d 880b bcbd 2b72 2f3d 6d07 203e
000003c0: 0e5b 843d 18f3 eabc 98d0 0ebe 9ea0 f1bd
000003d0: 28d2 d73d 7cd1 023e 052a 733e 4efd 52be
000003e0: f8af 173e 15de da3d ddd0 bf3c 171f 92bd
000003f0: c343 84bc 821c e53d 244b 92bd 6bd3 a1bc

rnn.weight_hh_l1 f4 [256, 64]
-0.055727426 0.061484188 -0.073573925 -0.07815211 0.111559585 0.10530481 0.04925962 0.02953547
-0.093454294 -0.070113696 0.08315862 0.0009957768 -0.059273243 -0.05095222 -0.091696 0.009946945
0.030905303 -0.1388048 0.0032580823 -0.09781482 -0.063700356 0.05520007 -0.076339215 0.12486021
0.0495043 0.08322465 -0.015422881 -0.10450925 0.024186512 0.08767624 0.039554704 0.018608723
0.13695806 0.05598888 0.026498998 -0.077813804 -0.08640913 -0.059626285 0.02107575 0.11144436
0.096462175 -0.12603907 0.05698232 0.0037938824 0.12423924 -0.13892815 -0.054313667 -0.024548564
-0.052209023 0.07569873 -0.03003641 0.024079725 -0.030034132 0.14388984 -0.08796385 -0.12205502
-0.1085857 0.0557563 -0.021706974 0.10478704 0.06971659 0.006412369 0.013203117 0.012706256
0.11268977 -0.018678317 -0.116730414 0.06030051 0.06387424 -0.059700157 0.085659884 -0.021051085
0.048213415 -0.05599318 -0.017879501 -0.103283204 -0.11228811 -0.0068167048 0.039208345 -0.09564123
0.10090082 0.0995579 0.11049837 0.094693765 0.07915862 -0.13679476 -0.0013723444 -0.05498913
0.029910913 -0.03687048 -0.023463855 -0.05454041 0.119670846 0.11417783 -0.0747697 0.0024702798
0.006289626 -0.08714922 -0.017468026 0.057252187 0.06342925 0.060012896 -0.01416043 0.049450736
-0.11614172 -0.0287412 -0.050229978 -0.12315495 -0.016864067 0.057155788 0.082374796 0.04543502
-0.06969412 0.10227919 -0.03266597 -0.059004597 0.008957598 -0.04112798 -0.08352957 0.04051649
-0.057785913 -0.023824865 0.053156126 -0.12230974 -0.005565574 0.042107407 0.09465061 -0.029596273
0.031526506 -0.12762642 -0.019853687 -0.034069344 -0.09930094 -0.044787385 0.19144626 -0.051055215
0.024933452 -0.049716208 -0.049460642 -0.064581744 0.056402396 0.04188852 0.03056951 0.08397803
0.032819282 0.049016766 -0.08193324 0.10058385 -0.1277143 -0.024943372 -0.108605325 -0.07579241
-0.1640272 -0.079028904 -0.093261115 -0.029268622 0.030498195 0.11112789 0.045352608 0.017910652
-0.09297418 -0.1053062 -0.005603252 0.13015482 -0.110765375 0.09409418 -0.10493608 0.08912243
0.096060865 -0.0017971356 -0.068615705 0.05017244 -0.082991734 0.045165047 0.020428935 -0.047442902
-0.067859106 0.0018090606 0.0120616555 -0.10958309 -0.05112521 -0.081085175 0.061442073 -0.014428776
-0.0885258 -0.023224944 0.08047535 0.036584664 0.055180885 -0.018772632 0.0976309 0.0886292
-0.08801382 0.11459174 0.08638402 0.008551559 -0.092089616 0.063795425 0.111555375 0.10207646
0.12781034 0.096743844 0.064873725 0.1175703 0.016506698 -0.03113712 -0.008184254 -0.104652256
0.033597477 0.034073588 0.090738654 0.045751836 0.025051739 -0.11032354 -0.026141824 -0.070762195
0.017039059 -0.06838666 -0.05214845 0.024907498 0.07852456 0.020650709 -0.05453922 -0.033728443
0.12079558 -0.00833091 -0.0837242 -0.006992183 0.12553485 0.04525312 0.09525328 0.0101018995
0.10154646 -0.019692337 0.020302152 0.046413723 0.08645474 0.060942706 -0.0835018 0.092704885
-0.09219726 -0.020263186 -0.044665933 -0.11942283 -0.04702754 0.040440753 0.11316363 0.0944569
-0.035446834 0.09733755 0.03224177 -0.011561575 -0.077077985 0.12529472 -0.09080634 0.023004217
00000000: 7142 64bd d8d6 7b3d edad 96bd 370e a0bd
00000010: 5a79 e43d 0caa d73d 75c4 493d 5ff4 f13c
00000020: f764 bfbd c597 8fbd 114f aa3d ba84 823a
00000030: 80c8 72bd 46b3 50bd 1dcb bbbd 83f8 223c
00000040: 1e2d fd3c d822 0ebe 8d85 553b 2353 c8bd
00000050: 5575 82bd 7819 623d bc57 9cbd b6b6 ff3d
00000060: 05c5 4a3d af71 aa3d 40b0 7cbc f208 d6bd
00000070: cb22 c63c 9a8f b33d 1d04 223d 5271 983c
00000080: bc3e 0c3e 9954 653d 6d14 d93c d85c 9fbd
00000090: 45f7 b0bd b13a 74bd 0da7 ac3c f13c e43d
000000a0: f68d c53d 6310 01be 4b66 693d c9a2 783b
000000b0: 2571 fe3d 2e43 0ebe 0278 5ebd 121a c9bc
000000c0: 21d9 55bd f007 9b3d eb0e f6bc d842 c53c
000000d0: 240a f6bc dc57 133e 6426 b4bd fbf7 f9bd
000000e0: 2e62 debd b860 643d d3d2 b1bc 969a d63d
000000f0: 92c7 8e3d da1e d23b e351 583c e62d 503c
00000100: e5c9 e63d 4503 99bc 5b10 efbd abfd 763d
00000110: 7fd0 823d 2788 74bd 736e af3d 5373 acbc
00000120: 6e7b 453d 1b59 65bd 0878 92bc 2586 d3bd
00000130: 4ff7 e5bd aa5e dfbb ee98 203d 8ddf c3bd
00000140: 17a5 ce3d 03e5 cb3d f84c e23d ceee c13d
00000150: ea1d a23d ed13 0cbe 3de0 b3ba 483c 61bd
00000160: bb07 f53c 8005 17bd 4537 c0bc c465 5fbd
00000170: fd15 f53d 11d6 e93d db20 99bd 6be4 213b
00000180: 3519 ce3b 4a7b b2bd 1b19 8fbc 4581 6a3d
00000190: 32e7 813d 15d0 753d 2601 68bc db8c 4a3d
000001a0: b6db edbd aa72 ebbc f3bd 4dbd aa38 fcbd
000001b0: 8326 8abc 301c 6a3d 1eb4 a83d 121a 3a3d
000001c0: cabb 8ebd c177 d13d c1cc 05bd ceae 71bd
000001d0: e4c2 123c d075 28bd 8d11 abbd 9ef4 253d
000001e0: ecb0 6cbd 5d2c c3bc 3dba 593d 877d fabd
000001f0: 6b5f b6bb d178 2c3d 2ed8 c13d e273 f2bc
00000200: f021 013d 80b0 02be 33a4 a2bc 4c8c 0bbd
00000210: 4b5e cbbd fa72 37bd 7d0a 443e 461f 51bd
00000220: 3d41 cc3c 39a3 4bbd 3e97 4abd 6f43 84bd
00000230: 3306 673d 4c93 2b3d e96c fa3c acfc ab3d
00000240: 836d 063d cec5 483d 9dcc a7bd e8fe cd3d
00000250: 8ac7 02be 0b56 ccbc 786c debd 0d39 9bbd
00000260: bff6 27be e8d9 a1bd afff bebd c0c4 efbc
00000270: 5ad7 f93c 0597 e33d a8c3 393d 5cb9 923c
00000280: 3f69 bebd c7aa d7bd 7c9b b7bb 4e47 053e
00000290: f5d8 e2bd 73b4 c03d bae8 d6bd d285 b63d
000002a0: 8fbb c43d dd8d ebba 6486 8cbd 9e81 4d3d
000002b0: 92f7 a9bd fcfe 383d 955a a73c 7d53 42bd
000002c0: b7f9 8abd 001e ed3a 409e 453c 196d e0bd
000002d0: ab68 51bd fc0f a6bd afaa 7b3d ac66 6cbc
000002e0: 044d b5bd 3d42 bebc 43d0 a43d cdd9 153d
000002f0: 5a05 623d 10c9 99bc b6f2 c73d 3a83 b53d
00000300: 9740 b4bd 13af ea3d 1bea b03d d71b 0c3c
00000310: 7b99 bcbd 2da7 823d 2577 e43d 770d d13d
00000320: b7e0 023e a321 c63d 84dc 843d b3c8 f03d
00000330: 0e39 873c 4613 ffbc 4017 06bc ec53 d6bd
00000340: 829d 093d bf90 0b3d 30d5 b93d 4766 3b3d
00000350: 4e39 cd3c 4ff1 e1bd 6127 d6bc c5eb 90bd
00000360: 7f95 8b3c 4e0e 8cbd 9d99 55bd cf0a cc3c
00000370: 7cd1 a03d ad2b a93c 8464 5fbd d626 0abd
00000380: ac63 f73d 5e7e 08bc 9877 abbd af1e e5bb
00000390: 358c 003e 565b 393d 2714 c33d 7082 253c
000003a0: 97f7 cf3d d351 a1bc b350 a63c 511c 3e3d
000003b0: 2f0f b13d 0f9f 793d fe02 abbd 0fdc bd3d
000003c0: ebd1 bcbd fbfe a5bc a0f3 36bd f593 f4bd
000003d0: f39f 40bd 34a5 253d 55c2 e73d 9f72 c13d
000003e0: b330 11bd e958 c73d f20f 043d c36c 3dbc
000003f0: 10db 9dbd 424d 003e adf8 b9bd 5773 bc3c

rnn.bias_ih_l1 f4 [256]
0.0647263 -0.08147323 -0.08725875 0.044986818 -0.03563124 0.14524615 0.103744835 0.113864794
0.15699501 0.16259274 -0.033164367 -0.054736316 -0.02166594 0.19578816 0.02373237 -0.054563217
0.082929805 0.08593485 0.07729648 -0.07130263 0.12860337 0.11901294 0.080472894 -0.08847088
0.036188178 -0.01622364 -0.05481931 -0.02239814 0.058590826 0.06522946 0.15592217 0.024990208
-0.0057115597 -0.006920767 0.14122254 0.12931514 -0.04295327 0.145188 0.015068371 0.05194296
0.09010132 0.10731298 0.042818382 0.10461733 -0.08976335 0.11609039 0.12781946 0.023002034
0.014463928 -0.026766408 0.15731719 0.088956274 0.072546095 0.01743617 0.14164399 0.20079543
-0.05267079 0.13615474 0.14279033 -0.050742514 0.066792265 0.006118026 0.13776326 0.09236138
-0.036726616 -0.05652339 -0.030497111 -0.08914692 -0.08366697 0.008276044 0.037416834 -0.014417682
-0.13503894 -0.06844348 -0.07393429 -0.04351723 -0.06975059 0.0058161756 0.068060644 0.071645916
0.09801048 -0.0045592226 -0.07191134 0.0873286 -0.036076695 -0.017202038 -0.02084112 -0.14398174
-0.16461565 -0.04782239 -0.11953196 0.06202589 0.06318199 -0.042240523 -0.07295677 0.08820264
-0.09806131 0.07288001 -0.08456472 0.08285563 0.09013674 0.031389747 -0.017346416 -0.09575312
-0.11778009 0.07586485 -0.10611433 -0.03308154 -0.013319529 -0.079177625 0.070488736 0.10187931
-0.1086909 0.030482423 0.025170695 -0.121980526 0.05164429 0.018836644 0.0058663273 -0.15887712
0.077131666 -0.02055962 -0.023653297 0.008910486 -0.13539772 0.08938094 -0.113670826 0.092828654
0.050306533 0.093631275 -0.12034648 -0.036278 -0.010785907 -0.1309937 -0.07173502 0.11687333
-0.123756826 0.014164439 0.027856389 0.054038323 0.051313553 -0.09819518 0.11310236 -0.035069693
0.10342619 0.123806946 0.023677193 -0.05547386 -0.085170835 0.017065017 0.09662864 -0.119627155
0.0629514 -0.004809586 0.03317904 0.0403694 -0.06522906 0.036736988 -0.01342358 0.10935944
0.042191625 0.08702692 0.091223165 -0.026578097 -0.06023883 0.13273014 -0.08742322 0.074274756
-0.023772547 0.067303985 0.089062534 0.053327058 -0.052015923 -0.056787733 -0.036370512 0.08864588
-0.057894226 0.1206901 0.08487625 0.050261673 -0.06562599 -0.11295118 0.07001478 -0.03070532
0.03368878 0.08788555 -0.11200504 -0.06271025 -0.03768126 -0.07458579 0.12503955 -0.12535977
-0.05928108 0.1490797 0.1004805 -0.0083665 0.012942421 -0.012386577 0.20037687 0.033008635
-0.025824688 0.19860154 -0.010109665 0.087987155 0.039863963 0.12272039 0.032632753 0.12156951
-0.06779085 -0.06125387 -0.03611305 0.08923452 0.17910676 0.09539025 0.024120517 -0.043770947
0.060027335 -0.119933866 0.09935093 -0.016647808 -0.01734883 0.17607088 0.024147013 0.14584857
0.025089558 -0.03759721 -0.039362255 0.08938971 -0.021058843 0.12719104 0.038340647 0.13610055
0.004900059 0.013780096 -0.081274725 -0.02559124 0.077197514 -0.06733224 0.11660617 -0.016556185
-0.019981295 0.018584313 -0.05991678 -0.013401149 -0.04892102 0.08818489 0.07296543 0.111536175
0.027731925 0.024474407 -0.04779169 -0.079559065 0.07315839 -0.0010260508 -0.048486944 0.013793704
00000000: 398f 843d 70db a6bd b7b4 b2bd 1944 383d
00000010: 10f2 11bd 68bb 143e 2c78 d43d f231 e93d
00000020: 4dc3 203e b67e 263e 5cd7 07bd 3033 60bd
00000030: c57c b1bc b17c 483e 636a c23c ae7d 5fbd
00000040: 1ad7 a93d 9cfe af3d 9e4d 9e3d 1d07 92bd
00000050: 9ab0 033e 0ebd f33d f9ce a43d 3930 b5bd
00000060: 0e3a 143d 70e7 84bc 368a 60bd 4e7c b7bc
00000070: effc 6f3d 0697 853d 10aa 1f3e 44b8 cc3c
00000080: 0928 bbbb 9ac7 e2bb a49c 103e 306b 043e
00000090: c5ef 2fbd 2aac 143e 54e1 763c 24c2 543d
000000a0: 0a87 b83d e8c6 db3d 5462 2f3d 9c41 d63d
000000b0: d9d5 b7bd ccc0 ed3d 1be3 023e c36e bc3c
000000c0: 1cfa 6c3c 3a45 dbbc c217 213e b52e b63d
000000d0: 0c93 943d 4cd6 8e3c 1f0b 113e 519d 4d3e
000000e0: 54bd 57bd 266c 0b3e a137 123e 62d7 4fbd
000000f0: 62ca 883d b979 c83b d011 0d3e f727 bd3d
00000100: a66e 16bd 1285 67bd 14d5 f9bc a992 b6bd
00000110: 9759 abbd 3f98 073c 6542 193d 2438 6cbc
00000120: a647 0abe 182c 8cbd dc6a 97bd 1f3f 32bd
00000130: 66d9 8ebd 9e95 be3b 6163 8b3d 18bb 923d
00000140: b8b9 c83d 8865 95bb 4146 93bd 56d9 b23d
00000150: 28c5 13bd 4aeb 8cbc ffba aabc f36f 13be
00000160: 0191 28be 69e1 43bd 2ccd f4bd dc0e 7e3d
00000170: 8f65 813d 6604 2dbd 5c6a 95bd 96a3 b43d
00000180: 5ed4 c8bd 1d42 953d 4530 adbd 36b0 a93d
00000190: 9c99 b83d 8992 003d 121a 8ebc 361a c4bd
000001a0: b036 f1bd 085f 9b3d 7852 d9bd 8280 07bd
000001b0: 273a 5abc e127 a2bd 665c 903d 1aa6 d03d
000001c0: 5699 debd 46b6 f93c c632 ce3c edd0 f9bd
000001d0: f788 533d 4e4f 9a3c 523a c03b afb0 22be
000001e0: 35f7 9d3d a66c a8bc 8fc4 c1bc 49fd 113c
000001f0: b3a5 0abe 5b0d b73d 40cc e8bd f31c be3d
00000200: 390e 4e3d c1c1 bf3d 3778 f6bd 3d98 14bd
00000210: 5fb7 30bc 3623 06be cfe9 92bd 495b ef3d
00000220: 3874 fdbd f711 683c 1533 e43c 4a57 5d3d
00000230: 292e 523d 8e1a c9bd 36a2 e73d 3da5 0fbd
00000240: 1cd1 d33d 7f8e fd3d acf6 c13c 8f38 63bd
00000250: 0c6e aebd efcb 8b3c 3de5 c53d 15ff f4bd
00000260: aaec 803d bb99 9dbb bfe6 073d 625a 253d
00000270: d096 85bd 8679 163d 93ee 5bbc d8f7 df3d
00000280: 20d1 2c3d 2b3b b23d 36d3 ba3d 4fba d9bc
00000290: febc 76bd 69ea 073e f20a b3bd 5d1d 983d
000002a0: a5be c2bc acd6 893d 6b66 b63d 796d 5a3d
000002b0: a60e 55bd 419a 68bd 3ff9 14bd f98b b53d
000002c0: 7f22 6dbd 5f2c f73d 99d3 ad3d 2fdf 4d3d
000002d0: eb66 86bd f352 e7bd e963 8f3d b989 fbbc
000002e0: 3ffd 093d 57fd b33d e662 e5bd 3b6e 80bd
000002f0: aa57 1abd 6fc0 98bd 5e0a 003e 505e 00be
00000300: b8d0 72bd 59a8 183e b8c8 cd3d a513 09bc
00000310: 730c 543c 12f1 4abc 982f 4d3e 1034 073d
00000320: 4c8e d3bc 345e 4b3e 02a3 25bc 9c32 b43d
00000330: 6548 233d d454 fb3d eca9 053d 6ff9 f83d
00000340: eed5 8abd 57e5 7abd 47eb 13bd 97c0 b63d
00000350: c367 373e f75b c33d 6498 c53c 2a49 33bd
00000360: 39df 753d e39f f5bd 8078 cb3d fc60 88bc
00000370: 221f 8ebc ed4b 343e f5cf c53c 5459 153e
00000380: 9e88 cd3c 88ff 19bd 513a 21bd f411 b73d
00000390: 9883 acbc 5e3e 023e 150b 1d3d f15d 0b3e
000003a0: ad90 a03b e9c5 613c 5d73 a6bd b8a4 d1bc
000003b0: bb19 9e3d 7ce5 89bd 37cf ee3d d6a0 87bc
000003c0: d0af a3bc 213e 983c 4c6b 75bd 7e90 5bbc
000003d0: 6861 48bd 489a b43d e66e 953d 146d e43d
000003e0: 102e e33c 8d7e c83c 38c1 43bd ddef a2bd
000003f0: 11d4 953d 8d7c 86ba 3f9a 46bd fdfe 613c

rnn.bias_hh_l1 f4 [256]
-0.0021774983 0.011628215 0.10856078 0.15403871 0.15387729 0.17445433 0.17211092 0.024139
0.04625627 0.17219318 0.0032134533 0.011044569 -0.032759633 0.0078108194 0.14023681 -0.021080326
0.05175749 0.032517485 -0.019261327 -0.07407641 0.040655397 0.047952358 0.0047441716 -0.024336284
0.20805551 0.055557624 0.16472976 0.04843215 0.1247618 -0.052334685 0.027146818 0.07780227
0.038186934 0.052138034 -0.08822349 0.0989115 0.16857348 0.12255951 0.15360418 0.008551232
-0.044228006 0.016700672 0.010756194 -0.04543752 -0.002352095 0.02331589 -0.049917508 0.02784199
0.03963242 0.014331803 0.12300355 0.064035684 0.013913541 -0.040353917 -0.00044244973 0.16375974
0.094120525 -0.050498344 0.10315549 0.005596439 -0.022414533 0.054083776 -0.05540054 -0.017334618
-0.036500964 -0.12984085 0.08002248 -0.088195585 0.044592895 -0.10460612 0.041031275 0.006188017
-0.17763126 -0.009121859 -0.0658211 0.0015754566 -0.1378957 0.017820321 0.030571494 -0.029760124
-0.053033758 -0.06533892 0.114347555 -0.04272752 -0.067307286 -0.0863593 -0.123569176 0.075454235
0.03214172 0.043265667 0.02807761 -0.10618782 -0.021824954 -0.04274455 -0.07248701 -0.12821841
-0.08643967 -0.16263314 0.04583736 0.050995428 -0.087233916 0.066674635 0.10437078 -0.081160285
0.01496512 0.08500555 0.0019214149 0.0984441 -0.18660365 0.0069493772 -0.09759946 -0.023830336
0.03527455 0.0899417 0.0032414314 -0.015918722 -0.10287081 -0.07591026 -0.120735675 -0.0049111843
0.041712414 -0.01864232 0.10400903 -0.045290276 0.044507653 -0.0436145 0.031075016 -0.0949231
-0.13415393 0.103087835 0.006470443 -0.092644274 -0.043315142 0.029952321 0.0810116 -0.026204634
-0.03281635 -0.015866889 -0.06687372 -0.11551663 -0.06475235 0.018994117 0.02037858 0.018343978
0.01263876 0.07592097 0.046520706 0.03462227 0.057801686 -0.045001376 -0.05694202 -0.08291264
-0.07539727 -0.034124266 -0.075575575 0.0067640427 0.10918111 -0.028376913 -0.10558903 0.1201282
-0.08951507 0.00028430138 0.10842407 -0.014206902 -0.059040796 -0.0801565 0.13955356 -0.028124906
-0.07266552 0.09809214 0.043418493 -0.044712137 -0.015979933 0.139595 0.05188034 -0.038504153
0.11002698 -0.106183365 0.077844806 0.0054786033 -0.05701484 -0.07272384 -0.021814607 0.07130104
0.06876669 0.13450688 -0.029340778 -0.041610245 -0.030460835 -0.110510714 -0.06555308 -0.038219653
0.13342087 0.11960444 -0.10823375 0.026400626 0.14043786 0.12667622 0.03145989 0.09302649
-0.020961657 0.20378065 -0.0122263925 0.17316668 0.18678768 0.20394361 0.03700629 -0.06015557
0.15896992 0.00844734 -0.023570973 -0.058231942 0.08467293 0.17795542 0.104629904 -0.028647326
0.13517551 -0.022249907 0.047183637 -0.0327176 0.15014617 0.12166986 -0.042216863 0.06382652
0.0076879556 -0.052093156 0.13697673 0.149934 -0.045189194 0.15231158 0.044052284 0.16596195
0.039353088 -0.040800095 0.09901785 0.12990734 -0.07447047 -0.033593755 -0.032516558 0.15340613
0.043588612 0.16260217 0.0036593294 -0.0574363 0.020815387 -0.095700145 0.13076292 0.097028896
0.050500475 0.10837735 0.06926108 0.015322303 -0.014258577 -0.008758823 0.049476 -0.08579637
00000000: 5cb4 0ebb 4584 3e3c 1d55 de3d 53bc 1d3e
00000010: 0292 1d3e 28a4 323e d83d 303e 27bf c53c
00000020: 3777 3d3d 6953 303e cd98 523b 48f4 343c
00000030: f72e 06bd e7f1 ff3b 3d9a 0f3e a6b0 acbc
00000040: a9ff 533d 0e31 053d eec9 9dbc 5fb5 97bd
00000050: 4686 263d b169 443d ff74 9b3b e35c c7bc
00000060: 810c 553e 6490 633d ebae 283e ca60 463d
00000070: 1d83 ff3d e55c 56bd 0163 de3c cc56 9f3d
00000080: e769 1c3d b18e 553d 84ae b4bd 1d92 ca3d
00000090: 879e 2c3e 7b00 fb3d 6a4a 1d3e 771a 0c3c
000000a0: 6d28 35bd d9cf 883c bf3a 303c b11c 3abd
000000b0: 9b25 1abb f700 bf3c 4d76 4cbd e314 e43c
000000c0: 9b55 223d f0cf 6a3c 49e9 fb3d 2425 833d
000000d0: 9ff5 633c 264a 25bd 99f8 e7b9 a2b0 273e
000000e0: 43c2 c03d 5ad7 4ebd 2f43 d33d 5562 b73b
000000f0: af9e b7bc f386 5d3d adeb 62bd 5401 8ebc
00000100: 0982 15bd 00f5 04be d3e2 a33d e39f b4bd
00000110: 0aa7 363d bc3b d6bd 6910 283d d9c4 ca3b
00000120: f8e4 35be da73 15bc 36cd 86bd 8d7f ce3a
00000130: 8834 0dbe ecfb 913c 1271 fa3c 81cb f3bc
00000140: ed39 59bd 69d0 85bd 0d2f ea3d 0d03 2fbd
00000150: 67d8 89bd 25dd b0bd d611 fdbd c087 9a3d
00000160: 09a7 033d 5737 313d 0403 e63c 0079 d9bd
00000170: 3fca b2bc e914 2fbd 1274 94bd b04b 03be
00000180: 4807 b1bd 4d89 26be f5bf 3b3d 95e0 503d
00000190: b2a7 b2bd b68c 883d 59c0 d53d 5d37 a6bd
000001a0: 4330 753c 6417 ae3d fcd7 fb3a 0f9d c93d
000001b0: 0715 3fbe 9ab7 e33b 3ae2 c7bd d637 c3bc
000001c0: 0c7c 103d 5b33 b83d 326e 543b fb67 82bc
000001d0: eead d2bd d776 9bbd 4444 f7bd 00ee a0bb
000001e0: a3da 2a3d c7b7 98bc b002 d53d 4c82 39bd
000001f0: a84d 363d 1ea5 32bd 0891 fe3c 0b67 c2bd
00000200: a65f 09be b71f d33d 0306 d43b 48bc bdbd
00000210: 386b 31bd 925e f53c 69e9 a53d 1aab d6bc
00000220: 706a 06bd 47fb 81bc 17f5 88bd fc93 ecbd
00000230: e19c 84bd 8d99 9b3c fbf0 a63c 1c46 963c
00000240: cd12 4f3c 747c 9b3d 7f8c 3e3d 15d0 0d3d
00000250: 76c1 6c3d 5d53 38bd 093c 69bd 1ace a9bd
00000260: e269 9abd e3c5 0bbd 5ec7 9abd e7a4 dd3b
00000270: 599a df3d b376 e8bc 103f d8bd c605 f63d
00000280: ad53 b7bd 490e 9539 700d de3d 11c4 68bc
00000290: c3d4 71bd 1729 a4bd 21e7 0e3e 3466 e6bc
000002a0: a9d1 94bd 88e4 c83d 97d7 313d 1324 37bd
000002b0: 59e8 82bc fef1 0e3e 7b80 543d 88b6 1dbd
000002c0: d355 e13d aa76 d9bd 196d 9f3d db85 b33b
000002d0: 6588 69bd 3df0 94bd 8cb4 b2bc 4806 923d
000002e0: 8dd5 8c3d 2cbc 093e 125c f0bc 816f 2abd
000002f0: 0089 f9bc 7153 e2bd b140 86bd 368c 1cbd
00000300: 7b9f 083e 2cf3 f43d a8a9 ddbd 2046 d83c
00000310: f1ce 0f3e 69b7 013e 16dc 003d ac84 be3d
00000320: c8b7 abbc e0ab 503e 3551 48bc 9b52 313e
00000330: 4545 3f3e 98d6 503e e893 173d b065 76bd
00000340: 03c9 223e b666 0a3c ea17 c1bc 9e84 6ebd
00000350: 0069 ad3d f239 363e 3448 d63d ccad eabc
00000360: 736b 0a3e 7045 b6bc a143 413d e402 06bd
00000370: ebbf 193e 0c2e f93d 97eb 2cbd 7bb7 823d
00000380: 3feb fb3b a25f 55bd a143 0c3e 4c88 193e
00000390: 4e18 39bd 91f7 1b3e 2b70 343d eef1 293e
000003a0: b430 213d 001e 27bd dfc9 ca3d 6e06 053e
000003b0: f983 98bd 9b99 09bd 1530 05bd 7f16 1d3e
000003c0: f989 323d 2f81 263e 5cd1 6f3b 5342 6bbd
000003d0: 0885 aa3c 70fe c3bd b7e6 053e 16b7 c63d
000003e0: 96d9 4e3d f2f4 dd3d c1d8 8d3d 660a 7b3c
000003f0: ce9c 69bc 2b81 0fbc 59a7 4a3d 02b6 afbd
