300750.sz_stock_model.pth (torch, 205359 bytes, 9 tensors)

rnn.weight_ih_l0 f4 [256, 1]
0.023580845 0.019817555 -0.04572766 0.25943354 0.22552177 0.17502654 0.024686875 0.13472936
0.11493667 0.21395668 0.11750401 0.08245502 0.110104024 0.18782543 0.033238955 0.18262048
0.027283035 0.2295388 0.12988691 0.12642613 0.116069205 0.18360972 0.1085182 0.22105575
0.11317004 0.05438127 -0.14481385 0.2120624 0.1940613 0.088352926 -0.017624898 0.21247983
0.07572188 0.05267421 0.09503748 0.17597798 0.20490587 0.19060186 -0.03941236 0.1339035
-0.007798328 0.1693576 0.015724484 0.10662812 -0.049780414 0.0069444645 0.19083518 0.14766674
0.008348126 -0.034153525 0.04210891 0.18873866 -0.005176032 0.024081428 0.23630416 0.09148988
0.16003285 0.14952335 0.12180951 0.046965584 0.101498626 0.21254328 0.08267459 0.022711163
-0.05971153 0.09930524 -0.18105157 0.0027314795 -0.013393718 0.07843854 -0.064430416 -0.002928936
-0.18244241 0.07858635 -0.020773312 0.09226078 -0.100026496 0.022620652 0.076092444 0.082841724
0.023066241 0.12747219 -0.23876669 0.05461974 0.091577075 -0.09303043 0.072926894 0.1337243
0.0024965138 0.03083764 0.017381284 -0.078442514 0.08754031 -0.07985893 -0.0017629397 0.20362063
0.06227306 -0.069152646 0.06357322 0.09456912 0.091663554 0.031688344 -0.09181281 -0.066537015
-0.17806712 0.024477115 -0.12247227 0.042086374 -0.17277236 -0.055659827 0.14679502 -0.032507356
0.105483405 -0.12395744 -0.084724486 0.17057312 0.16967462 0.011905817 0.026525717 0.0012361323
0.119104475 0.11041134 0.057818335 0.12086421 0.0056353942 -0.13884017 0.13728273 0.044764247
-0.21422301 -0.031786267 -0.16826488 -0.16873325 0.15286678 0.11656403 0.19970447 -0.16450626
0.1862783 -0.17385225 0.13869232 0.052565448 0.19976234 0.21609358 0.24182604 -0.24401505
0.04252259 0.12512505 0.20675737 0.22705662 0.15552668 0.17650767 -0.013771859 0.078907184
0.17124031 0.22352776 -0.1165565 -0.19419114 0.07025812 0.21667954 -0.12766124 -0.041803923
0.11966663 0.26264665 -0.15731551 -0.11553141 -0.096290104 -0.23853984 0.09322519 -0.23819916
0.23848477 -0.18856713 -0.048789408 -0.21391211 0.16460806 0.07274491 -0.17260534 -0.026574966
0.07252614 -0.17393915 -0.18348016 -0.049050365 -0.032275993 0.22144812 -0.099877894 -0.17196189
-0.235597 -0.07534221 -0.19238412 0.22907579 -0.14320578 0.19130227 0.1940693 -0.1195825
0.20176353 0.16552137 0.088372946 0.08470678 0.120557874 0.18892412 0.17966071 0.15573622
0.069130756 0.0691738 0.15849549 -0.032010257 0.16173539 0.19207662 0.15000087 0.23823318
0.15381223 0.23627093 0.11284949 0.09157983 0.19358006 0.10250435 0.035787188 0.09451858
0.16705818 0.07588356 0.051524296 0.20305957 0.20107122 0.14541693 0.046425786 0.24329832
0.07607714 0.057656273 0.23202571 0.09125287 0.17266437 0.07378095 0.07550619 0.056539174
-0.10354749 0.0322614 0.025779223 0.11699242 -0.18006362 0.13336529 0.2110515 0.057047844
-0.040582158 -0.06616688 0.052290518 -0.004163684 0.13726595 0.12828942 0.025582507 0.20004667
0.1048488 0.08106094 0.12973414 0.21670334 0.045265 0.2778597 0.06630025 0.06690001
00000000: 9e2c c13c 6d58 a23c ed4c 3bbd 79d4 843e
00000010: 2eef 663e 283a 333e 213c ca3c 7ef6 093e
00000020: eb63 eb3d 7617 5b3e f1a5 f03d 2dde a83d
00000030: 387e e13d 4f55 403e 9225 083d dd00 3b3e
00000040: ac80 df3c 380c 6b3e 1301 053e da75 013e
00000050: b1b5 ed3d 3004 3c3e ca3e de3d 705c 623e
00000060: b2c5 e73d e5be 5e3d 154a 14be e326 593e
00000070: 01b8 463e 61f2 b43d 1762 90bc 5094 593e
00000080: 1314 9b3d eac0 573d 03a3 c23d 9233 343e
00000090: d8d2 513e 222d 433e db6e 21bd 001e 093e
000000a0: 1e89 ffbb 146c 2d3e a2d0 803c d85f da3d
000000b0: 8ce6 4bbd 648e e33b 4c6a 433e f335 173e
000000c0: 94c6 083c 91e4 0bbd 647a 2c3d b544 413e
000000d0: b49b a9bb 6a46 c53c b8f9 713e 0c5f bb3d
000000e0: a7df 233e a61c 193e 4477 f93d fc5e 403d
000000f0: 83de cf3d f2a4 593e 4c51 a93d c30c ba3c
00000100: 1494 74bd 8c60 cb3d 9565 39be 9f02 333b
00000110: 5371 5bbc 63a4 a03d 18f4 83bd 64f3 3fbb
00000120: 2fd2 3abe e1f1 a03d cb2c aabc 38f3 bc3d
00000130: b1da ccbd f24e b93c 5bd6 9b3d eca8 a93d
00000140: 6af5 bc3c 1288 023e 417f 74be f3b8 5f3d
00000150: c38c bb3d bd86 bebd b25a 953d 06ef 083e
00000160: 8d9c 233b 389f fc3c 3263 8e3c 78a6 a0bd
00000170: 5648 b33d 148d a3bd 7112 e7ba ed81 503e
00000180: 0912 7f3d e79f 8dbd ad32 823d 74ad c13d
00000190: 1aba bb3d a3cb 013d 5b08 bcbd 8f44 88bd
000001a0: 3a57 36be 3b84 c83c bed2 fabd c362 2c3d
000001b0: 3deb 30be 8ffb 63bd 6f51 163e 6f26 05bd
000001c0: af07 d83d 66dd fdbd 0884 adbd b8aa 2e3e
000001d0: 2fbf 2d3e 9e10 433c 764c d93c b805 a23a
000001e0: 0ced f33d 571f e23d ebd2 6c3d a887 f73d
000001f0: 1da9 b83b 1e2c 0ebe d893 0c3e b75a 373d
00000200: 475d 5bbe 5132 02bd a14d 2cbe 69c8 2cbe
00000210: 1c89 1c3e 1fb9 ee3d 547f 4c3e 5474 28be
00000220: bdbf 3e3e 5306 32be 5c05 0e3e de4e 573d
00000230: 808e 4c3e a347 5d3e 3fa1 773e 15df 79be
00000240: 2b2c 2e3d c820 003e 34b8 533e 8881 683e
00000250: 6342 1f3e 6dbe 343e 5da3 61bc 179a a13d
00000260: 9f59 2f3e 76e4 643e 2db5 eebd 0bda 46be
00000270: 7de3 8f3d 3ee1 5d3e a1b9 02be 973a 2bbd
00000280: c713 f53d 9f79 863e 5117 21be bb9b ecbd
00000290: bf33 c5bd ca43 74be d9ec be3d 7bea 73be
000002a0: 5a35 743e be17 41be 67d7 47bd c70b 5bbe
000002b0: 048f 283e 49fb 943d 74bf 30be beb3 d9bc
000002c0: 9688 943d 1b1d 32be 39e2 3bbe 09e9 48bd
000002d0: d533 04bd 4cc3 623e c88c ccbd c716 30be
000002e0: 5740 71be 044d 9abd 5800 45be d892 6a3e
000002f0: 89a4 12be bee4 433e 1aba 463e abe7 f4bd
00000300: 199b 4e3e 6f7e 293e e0fc b43d c07a ad3d
00000310: 0ce7 f63d 5375 413e faf8 373e 5179 1f3e
00000320: 6d94 8d3d feaa 8d3d a44c 223e 301d 03bd
00000330: f69d 253e bcaf 443e d499 193e 66f3 733e
00000340: f480 1d3e 02f1 713e a21d e73d 358e bb3d
00000350: da39 463e cded d13d 9695 123d f592 c13d
00000360: 4d11 2b3e d768 9b3d 240b 533d d9ee 4f3e
00000370: 9de5 4d3e 2de8 143e f728 3e3d 3223 793e
00000380: 55ce 9b3d fc28 6c3d 2698 6d3e c9e2 ba3d
00000390: eece 303e 771a 973d fda2 9a3d 9f95 673d
000003a0: b510 d4bd 8824 043d f32e d33c b999 ef3d
000003b0: 9962 38be e990 083e e21d 583e 00ab 693d
000003c0: 7a39 26bd 8082 87bd 952e 563d 836f 88bb
000003d0: 728f 0c3e 4d5e 033e 6892 d13c 09d9 4c3e
000003e0: f8ba d63d 4703 a63d 07d9 043e 7be7 5d3e
000003f0: cb67 393d a043 8e3e 6dc8 873d df02 893d

rnn.weight_hh_l0 f4 [256, 64]
0.07468854 -0.09756073 -0.014621804 0.008450822 -0.05095002 0.05710924 -0.10093564 -0.030992439
0.13475293 0.13288635 -0.02405052 0.12049101 -0.073725395 0.066995956 -0.10652756 0.0470378
0.009681075 -0.023830073 0.11755937 -0.053561524 -0.04613157 0.0548208 0.120929986 0.08596614
0.0014933131 0.06596954 0.08330174 0.004235583 -0.04432369 -0.10044744 0.13188563 0.027439896
0.075483784 0.109351136 0.09238976 0.041871123 -0.025959512 0.12362636 -0.058666278 -0.017175537
-0.07110313 0.040746395 -0.12149603 -0.0043891845 -0.084656194 -0.06586752 0.11933335 -0.06211355
-0.08612545 0.04821755 -0.010004064 0.07208288 -0.03990621 0.016316004 0.046919554 0.123603255
-0.064245485 -0.06359383 0.06223117 0.11206734 -0.08772968 -0.053891946 0.112374924 0.07846187
-0.041381 0.08989115 -0.30911925 -0.05529835 -0.10390558 0.04564372 0.049795024 -0.053050432
0.314852 0.036504135 0.0054439064 0.058259513 0.2710425 -0.07221074 0.0075993463 -0.10918216
0.21495813 0.09904231 0.27123684 0.11620996 0.08182488 -0.10211859 0.058404647 -0.13361181
-0.041432865 -0.10152865 -0.036055658 -0.20695063 -0.004177083 -0.057768483 0.060807135 0.009037823
0.09041063 0.07811934 0.09844203 -0.07828662 0.019385774 -0.088622645 0.1559225 -0.3669927
0.21342655 -0.12767383 0.010271252 -0.10503787 0.21651517 0.020524472 0.1461031 -0.14628842
0.02750517 -0.15273789 0.030176556 -0.03501922 -0.1704297 -0.0039178804 0.10397228 0.08559719
-0.08169968 0.047497574 -0.09933664 0.05832244 -0.086613074 0.17848052 -0.026101526 0.05467769
0.001056676 -0.033434678 0.12297524 -0.038189452 0.09926047 0.014892366 0.15147969 -0.015222815
-0.15569839 -0.0045138826 -0.08048456 0.01869656 -0.13985176 0.11458283 -0.02556831 0.027835613
-0.16531576 -0.06721137 -0.028394861 -0.01301278 0.041578367 0.00023908759 -0.009708383 -0.061704017
0.087385416 -0.086286604 -0.0052322773 0.12631813 0.055380598 -0.08038046 -0.084402874 -0.08754011
0.12292053 0.010678762 0.021035874 -0.06823444 -0.1008217 0.06301896 -0.18162347 0.047332924
-0.11926448 0.0048872973 0.1409758 -0.18788318 0.04839024 0.012252723 -0.08790435 0.13909191
-0.06000021 0.15155199 0.008161113 -0.04357585 -0.0008670474 -0.06465099 -0.018816816 0.0078447955
-0.15165296 -0.0998189 -0.10748065 0.13000654 0.05051482 0.1247165 -0.0057661934 -0.06677628
-0.15908322 -0.041796938 0.14356473 -0.08591411 -0.020836325 0.03940103 0.056719217 -0.0047424263
-0.17991094 -0.08236515 -0.05197319 -0.11582837 0.034947123 0.07584647 -0.00937601 0.030036319
-0.13560423 0.12769704 -0.23726705 0.09254182 0.15231018 -0.025142284 -0.14470646 -0.021819161
0.09932246 0.1336459 0.04269555 0.055250105 -0.025753455 -0.082276 -0.15852733 -0.064202905
0.029801283 0.0221267 -0.08182483 0.05934356 -0.045955848 0.047442123 -0.20124128 0.15492399
-0.19056733 0.03975223 0.14966792 -0.11586955 -0.11502384 -0.14213412 -0.07634252 0.19139896
0.0010652002 0.12016487 -0.105026565 -0.13133611 0.1499327 -0.07294472 0.04454432 -0.022694342
-0.09710229 0.033701863 -0.029321907 -0.124971285 0.052881986 -0.12665561 -0.05896116 -0.11289686
00000000: 4ef6 983d eccd c7bd 4a90 6fbc 5175 0a3c
00000010: f8b0 50bd 61eb 693d 58b7 cebd dbe3 fdbc
00000020: acfc 093e 5c13 083e 9905 c5bc fec3 f63d
00000030: 57fd 96bd 2d35 893d 1f2b dabd b5aa 403d
00000040: 5f9d 1e3c 4937 c3bc f8c2 f03d 5463 5bbd
00000050: 75f4 3cbd c68b 603d 24aa f73d 040f b03d
00000060: 46bb c33a 0a1b 873d 1a9a aa3d a5ca 8a3b
00000070: c28c 35bd 63b7 cdbd 070d 073e a2c9 e03c
00000080: 3e97 9a3d 7df3 df3d d836 bd3d 0e81 2b3d
00000090: 0ba9 d4bc d12f fd3d 0d4c 70bd b6b3 8cbc
000000a0: 859e 91bd b1e5 263d e9d2 f8bd 26d3 8fbb
000000b0: 3a60 adbd 8de5 86bd 0b65 f43d c76a 7ebd
000000c0: 8a62 b0bd c47f 453d 16e8 23bc 30a0 933d
000000d0: b274 23bd 24a9 853c b82e 403d b423 fd3d
000000e0: 2393 83bd 7b3d 82bd 1ce6 7e3d 9083 e53d
000000f0: 9eab b3bd cdbd 5cbd d324 e63d 9eb0 a03d
00000100: 207f 29bd da18 b83d e144 9ebe 8680 62bd
00000110: 73cc d4bd e9f4 3a3d def5 4b3d 694b 59bd
00000120: 4834 a13e 5c85 153d cc62 b23b 87a1 6e3d
00000130: 15c6 8a3e 39e3 93bd f003 f93b e59a dfbd
00000140: fc1d 5c3e b2d6 ca3d 8edf 8a3e 7dff ed3d
00000150: cd93 a73d 8d23 d1bd b639 6f3d 89d1 08be
00000160: 82b5 29bd 41ee cfbd 19af 13bd deea 53be
00000170: e9df 88bb a59e 6cbd e710 793d 6113 143c
00000180: 3529 b93d 08fd 9f3d fa9b c93d bc54 a0bd
00000190: eace 9e3c ca7f b5bd 26aa 1f3e 78e6 bbbe
000001a0: 7d8c 5a3e eebc 02be c148 283c 181e d7bd
000001b0: 27b6 5d3e f022 a83c 0d9c 153e a2cc 15be
000001c0: 8652 e13c 5267 1cbe d334 f73c 5070 0fbd
000001d0: 2085 2ebe 9061 80bb 6bef d43d 944d af3d
000001e0: 2952 a7bd d18c 423d 0271 cbbd 83e3 6e3d
000001f0: 3262 b1bd 99c3 363e ded2 d5bc b7f5 5f3d
00000200: 2a80 8a3a cdf2 08bd 71da fb3d 8b6c 1cbd
00000210: 1349 cb3d 1cff 733c 7e1d 1b3e 1d69 79bc
00000220: 666f 1fbe 31e9 93bb 17d5 a4bd 8729 993c
00000230: 4d35 0fbe 67aa ea3d a274 d1bc 8307 e43c
00000240: 8948 29be 1da6 89bd 579c e8bc 8e33 55bc
00000250: 144e 2a3d 96b3 7a39 e90f 1fbc 5abd 7cbd
00000260: 20f7 b23d 08b7 b0bd 8673 abbb 8a59 013e
00000270: c4d6 623d 839e a4bd 6adb acbd 3b48 b3bd
00000280: c2bd fb3d f9f5 2e3c 6d53 ac3c 80be 8bbd
00000290: 9c7b cebd 1610 813d 81fb 39be 2be0 413d
000002a0: f040 f4bd 9f25 a03b f65b 103e 7364 40be
000002b0: d834 463d a5bf 483c 3207 b4bd 1c6e 0e3e
000002c0: c8c2 75bd 7230 1b3e 30b6 053c 977c 32bd
000002d0: 914a 63ba bd67 84bd b925 9abc 7587 003c
000002e0: ea4a 1bbe da6d ccbd d11e dcbd 6f20 053e
000002f0: a1e8 4e3d 5d6b ff3d 56f2 bcbb 01c2 88bd
00000300: b6e6 22be 4433 2bbd a202 133e bdf3 afbd
00000310: f1b0 aabc f962 213d 6952 683d 5b66 9bbb
00000320: 933a 38be 0faf a8bd d7e1 54bd 6d37 edbd
00000330: b724 0f3d 6555 9b3d d69d 19bc ba0e f63c
00000340: d6db 0abe 03c3 023e 22f6 72be 9186 bd3d
00000350: 33f7 1b3e 31f7 cdbc ee2d 14be 19be b2bc
00000360: 9369 cb3d 79da 083e 87e1 2e3d ef4d 623d
00000370: e9f8 d2bc 5280 a8bd fd54 22be d07c 83bd
00000380: d221 f43c 0e43 b53c c793 a7bd 3c12 733d
00000390: 333c 3cbd ac52 423d 3212 4ebe 65a4 1e3e
000003a0: 1524 43be 3cd3 223d 8c42 193e 044d edbd
000003b0: 9e91 ebbd 9b8b 11be 7859 9cbd 17fe 433e
000003c0: 309e 8b3a 0019 f63d 2b18 d7bd f97c 06be
000003d0: f587 193e 0b64 95bd 1b74 363d 7ce9 b9bc
000003e0: 91dd c6bd f70a 0a3d 7f34 f0bc f2f0 ffbd
000003f0: c89a 583d 02b2 01be 4281 71bd 7836 e7bd

rnn.bias_ih_l0 f4 [256]
-0.010569149 0.14350533 0.27570704 0.110737406 -0.029779356 0.12541625 0.049838744 -0.085551895
0.25444084 0.07748709 0.12984826 0.07657683 0.20606925 -0.012053899 0.27163112 0.22079931
0.12871294 -0.0486273 0.2130616 0.014742376 0.017984403 0.012245131 0.0061972584 0.11213241
0.012495272 -0.014314039 0.14111449 0.09182564 0.012749265 0.17051291 -0.055752672 -0.068498164
0.15583323 0.0597613 0.0047101257 0.06866788 0.052348636 0.03860473 0.032441217 0.20333591
0.145477 -0.03723233 0.14416747 0.21446759 -0.08200358 0.11106614 0.17038475 -0.086087085
-0.077417955 0.13444076 -0.07433954 -0.02449176 0.12283281 0.14239351 0.054425113 0.00020317946
-0.029133439 0.15137108 -0.083622135 0.08473557 0.048571233 0.075363584 0.11466916 0.020768257
0.027308052 -0.16203773 -0.13473219 -0.12646906 -0.06355355 0.027761446 -0.029986179 -0.11482378
-0.048984952 0.11507602 -0.046263892 -0.1658001 -0.04709793 -0.020772912 -0.13906704 -0.05743697
0.015636113 0.09980437 0.0018630445 -0.04914553 0.025827128 0.055158634 0.07419937 -0.10933834
0.05727009 -0.038654685 -0.077310935 0.09668333 -0.045989327 0.10071193 -0.0046384814 -0.010028407
-0.12700108 -0.029891193 -0.07865093 0.078493156 -0.049478844 -0.04188047 -0.062551245 0.042458605
0.12889123 -0.08868274 -0.064743675 -0.029013095 0.005660137 -0.17511247 0.026557915 -0.14783314
-0.059467077 -0.16368447 -0.041427463 0.031151911 -0.046089984 0.050452784 -0.052919697 -0.039197408
-0.056053653 -0.039263874 -0.04721721 0.017864184 0.0434344 -0.009829133 -0.039742872 -0.09604079
-0.108487144 -0.08856458 0.10837141 -0.043023463 -0.04438946 0.10605663 0.13207102 0.011954579
0.08016075 0.07769012 0.09591838 -0.0064430116 -0.11461185 0.13016808 -0.046481553 0.0952698
-0.12072631 0.023496227 -0.016696237 -0.017167812 0.075675175 0.08988093 -0.13336116 0.039229818
0.027202116 0.009243588 0.055286016 -0.05064965 0.11973372 0.0066534556 -0.081255436 -0.040672537
0.02457388 -0.037025318 -0.015356402 0.009628149 -0.12131779 -0.06774442 -0.07933323 0.11199382
-0.14371604 -0.07198885 0.14000969 -0.06592515 -0.09116659 -0.14355145 -0.102875195 0.14388753
-0.024888186 0.14055055 -0.03244473 0.014143695 0.02286103 0.10298932 0.036257632 -0.11161881
-0.06098072 -0.12567306 -0.045141995 0.07152034 -0.058377363 0.10509208 0.0986854 -0.07260682
-0.07962943 0.034798503 0.11937983 0.11457425 0.19831884 0.06674635 0.025718387 0.075884864
0.31210637 0.14152095 0.07632056 -0.09436232 0.19428654 0.06335778 0.2272867 0.18665041
0.09105573 0.14434645 0.1834456 0.24136686 -0.0014301677 -0.06314158 0.076138675 0.12708957
0.15308608 -0.046220187 0.087777846 0.20171496 0.05261029 0.05434201 -0.07217588 0.004155858
0.09894365 0.22931188 0.1272795 -0.05123798 0.12855199 0.06540221 0.04727327 0.17758963
0.05873714 0.13130334 0.009294565 0.2795969 -0.039819144 0.05428739 0.06727943 -0.0104486225
0.07008784 0.0044604526 0.111874074 0.019845823 0.087913156 0.012049767 -0.07737659 -0.0760465
0.015014084 0.15140723 0.06157859 0.09988029 0.1273257 0.17331073 -0.022408254 0.105971955
00000000: 392a 2dbc 10f3 123e 7929 8d3e 4bca e23d
00000010: d6f3 f3bc 1e6d 003e b623 4c3d d535 afbd
00000020: 1246 823e 8db1 9e3d f1f6 043e 50d4 9c3d
00000030: d103 533e b77d 45bc 3c13 8b3e 3719 623e
00000040: 53cd 033e 6b2d 47bd d22c 5a3e 028a 713c
00000050: 0754 933c cd9f 483c 5f12 cb3b ada5 e53d
00000060: f8b8 4c3c 6e85 6abc 5180 103e 150f bc3d
00000070: 4be2 503c f09a 2e3e ea5c 64bd c448 8cbd
00000080: bf92 1f3e 44c8 743d 6657 9a3b bfa1 8c3d
00000090: 866b 563d fe1f 1e3d 15e1 043d 4a37 503e
000000a0: ecf7 143e ed80 18bd a3a0 133e 649d 5b3e
000000b0: 7ef1 a7bd a576 e33d 5779 2e3e 6d4e b0bd
000000c0: 4e8d 9ebd d7aa 093e 543f 98bd f2a2 c8bc
000000d0: c58f fb3d 9bcf 113e deec 5e3d 920c 5539
000000e0: 40a9 eebc 0501 1b3e 1542 abbd d889 ad3d
000000f0: a1f2 463d 3958 9a3d aad7 ea3d 3122 aa3c
00000100: 23b5 df3c 38ed 25be 3cf7 09be 1b81 01be
00000110: 5d28 82bd f96b e33c 93a5 f5bc bb28 ebbd
00000120: 72a4 48bd faac eb3d 357f 3dbd 80c7 29be
00000130: c2e9 40bd f42b aabc 9767 0ebe 0743 6bbd
00000140: 4e17 803c 3c66 cc3d 6631 f43a d34c 49bd
00000150: 6a93 d33c 05ee 613d d7f5 973d c8ec dfbd
00000160: 0b94 6a3d 6054 1ebd 3255 9ebd e901 c63d
00000170: 4e5f 3cbd 0e42 ce3d 67fe 97bb 304e 24bc
00000180: 920c 02be 60de f4bc bd13 a1bd 05c1 a03d
00000190: 54aa 4abd db8a 2bbd de1a 80bd 13e9 2d3d
000001a0: 10fc 033e 4c9f b5bd 5598 84bd dfac edbc
000001b0: ac78 b93b af50 33be fc8f d93c 9261 17be
000001c0: c093 73bd e79c 27be d8af 29bd 4b32 ff3c
000001d0: dac8 3cbd 94a7 4e3d 53c2 58bd 768d 20bd
000001e0: 8498 65bd 28d3 20bd d566 41bd e957 923c
000001f0: 45e8 313d 5f0a 21bc 6cc9 22bd 09b1 c4bd
00000200: 822e debd 5961 b5bd d4f1 dd3d 5f39 30bd
00000210: b9d1 35bd 3834 d93d a03d 073e 23dd 433c
00000220: 522b a43d ff1b 9f3d db70 c43d e61f d3bb
00000230: 9eb9 eabd c84a 053e 7163 3ebd d01c c33d
00000240: 5b3f f7bd 297b c03c 8cc6 88bc 83a3 8cbc
00000250: 96fb 9a3d 7e13 b83d d48f 08be 72af 203d
00000260: f9d6 de3c 6b72 173c 9773 623d 0276 4fbd
00000270: f436 f53d 3b05 da3b 4069 a6bd 3f98 26bd
00000280: 294f c93c dca7 17bd 6b99 7bbc 62bf 1d3c
00000290: 7675 f8bd 96bd 8abd 7679 a2bd 045d e53d
000002a0: 4c2a 13be e46e 93bd b35e 0f3e c403 87bd
000002b0: 8db5 babd 27ff 12be 3bb0 d2bd 4157 133e
000002c0: 4fe2 cbbc 7cec 0f3e c4e4 04bd f5ba 673c
000002d0: 0e47 bb3c 11ec d23d e282 143d 6798 e4bd
000002e0: ebc6 79bd 70b0 00be d0e6 38bd 4279 923d
000002f0: 1a1d 6fbd 843a d73d 921b ca3d e2b2 94bd
00000300: c114 a3bd e088 0e3d 6a7d f43d e8a5 ea3d
00000310: 1814 4b3e 4fb2 883d 5eaf d23c 8669 9b3d
00000320: 68cc 9f3e deea 103e f44d 9c3d 0841 c1bd
00000330: 0df3 463e b9c1 813d d8bd 683e 4921 3f3e
00000340: 6d7b ba3d 8ecf 133e 2ad9 3b3e e028 773e
00000350: 7774 bbba 5f50 81bd 98ee 9b3d c523 023e
00000360: 99c2 1c3e 6151 3dbd dfc4 b33d 5e8e 4e3e
00000370: e37d 573d ba95 5e3d f3d0 93bd dd2d 883b
00000380: f8a2 ca3d bcd0 6a3e 8f55 023e ebde 51bd
00000390: 22a3 033e 98f1 853d 9ea1 413d 0eda 353e
000003a0: 5b96 703d 6274 063e 3b48 183c 5327 8f3e
000003b0: 6619 23bd 745c 5e3d ccc9 893d b330 2bbc
000003c0: 378a 8f3d fd28 923b 3c1e e53d b593 a23c
000003d0: d00b b43d 636c 453c 9e77 9ebd 44be 9bbd
000003e0: a2fd 753c 7f0a 1b3e d539 7c3d 0a8e cc3d
000003f0: ab61 023e 5e78 313e 8491 b7bc d307 d93d

rnn.bias_hh_l0 f4 [256]
0.055675603 0.049041137 0.19736797 0.13700667 0.020784544 -0.045502488 -0.04094364 0.13073938
0.16531613 0.1626996 -0.094347544 -0.0968553 0.21292485 0.027959678 0.09060018 0.10967715
-0.032738037 -0.021078672 0.28161657 0.07479907 -0.086162716 -0.027402198 -0.047486555 0.07139079
0.036243215 0.15399005 0.15203665 0.16897249 0.12596631 0.05842501 -0.0044863885 -0.044049196
0.1788763 0.09693874 -0.027294373 -0.05875895 -0.033234507 -0.009248136 0.030407794 0.35806638
0.08123622 -0.02826811 0.05546773 0.30720964 0.0021617322 0.06502199 0.084044136 -0.096281685
-0.06633208 0.04559605 -0.078103945 -0.07196066 -0.08181757 0.08596931 0.10938912 -0.08083646
0.043167014 0.12434715 0.14872694 -0.004479514 0.0068583693 0.2807691 0.1470203 0.10026726
-0.026932547 -0.18341963 0.0607925 -0.14930007 0.021438904 0.015664496 0.11271964 0.07591183
0.18959814 -0.07107392 -0.0986355 -0.16853186 0.06614897 0.023129992 -0.14066045 0.0044722836
-0.0289516 -0.09819995 0.00046073814 0.090704024 0.0024640372 -0.07014862 -0.102341734 0.017013706
0.06237401 0.03789544 -0.047792505 -0.08485691 0.0706143 -0.0014815639 -0.12222632 -0.048453208
-0.13285892 0.019724093 0.08552342 -0.021829503 -0.11711113 0.072367445 -0.13145366 0.08284342
0.059927166 -0.057291843 -0.10437271 0.048951756 0.001145931 -0.109874286 -0.12228093 0.004212768
-0.15189636 -0.09294965 0.023292312 0.03549171 -0.08390358 0.1087132 -0.1102739 0.06807427
0.006207933 -0.07277828 -0.04633668 0.07909003 -0.13668232 -0.101119205 -0.08673718 0.0416284
-0.03209879 -0.11785292 -0.06647982 0.035679653 0.09557852 0.006921275 -0.01406058 -0.0752614
-0.12285392 -0.0972287 0.09564977 -0.14335182 0.08479343 -0.044580176 0.047316656 -0.10911764
-0.032915276 0.06342387 -0.041806366 0.027630258 0.13507938 -0.03197318 -0.049375366 0.0878047
0.08625031 0.060198564 0.047632057 0.07177955 0.055230185 0.01291892 -0.03301164 -0.032015976
0.015569702 0.014405441 -0.12979476 -0.0667678 -0.007956524 0.03692127 -0.11519343 -0.048004527
0.02813342 0.06542908 0.06552846 0.06910856 -0.097948276 0.027604757 -0.042788062 0.12706807
-0.14668807 -0.06218839 -0.061210964 -0.09018009 0.13471276 -0.06688211 -0.11540204 -0.10044535
-0.00195126 0.005594593 0.0062609394 -0.04718993 -0.07246373 -0.107181534 0.13352323 -0.07348192
0.11553315 0.17258526 0.14755137 0.17922355 -0.039626118 0.14422536 0.102447145 0.1252254
0.18870935 0.17374766 0.14036478 -0.013766041 0.3924293 0.14261445 0.28316757 0.2264678
-0.03473191 -0.007917203 0.12028039 0.1232537 -0.052566778 0.14043535 0.054111246 0.12428493
-0.038834482 -0.020966163 0.10687049 0.17508228 -0.030593375 0.06732183 0.06705509 0.09925377
-0.04265776 0.1784152 0.09057621 0.11511775 -0.000735414 0.18768455 0.113746054 0.1990392
0.23608044 0.1501564 0.15644528 0.34230018 -0.078260355 0.054959342 0.13417098 -0.042535163
-0.061166093 -0.017389037 0.13895275 -0.06700925 -0.0303747 0.037950017 -0.012063445 0.11702493
0.2013688 0.06351519 0.11286712 -0.034490597 -0.074547775 0.29741192 -0.039617945 0.09836326
00000000: 1a0c 643d 5cdf 483d d41a 4a3e 7a4b 0c3e
00000010: 5944 aa3c d160 3abd 85b4 27bd 8be0 053e
00000020: a248 293e b99a 263e 4939 c1bd 125c c6bd
00000030: f908 5a3e b20b e53c 968c b93d 6a9e e03d
00000040: 5218 06bd 2ead acbc 0c30 903e 4130 993d
00000050: 1476 b0bd 937a e0bc 4381 42bd 5635 923d
00000060: c473 143d 91af 1d3e 7faf 1b3e 2007 2d3e
00000070: 50fd 003e 104f 6f3d 8e02 93bb ee6c 34bd
00000080: 592b 373e d187 c63d 7398 dfbc 3aad 70bd
00000090: e820 08bd 7e85 17bc c419 f93c 7a54 b73e
000000a0: 2d5f a63d 8692 e7bc 2132 633d 954a 9d3e
000000b0: d9ab 0d3b 402a 853d 551f ac3d 552f c5bd
000000c0: 1dd9 87bd ecc2 3a3d f6f4 9fbd 1c60 93bd
000000d0: f88f a7bd ad10 b03d 6707 e03d 968d a5bd
000000e0: e5cf 303d b8a9 fe3d e04b 183e e3c8 92bb
000000f0: 2cbc e03b f8c0 8f3e 7d8c 163e ec58 cd3d
00000100: a5a1 dcbc 5bd2 3bbe 8e01 793d 1ee2 18be
00000110: a4a0 af3c d452 803c 8ed9 e63d a977 9b3d
00000120: 0426 423e 348f 91bd 6901 cabd 9e93 2cbe
00000130: 1c79 873d 1c7b bd3c 4b09 10be 3c8c 923b
00000140: e82b edbc 0e1d c9bd 3a8f f139 08c3 b93d
00000150: af7b 213b 14aa 8fbd 8b98 d1bd 5460 8b3c
00000160: e47b 7f3d 4038 1b3d 13c2 43bd 76c9 adbd
00000170: 3b9e 903d 0931 c2ba cb51 fabd df76 46bd
00000180: 2b0c 08be 6c94 a13c e726 af3d c9d3 b2bc
00000190: f6d7 efbd 6235 943d ca9b 06be d0a9 a93d
000001a0: 3076 753d daaa 6abd 5cc1 d5bd a381 483d
000001b0: 1033 963a c505 e1bd 6d6e fabd 420b 8a3b
000001c0: b88a 1bbe 635c bebd 85cf be3c c15f 113d
000001d0: a4d5 abbd 07a5 de3d 48d7 e1bd 866a 8b3d
000001e0: eb6b cb3b c70c 95bd 88cb 3dbd f4f9 a13d
000001f0: 73f6 0bbe 9617 cfbd 43a3 b1bd 8b82 2a3d
00000200: 057a 03bd df5c f1bd 9226 88bd d424 123d
00000210: acbe c33d ddcb e23b 595e 66bc a622 9abd
00000220: d69a fbbd d71f c7bd 07e4 c33d d2ca 12be
00000230: 2ea8 ad3d b499 36bd 1ccf 413d 1279 dfbd
00000240: 2bd2 06bd 60e4 813d 273d 2bbd da58 e23c
00000250: 4052 0a3e 4ff6 02bd d33d 4abd f3d2 b33d
00000260: 01a4 b03d c592 763d d519 433d 2801 933d
00000270: 0c39 623d e1a9 533c 3737 07bd 2f23 03bd
00000280: 1018 7f3c cc04 6c3c ebe8 04be 8ebd 88bd
00000290: 155c 02bc c23a 173d 88ea ebbd 65a0 44bd
000002a0: 0f78 e63c aeff 853d c933 863d ca88 8d3d
000002b0: 1b99 c8bd 5f23 e23c 8942 2fbd 221e 023e
000002c0: 6635 16be 41b9 7ebd 59b8 7abd 57b0 b8bd
000002d0: 24f2 093e 7df9 88bd e857 ecbd 4bb6 cdbd
000002e0: 6cc1 ffba d952 b73b 9128 cd3b 3a4a 41bd
000002f0: dd67 94bd fe81 dbbd 50ba 083e b07d 96bd
00000300: a59c ec3d 31ba 303e b517 173e 6186 373e
00000310: ff4e 22bd d0af 133e cfcf d13d 163b 003e
00000320: 063d 413e e8ea 313e c9bb 0f3e f68a 61bc
00000330: 7eec c83e 8609 123e 57fb 903e 2de7 673e
00000340: 0c43 0ebd 28b7 01bc 9155 f63d 706c fc3d
00000350: 4350 57bd 49ce 0f3e c1a3 5d3d 1989 fe3d
00000360: e810 1fbd 3bc1 abbc eade da3d c548 333e
00000370: f59e fabc 07e0 893d 2e54 893d 9045 cb3d
00000380: e7b9 2ebd 79b2 363e 0580 b93d dbc2 eb3d
00000390: ccc8 40ba 6130 403e b1f3 e83d efd0 4b3e
000003a0: 12bf 713e 99c2 193e 3133 203e f841 af3e
000003b0: f746 a0bd 0c1d 613d 1e64 093e 5a39 2ebd
000003c0: 4c89 7abd 7473 8ebc a149 0e3e 253c 89bd
000003d0: 5dd4 f8bc 7a71 1b3d c1a5 45bc c4aa ef3d
000003e0: 9f33 4e3e 4014 823d e026 e73d 0346 0dbd
000003f0: 81ac 98bd 6046 983e 6d46 22bd ad72 c93d

rnn.weight_ih_l1 f4 [256, 64]
0.01441296 0.033589512 -0.04612146 -0.007162498 0.10179556 0.0044021984 0.18998 -0.17699172
-0.05235607 -0.17333168 0.035595212 -0.14682247 0.080950305 0.038944293 0.15410465 -0.1494609
-0.14891347 0.17945191 0.14926146 0.18439162 -0.031840745 0.22255945 -0.17939198 0.10764213
0.117747225 0.19220747 0.15152746 -0.008498367 0.07067643 0.11080562 -0.12670246 -0.1152455
0.03954305 0.19194444 -0.19183873 -0.044884987 -0.18902476 -0.11509922 -0.116031244 0.036337495
-0.072124325 -0.02405647 0.010081191 -0.06578736 -0.031999968 -0.0361899 0.032371737 0.09733596
0.0026994343 0.1539626 0.02108331 0.013835018 0.0448534 0.20120892 0.018763352 -0.19976448
-0.11843737 -0.046123646 -0.08925429 0.07308337 -0.11401339 0.2245538 0.079869896 -0.16382138
-0.031804193 -0.12850608 -0.28057536 -0.15787055 0.06800097 0.05261522 -0.017622551 -0.1776394
0.16367283 -0.05247378 0.04926554 0.08725766 0.081173584 -0.024960976 0.13780458 -0.09820758
0.09581411 0.0871181 0.11270795 0.15375033 -0.07350183 -0.01864399 -0.0023856806 0.11885245
0.1623161 0.073169746 -0.13754264 -0.23516357 -0.084693536 0.1676182 -0.0025837927 -0.14080289
0.06450137 0.21935079 -0.14695562 -0.022426454 0.070350595 -0.060118817 -0.020187974 -0.18782225
0.11183897 -0.051328152 0.08140375 -0.19746204 -0.059250873 -0.06208327 -0.017087935 0.08717761
0.050054107 -0.060255434 -0.123677954 0.08212329 -0.028443737 0.08557439 -0.040765367 -0.1148829
-0.026934527 0.08630624 -0.065690205 0.02925668 -0.0716381 0.039900277 0.0724797 0.01632901
-0.10007053 -0.08014999 -0.08584951 0.019591136 0.12986316 0.10958578 0.09339517 -0.030423256
0.054040767 -0.06557766 -0.06326912 0.006844001 0.1805262 0.105779186 0.067753896 -0.015762037
0.032379385 -0.05968449 0.11885823 0.060899694 -0.028024565 0.18521549 -0.026564289 0.09323895
-0.050092112 0.140671 -0.049016632 -0.03522278 -0.048421778 0.12957662 0.05427024 -0.022710428
0.057821248 0.09821264 -0.11133602 -0.02426557 -0.035789054 -0.060771216 -0.076070316 -0.13081028
0.10419269 0.04557728 0.11205198 -0.024467522 0.08647031 -0.06016078 -0.058737215 0.11979753
-0.02209576 -0.16752498 0.06754149 -0.14888255 -0.07575976 0.025050867 0.07603637 -0.0625058
-0.07876757 0.060166463 -0.012000763 0.014001383 -0.034180466 0.005856885 -0.017469957 0.06844523
0.09222995 -0.08701922 0.061471015 -0.17867696 -0.065498725 0.09332796 0.07345308 0.12739654
0.06137204 -0.086589396 0.0006448735 0.046688795 0.14280584 0.01635251 0.14587976 -0.14751568
-0.03499888 -0.07633939 -0.09143703 0.093314 -0.03348936 -0.08052969 -0.105577014 0.08739199
-0.103970386 0.08741531 -0.08141826 -0.09765501 -0.019985113 -0.057072386 0.07746159 -0.006002199
0.105137855 0.09314032 0.11091032 -0.034819845 0.052596733 0.063943304 0.01525306 0.017729873
-0.044449802 -0.0136406245 0.12250834 -0.03669272 -0.11584201 0.10280171 0.004704009 -0.0037117698
-0.0057954793 -0.07895581 0.05444343 -0.044745345 0.05816021 0.10118282 -0.07678671 0.08174128
0.037981857 0.019399542 0.09550194 -0.0737881 0.03516653 0.06417545 0.0981388 -0.020374967
00000000: 5624 6c3c 2895 093d dbe9 3cbd 63b3 eabb
00000010: 317a d03d 5140 903b 1e8a 423e 513d 35be
00000020: 5273 56bd dc7d 31be 49cc 113d a158 16be
00000030: 46c9 a53d 0d84 1f3d 9ccd 1d3e 470c 19be
00000040: c67c 18be 3ec2 373e ffd7 183e 28d1 3c3e
00000050: 716b 02bd a0e6 633e 88b2 37be 7a73 dc3d
00000060: 7525 f13d 09d2 443e 042a 1b3e bc3c 0bbc
00000070: cebe 903d 0fee e23d 4abe 01be d505 ecbd
00000080: e5f7 213d 158d 443e 5f71 44be 52d9 37bd
00000090: b58f 41be 24b9 ebbd caa1 edbd a0d6 143d
000000a0: ebb5 93bd 1312 c5bc 942b 253c 86bb 86bd
000000b0: 6612 03bd dc3b 14bd 3a98 043d 1358 c73d
000000c0: fee8 303b 5fa8 1d3e e8b6 ac3c 45ac 623c
000000d0: 33b8 373d b609 4e3e 9ab5 993c 0f8f 4cbe
000000e0: 4b8f f2bd 26ec 3cbd f4ca b6bd bcac 953d
000000f0: da7f e9bd 6ef1 653e d492 a33d cbc0 27be
00000100: 1d45 02bd 1997 03be 93a7 8fbe d1a8 21be
00000110: 1844 8b3d 0f83 573d 2b5d 90bc 1ae7 35be
00000120: da99 273e bfee 56bd aaca 493d 25b4 b23d
00000130: 563e a63d f67a ccbc a51c 0d3e 0e21 c9bd
00000140: 303a c43d f96a b23d 6dd3 e63d ba70 1d3e
00000150: 2188 96bd 48bb 98bc 1459 1cbb ea68 f33d
00000160: 3136 263e 05da 953d fad7 0cbe b8ce 70be
00000170: ce73 adbd 1ba4 2b3e d954 29bb a22e 10be
00000180: 4b19 843d 7e9d 603e 897b 16be afb7 b7bc
00000190: f913 903d 263f 76bd 4061 a5bc 7a54 40be
000001a0: d40b e53d 783d 52bd 02b7 a63d 7d33 4abe
000001b0: 0bb1 72bd 074b 7ebd fffb 8bbc 2d8a b23d
000001c0: 8905 4d3d 67ce 76bd de4a fdbd 4130 a83d
000001d0: d702 e9bc a041 af3d 96f9 26bd ba47 ebbd
000001e0: cca5 dcbc 53c1 b03d 9688 86bd b4ab ef3c
000001f0: ffb6 92bd 796e 233d 3d70 943d 6ac4 853c
00000200: c7f1 ccbd ae25 a4bd ded1 afbd 977d a03c
00000210: d9fa 043e 826e e03d f845 bf3d 313a f9bc
00000220: da59 5d3d 954d 86bd 3e93 81bd a443 e03b
00000230: dcdb 383e c2a2 d83d 8ec2 8a3d 631f 81bc
00000240: 3fa0 043d b977 74bd f26b f33d f571 793d
00000250: c693 e5bc 21a9 3d3e 5a9d d9bc 10f4 be3d
00000260: 632d 4dbd 0f0c 103e aac5 48bd c345 10bd
00000270: ea55 46bd bcaf 043e 794a 5e3d 380b babc
00000280: f9d5 6c3d b523 c93d 2404 e4bd 97c8 c6bc
00000290: 8b97 12bd 3deb 78bd c1ca 9bbd 21f3 05be
000002a0: fa62 d53d 3eaf 3a3d 827b e53d 1d70 c8bc
000002b0: 5917 b13d 266b 76bd 6f96 70bd 6858 f53d
000002c0: 2b02 b5bc ab8b 2bbe 3153 8a3d ab74 18be
000002d0: ef27 9bbd 7a37 cd3c f5b8 9b3d 0a03 80bd
000002e0: e450 a1bd 1c71 763d d99e 44bc 0f66 653c
000002f0: d100 0cbd 1deb bf3b 281d 8fbc 032d 8c3d
00000300: 0ee3 bc3d 2237 b2bd 08c9 7b3d 18f7 36be
00000310: 3224 86bd bb22 bf3d 926e 963d 3d74 023e
00000320: 4061 7b3d c855 b1bd ba0c 293a c03c 3f3d
00000330: b23b 123e b3f5 853c 8161 153e 5a0e 17be
00000340: fc5a 0fbd d357 9cbd 5643 bbbd 691b bf3d
00000350: 242c 09bd c0ec a4bd c338 d8bd 92fa b23d
00000360: 6dee d4bd cc06 b33d 9ebe a6bd 5aff c7bd
00000370: d2b7 a3bc bcc4 69bd 2fa4 9e3d 18ae c4bb
00000380: 8452 d73d 5ac0 be3d f324 e33d 419f 0ebd
00000390: ac6f 573d b5f4 823d f8e7 793c 3d3e 913c
000003a0: ff10 36bd ed7c 5fbc a7e5 fa3d 1b4b 16bd
000003b0: 933e edbd b489 d23d 1624 9a3b 2a41 73bb
000003c0: 01e8 bdbb 95b3 a1bd 1300 5f3d e546 37bd
000003d0: 6639 6e3d f038 cf3d 5a42 9dbd f967 a73d
000003e0: dd92 1b3d caeb 9e3c 8596 c33d 371e 97bd
000003f0: c80a 103d 6b6e 833d fffc c83d 67e9 a6bc

rnn.weight_hh_l1 f4 [256, 64]
-0.023998594 -0.1071184 -0.08356904 0.15191154 0.03683874 -0.08740708 0.14045106 0.0017442395
-0.042859804 0.08965076 0.11274789 0.0026899083 0.073107556 0.08392583 0.0843297 0.13627088
0.032062534 0.041521084 0.024503032 0.055371474 -0.008674814 0.029010355 -0.07251255 0.06999699
-0.057212934 -0.06660591 0.08197714 0.072969235 0.091723695 0.039564837 -0.06250552 -0.007148703
0.17061122 -0.043373387 -0.025929982 0.06251021 -0.021194411 -0.11818097 -0.010974286 -0.074496955
-0.058405373 0.02470816 -0.018487008 0.15300179 -0.1000764 0.018526027 0.06431681 0.006374904
-0.08193803 0.060504157 -0.06183709 0.014186736 0.043635793 0.098975055 0.18598221 -0.16954967
0.1055668 -0.0055658235 0.01443288 0.05892893 0.009878593 -0.022150446 0.00224345 -0.08600927
0.015382858 -0.062264808 0.01550121 -0.010043836 -0.087037414 -0.014657792 0.02299365 0.025365936
0.06500093 0.058899175 0.013816988 0.08293312 0.07855459 -0.052264307 0.072295144 -0.049733024
0.0635828 0.03712436 0.026571538 -0.09084207 0.043841213 -0.034888297 0.053143628 0.005141405
-0.06290726 -0.016688589 0.13030349 0.03569413 0.052389883 0.010174577 -0.04058896 0.008870822
0.01716213 -0.059527703 -0.021557791 -0.054256238 -0.12257162 0.018556612 -0.05630545 0.056170616
-0.047456462 0.097492404 0.1179304 -0.0629841 -0.11357421 0.0017635282 -0.014231834 0.017866816
0.08373842 -0.06941242 0.0011934162 -0.096672766 0.11537936 -0.0728349 -0.08504112 0.01007837
0.0060978583 -0.11497902 -0.09650059 0.08093423 0.036518056 0.016154606 -0.059951752 0.010542968
-0.0010062039 0.09545344 0.04412254 -0.07560466 0.015709875 0.09645775 -0.05457914 -0.07682092
-0.11471404 0.059329122 0.044223312 -0.062060557 0.056636192 0.006167255 -0.03423793 0.01863476
0.04115753 -0.06726225 -0.0076303896 -0.0975231 -0.09353126 -0.029056018 -0.009197561 0.028550325
0.052374724 -0.0052372487 -0.071851276 -0.019016908 0.03234924 0.0807897 0.07757105 -0.08938791
0.12252023 -0.10313212 -0.023451753 0.116370074 0.026478048 -0.04951878 0.085784845 0.015143824
0.040600695 0.049258344 -0.037404697 0.039313238 0.10194882 0.025546059 0.07895103 0.117328495
0.048986252 -0.062205132 -0.12621121 0.09197348 0.09767413 -0.0838603 -0.037447095 -0.038473625
-0.070632905 0.041895308 0.09106701 -0.11188651 -0.07396941 -0.10997972 -0.0039413953 0.030015629
0.12418241 -0.11536043 0.03880965 -0.0427631 0.06775939 -0.046555948 -0.12655464 0.109599814
-0.08846778 -0.1799671 -0.02830553 -0.008063646 0.01772473 0.01033489 0.06980571 -0.13694309
-0.04775398 0.14180936 -0.0707069 -0.0012628039 0.12561809 0.062078487 -0.035021506 0.094769195
0.10075462 -0.13316293 -0.00961272 -0.09413508 -0.055558592 -0.19036172 0.12481663 0.015253919
-0.12281046 -0.03324461 -0.019191446 -0.119728155 0.03705698 0.093833625 0.12839605 -0.105360135
-0.029150987 0.0026195492 -0.06966801 -0.13059133 0.16175976 -0.14892972 0.080039494 0.003672031
0.13435194 -0.031502638 0.053196948 0.0366544 -0.049077068 -0.09222616 -0.07007823 0.12058522
-0.026674064 -0.011339944 0.0017066032 0.08072193 -0.103087224 0.1758738 0.060241077 -0.06603764
00000000: b398 c4bc e460 dbbd 3f26 abbd b38e 1b3e
00000010: 38e4 163d 7c02 b3bd 67d2 0f3e f79e e43a
00000020: c38d 2fbd d19a b73d 5ee8 e63d 2c49 303b
00000030: 6ab9 953d 4ee1 ab3d 0db5 ac3d 988a 0b3e
00000040: 0154 033d 0312 2a3d 95ba c83c 33cd 623d
00000050: cf20 0ebc 20a7 ed3c 7681 94bd 955a 8f3d
00000060: 1c58 6abd ae68 88bd a1e3 a73d e570 953d
00000070: a2d9 bb3d bd0e 223d e502 80bd ab3f eabb
00000080: b5b4 2e3e 4ba8 31bd 1d6b d4bc 5a05 803d
00000090: e79f adbc dd08 f2bd 7ecd 33bc dc91 98bd
000000a0: 793a 6fbd c468 ca3c 1172 97bc 80ac 1c3e
000000b0: dbf4 ccbd e5c3 973c 88b8 833d 92e4 d03b
000000c0: 20cf a7bd 35d3 773d e348 7dbd 7c6f 683c
000000d0: 72bb 323d 6fb3 ca3d 1f72 3e3e 6e9e 2dbe
000000e0: 6833 d83d 8361 b6bb e377 6c3c 765f 713d
000000f0: d2d9 213c da74 b5bc d806 133b a125 b0bd
00000100: 6208 7c3c 6209 7fbd c9f8 7d3c e78e 24bc
00000110: ac40 b2bd 3c27 70bc 2e5d bc3c 39cc cf3c
00000120: 351f 853d 4340 713d a660 623c d7d8 a93d
00000130: 3be1 a03d 1913 56bd 7a0f 943d dbb4 4bbd
00000140: b337 823d b70f 183d 8eac d93c 680b babd
00000150: d892 333d 08e7 0ebd 22ad 593d 3b79 a83b
00000160: 86d5 80bd 82b6 88bc 476e 053e 0234 123d
00000170: c696 563d 45b3 263c 9c40 26bd ed56 113c
00000180: 9897 8c3c 52d3 73bd f799 b0bc ca3b 5ebd
00000190: d406 fbbd 0904 983c 8ba0 66bd 2913 663d
000001a0: b561 42bd 19aa c73d 7e85 f13d cffd 80bd
000001b0: 9899 e8bd 3026 e73a a32c 69bc 6e5d 923c
000001c0: 0c7f ab3d 1928 8ebd 676c 9c3a 5ffc c5bd
000001d0: 044c ec3d 772a 95bd 0a2a aebd bf1f 253c
000001e0: 8bd0 c73b 1f7a ebbd 1aa2 c5bd d8c0 a53d
000001f0: f593 153d aa56 843c f88f 75bd 6abc 2c3c
00000200: 9ae2 83ba 187d c33d d6b9 343d 9ed6 9abd
00000210: ffb1 803c a48b c53d 608e 5fbd 4954 9dbd
00000220: 32ef eabd 1803 733d 8123 353d 3633 7ebd
00000230: 5afb 673d af16 ca3b 123d 0cbd eda7 983c
00000240: cc94 283d cac0 89bd 5908 fabb 31ba c7bd
00000250: 518d bfbd e306 eebc 5eb1 16bc 5fe2 e93c
00000260: e186 563d 3a9d abbb c326 93bd 59c9 9bbc
00000270: a380 043d 1275 a53d 92dd 9e3d 0211 b7bd
00000280: e3eb fa3d ef36 d3bd e41d c0bc 6f53 ee3d
00000290: 7ee8 d83c 34d4 4abd f7af af3d cd1d 783c
000002a0: ea4c 263d 1ec3 493d ab35 19bd eb06 213d
000002b0: 8bca d03d f845 d13c 14b1 a13d ec49 f03d
000002c0: cfa5 483d cfca 7ebd 833d 01be 985c bc3d
000002d0: 6009 c83d f3be abbd 2062 19bd 8596 1dbd
000002e0: fca7 90bd 6a9a 2b3d 5781 ba3d c124 e5bd
000002f0: 467d 97bd 0c3d e1bd d226 81bb 56e3 f53c
00000300: 5953 fe3d 1742 ecbd def6 1e3d 5c28 2fbd
00000310: 6fc5 8a3d 73b1 3ebd 8a97 01be de75 e03d
00000320: 982e b5bd 4c49 38be 00e1 e7bc 621d 04bc
00000330: 7433 913c ac53 293c 4cf6 8e3d cf3a 0cbe
00000340: ad99 43bd 7936 113e c7ce 90bd ab84 a5ba
00000350: 07a2 003e 0346 7e3d b672 0fbd 5a16 c23d
00000360: 7058 ce3d dd5b 08be ac7e 1dbc e5c9 c0bd
00000370: 6891 63bd 2fee 42be dc9f ff3d 93eb 793c
00000380: 0d84 fbbd 802b 08bd 6137 9dbc 0934 f5bd
00000390: 0fc9 173d d82b c03d 417a 033e 0ec7 d7bd
000003a0: 0dce eebc beac 2b3b 1aae 8ebd bcb9 05be
000003b0: 5aa4 253e 0881 18be bfeb a33d 75a6 703b
000003c0: 8e93 093e e908 01bd 0be5 593d ed22 163d
000003d0: 0905 49bd 12e1 bcbd 2d85 8fbd 62f5 f63d
000003e0: 9183 dabc 2ccb 39bc 1ab0 df3a 8a51 a53d
000003f0: 651f d3bd 4318 343e 59bf 763d be3e 87bd

rnn.bias_ih_l1 f4 [256]
0.03780054 0.13026415 -0.065916546 0.083341435 0.0200862 -0.062784314 0.15240954 -0.007705876
0.08874015 -0.027150512 -0.07545948 -0.07682596 0.0074941455 0.031138971 0.04039127 0.10901823
-0.022097757 0.1414966 0.13815066 0.116472274 0.021808766 0.043578476 0.019534687 0.092439815
0.099965766 0.019689819 0.07897555 -0.0019492148 -0.05805639 0.03243625 0.12702018 0.10874167
0.3180188 -0.052126016 0.01882258 0.09237243 -0.09443154 0.058414735 -0.058546863 -0.016546506
0.04741099 -0.0077658244 0.11315238 0.119253896 0.017372148 0.08662186 -0.0043537016 0.14422724
0.11742712 0.050983276 0.011086548 0.065927215 0.0522048 -0.03215056 -0.07426444 -0.046688788
0.028497241 -0.029928844 -0.0748087 -0.10295063 0.022070134 0.13585056 0.12941128 0.025404496
0.0268375 0.061140675 -0.0909606 -0.091735475 -0.089937694 -0.00015594259 0.054159142 0.024362152
0.010641344 0.05695177 -0.030507514 0.046484083 -0.023512248 -0.1161861 -0.061157864 -0.16906448
0.115180224 -0.07431809 -0.031417087 0.101709396 -0.11599463 0.03237605 -0.082227826 0.05188956
0.09965146 -0.09783116 -0.14172955 0.019509874 0.01452337 -0.06495664 -0.06323125 -0.037934586
-0.13513967 0.063167244 0.015426878 -0.05287614 -0.09311841 -0.06514186 -0.06828775 0.08151337
0.01204057 -0.06315475 0.07059298 0.07122291 -0.08742322 0.0038001842 0.0024895978 -0.08839683
-0.012748723 0.04407729 0.007305864 -0.12338102 0.033542145 0.101193726 -0.1113013 -0.0027956082
-0.023093427 0.024648597 -0.003193462 -0.10994605 0.058497444 0.0958146 0.037589803 -0.08459909
-0.0854693 0.07767276 0.13617915 -0.06795415 0.06321143 0.005305545 0.00035647812 0.035441454
0.0003587187 0.020662114 0.1145868 0.0512063 -0.06122332 0.027576346 -0.13790002 -0.04439536
-0.04883418 0.07394902 -0.044681318 0.00998671 -0.11019153 -0.07165025 0.084885426 0.049232278
-0.079331025 0.104455754 0.073562965 0.00035869936 0.086494945 0.12805012 0.002683321 0.012620529
0.0029577026 0.059941255 -0.026555637 0.040890083 0.10798917 0.10095765 -0.049250156 -0.019051876
0.1371037 -0.14374173 -0.07575961 0.096504085 0.042016637 -0.040602095 0.043818474 0.12702365
0.08828167 0.04850892 -0.05900353 0.10316388 0.026155017 0.069932766 0.09603103 -0.07203333
-0.0065839197 -0.0489358 -0.071348146 -0.029195353 0.045520335 0.024293615 0.09739296 -0.08564951
0.009521471 0.026023874 -0.045544326 0.067192286 0.019046737 0.020444753 0.069841854 -0.024212115
-0.08030619 0.01470825 0.11532967 -0.11136953 0.1779066 0.049486212 0.11307728 -0.015921904
0.010956394 0.016821945 0.02508192 0.03576806 0.06838435 0.057742104 0.030730302 -0.030973854
0.12223754 0.14738524 -0.10099248 -0.0030771368 0.024802564 0.01633009 -0.03958524 0.0205151
0.14951609 -0.075486474 -0.071465276 0.033537798 -0.05624733 -0.045614913 -0.031559464 0.06260904
0.032700464 0.0004193461 0.096832745 -0.0067272205 0.12504226 0.12704848 0.039101012 0.049897224
0.16129424 0.12593287 -0.026664428 0.12826169 0.11483618 0.058638617 -0.11124078 -0.0715855
0.016980765 -0.019001652 -0.111349255 0.015739435 -0.0070656794 -0.016602986 -0.033792876 -0.05021857
00000000: bdd4 1a3d f763 053e 41ff 86bd eaae aa3d
00000010: d18b a43c 1095 80bd 3f11 1c3e 9381 fcbb
00000020: 65bd b53d c06a debc 808a 9abd ee56 9dbd
00000030: 7391 f53b 2817 ff3c 5171 253d f344 df3d
00000040: 5b06 b5bc 7ce4 103e 5e77 0d3e 0489 ee3d
00000050: 4ca8 b23c 587f 323d 3507 a03c 1651 bd3d
00000060: daba cc3d 8b4c a13c efbd a13d cc7c ffba
00000070: 8acc 6dbd e0db 043d 9411 023e f4b3 de3d
00000080: 5cd3 a23e 1782 55bd d031 9a3c c22d bd3d
00000090: 5365 c1bd 4a44 6f3d d6ce 6fbd 8a8c 87bc
000000a0: 0732 423d 7578 febb 6fbc e73d 633b f43d
000000b0: 0950 8e3c cd66 b13d 7fa9 8ebb 4eb0 133e
000000c0: a17d f03d d7d3 503d 5aa4 353c d904 873d
000000d0: b3d4 553d 4eb0 03bd f417 98bd be3c 3fbd
000000e0: 0c73 e93c 562d f5bc 4e35 99bd c8d7 d2bd
000000f0: 6dcc b43c 691c 0b3e 6484 043e 171d d03c
00000100: 51da db3c a56e 7a3d 8d49 babd cfdf bbbd
00000110: 4131 b8bd 8584 23b9 fad5 5d3d 2393 c73c
00000120: 0859 2e3c 4246 693d e5ea f9bc 1866 3e3d
00000130: c29c c0bc faf2 edbd ab80 7abd 3d1f 2dbe
00000140: 9ce3 eb3d 1534 98bd 34af 00bd 044d d03d
00000150: 988e edbd c09c 043d 1067 a8bd 268a 543d
00000160: 1116 cc3d b45b c8bd 8d21 11be 2cd3 9f3c
00000170: 6ef3 6d3c fd07 85bd 637f 81bd 4c61 1bbd
00000180: 0e62 0abe d45d 813d 04c1 7c3c a794 58bd
00000190: ddb4 bebd 1869 85bd 73da 8bbd 7bf0 a63d
000001a0: d045 453c 4757 81bd 0d93 903d 51dd 913d
000001b0: f20a b3bd 830c 793b 8528 233b 6609 b5bd
000001c0: 05e0 50bc 638a 343d 0766 ef3b 30af fcbd
000001d0: 7d63 093d a83e cf3d f0f1 e3bd 8636 37bb
000001e0: 6d2e bdbc dbeb c93c 6749 51bb 652b e1bd
000001f0: 049b 6f3d 723a c43d c4f7 193d 4a42 adbd
00000200: 870a afbd e512 9f3d 8c72 0b3e 8c2b 8bbd
00000210: ff74 813d 23da ad3b afe5 ba39 0f2b 113d
00000220: 6912 bc39 9843 a93c 7cac ea3d b2bd 513d
00000230: 4ec5 7abd cae7 e13c aa35 0dbe e9d7 35bd
00000240: 5906 48bd 9572 973d c203 37bd 4c9f 233c
00000250: 19ac e1bd 5ebd 92bd 69d8 ad3d c9a7 493d
00000260: 4e78 a2bd e6ec d53d 2ea8 963d d00f bc39
00000270: 4324 b13d 921f 033e a8da 2f3b 56c6 4e3c
00000280: 04d6 413b f684 753d 358b d9bc 5c7c 273d
00000290: 6d29 dd3d e2c2 ce3d 88ba 49bd ae12 9cbc
000002a0: ea64 0c3e 0831 13be db27 9bbd efa3 c53d
000002b0: a319 2c3d 624e 26bd 007b 333d 7d12 023e
000002c0: 05cd b43d 4ab1 463d afad 71bd 9647 d33d
000002d0: 0c43 d63c e938 8f3d ebab c43d 3686 93bd
000002e0: ecbd d7bb e870 48bd fa1e 92bd 182b efbc
000002f0: 8873 3a3d 6703 c73c f675 c73d 0369 afbd
00000300: f2ff 1b3c 0530 d53c b08c 3abd 1c9c 893d
00000310: e707 9c3c c17b a73c 3f09 8f3d 7c58 c6bc
00000320: 9277 a4bd dffa 703c f631 ec3d b515 e4bd
00000330: 262d 363e 0eb2 4a3d 1095 e73d a76e 82bc
00000340: 7282 333c 2dce 893c 9978 cd3c 8781 123d
00000350: 180d 8c3d fc82 6c3d 1dbe fb3c e1bc fdbc
00000360: ad57 fa3d 28ec 163e 25d5 cebd caa9 49bb
00000370: bf2e cb3c aec6 853c 2224 22bd 480f a83c
00000380: bf1a 193e a798 9abd 635c 92bd ee5e 093d
00000390: 9a63 66bd b4d6 3abd 7f44 01bd 2b39 803d
000003a0: ecf0 053d aedb db39 3f50 c63d 0470 dcbb
000003b0: 140b 003e ff18 023e 6228 203d 0861 4c3d
000003c0: 512a 253e 8cf4 003e 5c6f dabc 0857 033e
000003d0: 3b2f eb3d 0c2f 703d 35d2 e3bd 6b9b 92bd
000003e0: 3f1b 8b3c 5aa9 9bbc 140b e4bd fdef 803c
000003f0: 3787 e7bb fc02 88bc 666a 0abd fdb1 4dbd

rnn.bias_hh_l1 f4 [256]
0.16467395 -0.007928912 -0.021356164 0.07120345 -0.044772454 0.088660225 0.15980473 -0.044794396
0.11442841 0.06855325 0.15810336 -0.018120732 0.05833652 0.077678084 0.12203599 0.18781684
0.06019782 0.006019484 0.0116522405 0.16065805 0.12125111 0.08800766 0.16873038 -0.035823934
0.10717538 -0.07016223 -0.09853477 0.06710754 -0.09085576 0.20641287 0.11470926 0.12747075
0.23840767 -0.061244175 -0.021828122 -0.031797875 0.06807301 0.09491763 0.060001988 -0.030976295
0.10061177 0.05566181 -0.0678604 -0.023840513 0.07341169 -0.078308254 0.104199395 0.1464021
0.14283995 0.055557903 0.15536149 -0.02299038 0.088436805 0.10998329 0.02407926 0.16065888
0.09567841 0.06659173 0.09186666 0.106012344 0.13302308 0.14968869 -0.013402125 0.104718484
-0.00690077 -0.07091031 -0.091372766 0.049099218 -0.016214151 -0.09072622 -0.09354153 -0.11488015
0.009941301 -0.054031402 -0.09645938 -0.12926884 0.011780866 0.097733736 -0.115295984 -0.14783463
0.011714994 0.0062175235 0.03570353 -0.10977505 -0.107629046 0.095412046 -0.1171256 0.115884624
0.048924226 -0.09707126 -0.0011322612 -0.047875345 0.018276514 -0.09604595 -0.12735939 -0.13716236
-0.02984153 -0.13424268 -0.01577261 -0.06413039 -0.06084787 0.09170693 -0.13007951 0.039657008
-0.03277146 -0.148785 0.01543569 0.048358746 -0.090245694 -0.088271566 0.013352482 0.11854828
0.048601884 -0.111316 0.008546475 -0.07322545 -0.015100865 0.009841759 -0.14121075 -0.060622036
-0.059611984 0.09384153 -0.071080886 0.019215109 -0.108488955 -0.13737339 -0.08529523 -0.11381492
0.03859905 0.094786905 -0.019706337 0.08294733 -0.0896215 0.036402605 -0.001515047 0.038670447
-0.10466774 0.09742459 -0.02046702 -0.09337801 0.06559995 0.050045576 -0.1350964 0.001986651
0.084810466 -0.06330175 -0.1027483 0.017147938 -0.06093959 -0.01356119 -0.020773515 -0.13756278
-0.06890163 0.048318136 -0.007601026 -0.10660662 -0.0039273193 -0.09445998 0.053749505 -0.026029604
0.010115427 -0.046393063 0.056648847 0.08410074 0.10993535 -0.028748525 -0.09987277 0.07031769
0.07798118 0.08792331 -0.03984973 -0.10560114 -0.0037654776 0.10008603 0.08967701 0.060025655
-0.07932825 0.039051734 0.10197875 0.12557247 -0.02549611 0.07962031 0.065523386 0.078867055
-0.08059694 -0.03907062 -0.09821649 -0.093222015 -0.0068891346 -0.06935177 -0.07514109 0.11851966
0.018046739 0.09730377 -0.06422449 0.0179701 0.098708175 0.14872652 0.097027555 -0.07836504
0.14136152 0.10126145 0.093948424 0.117811345 -0.03461408 0.03543374 -0.062125497 0.169119
-0.05548603 0.018775644 -0.0604625 0.056209352 0.07630346 0.10456466 0.11475755 0.10949061
0.085415386 -0.087511234 0.002075782 0.09970395 0.089024164 0.17106754 0.030407686 -0.018057333
0.21131113 -0.02907695 0.08526676 -0.021434786 0.030513914 -0.011839731 0.08757924 0.12437734
0.13379575 0.04520759 -0.04310219 0.15257716 -0.043705042 -0.054220613 -0.04650098 0.026208946
0.13525009 0.06688758 0.10891545 -0.013204968 0.100548565 0.09982805 0.031515162 0.03557508
0.008898127 0.09175518 -0.05922122 0.011642363 4.901871e-05 0.106069505 0.08103794 0.10369905
00000000: 4aa0 283e 44e8 01bc 1ff3 aebc 1dd3 913d
00000010: 5263 37bd 7e93 b53d daa3 233e 547a 37bd
00000020: 7159 ea3d a565 8c3d d9e5 213e ee71 94bc
00000030: 46f2 6e3d b015 9f3d 01ee f93d 0f53 403e
00000040: fd91 763d 173f c53b 0ae9 3e3c 8b83 243e
00000050: 8152 f83d 5c3d b43d a8c7 2c3e 1ebc 12bd
00000060: c47e db3d 37b1 8fbd 99cc c9bd ae6f 893d
00000070: 9612 babd e55d 533e b0ec ea3d b187 023e
00000080: 2421 743e 2cdb 7abd e4d0 b2bc 7d3e 02bd
00000090: dd69 8b3d 2d64 c23d a5c4 753d 00c2 fdbc
000000a0: 8b0d ce3d a3fd 633d 65fa 8abd 2e4d c3bc
000000b0: de58 963d 1460 a0bd 7e66 d53d 6fea 153e
000000c0: a344 123e af90 633d 1517 1f3e 5256 bcbc
000000d0: 5b1e b53d eb3e e13d de41 c53c c383 243e
000000e0: 0bf3 c33d 3f61 883d 9624 bc3d 001d d93d
000000f0: 3437 083e fe47 193e 9694 5bbc a576 d63d
00000100: db1f e2bb 6d39 91bd a521 bbbd 431c 493d
00000110: 8ad3 84bc abce b9bd b492 bfbd 4946 ebbd
00000120: d7e0 223c 0850 5dbd 7f8c c5bd 0d5f 04be
00000130: 8904 413c a028 c83d 4d20 ecbd f661 17be
00000140: 3ff0 3f3c 5ebc cb3b dd3d 123d bed1 e0bd
00000150: 9e6c dcbd 6467 c33d 8cdf efbd eb54 ed3d
00000160: c564 483d 4ccd c6bd 6268 94ba f018 44bd
00000170: a1b8 953c bdb3 c4bd 806a 02be 4a74 0cbe
00000180: 3976 f4bc ea76 09be 9035 81bc cb56 83bd
00000190: 9e3b 79bd d8d0 bb3d 9033 05be 636f 223d
000001a0: 5e3b 06bd 185b 18be fae5 7c3c d213 463d
000001b0: bcd2 b8bd b9c7 b4bd 5ec4 5a3c 71c9 f23d
000001c0: c512 473d a5f9 e3bd 8406 0c3c 3af7 95bd
000001d0: 9e69 77bc 543f 213c 8d99 10be d04e 78bd
000001e0: b22b 74bd fd2f c03d db92 91bd 0169 9d3c
000001f0: 752f debd 9cab 0cbe 44af aebd cc17 e9bd
00000200: 0a1a 1e3d a31f c23d 2f6f a1bc 4ae0 a93d
00000210: 7a8b b7bd e61a 153d 8b94 c6ba e764 1e3d
00000220: 0a5c d6bd 8b86 c73d 74aa a7bc f83c bfbd
00000230: 4459 863d 97fc 4c3d b656 0abe 7932 023b
00000240: 1cb1 ad3d 59a4 81bd b36d d2bd d579 8c3c
00000250: cb9b 79bd c12f 5ebc 382d aabc 42dd 0cbe
00000260: 4c1c 8dbd 3de9 453d 0712 f9bb 9254 dabd
00000270: beb0 80bb 3c74 c1bd 7128 5c3d 093c d5bc
00000280: 2dbb 253c a706 3ebd 9f08 683d 023d ac3d
00000290: c925 e13d 0782 ebbc 188a ccbd b902 903d
000002a0: 99b4 9f3d 2311 b43d 7839 23bd 6945 d8bd
000002b0: 3bc6 76bb e8f9 cc3d 95a8 b73d 76dd 753d
000002c0: d976 a2bd b6f4 1f3d 3cda d03d 1296 003e
000002d0: 38dd d0bc f90f a33d 2031 863d 0d85 a13d
000002e0: 0210 a5bd 8408 20bd ba25 c9bd 2feb bebd
000002f0: 40be e1bb 4d08 8ebd 92e3 99bd 6fba f23d
00000300: c1d6 933c 3347 c73d 2188 83bd 0836 933c
00000310: 8327 ca3d c44b 183e 62b6 c63d da7d a0bd
00000320: 13c1 103e 2a62 cf3d 0868 c03d 1347 f13d
00000330: 7ec7 0dbd f822 113d 4e77 7ebd 882d 2d3e
00000340: 5245 63bd 61cf 993c 87a7 77bd c73b 663d
00000350: fd44 9c3d ff25 d63d 0206 eb3d 9d3c e03d
00000360: 43ee ae3d 1739 b3bd d809 083b 9631 cc3d
00000370: 4d52 b63d 542c 2f3e 8a19 f93c f9ec 93bc
00000380: f261 583e c932 eebc 57a0 ae3d 0198 afbc
00000390: 51f8 f93c 6efb 41bc bf5c b33d 8cb9 fe3d
000003a0: c101 093e 982b 393d ec8b 30bd 303d 1c3e
000003b0: 0f04 33bd 6f16 5ebd d077 3ebd 25b4 d63c
000003c0: 007f 0a3e 5bfc 883d 100f df3d a659 58bc
000003d0: 68ec cd3d a672 cc3d 0b16 013d 2db7 113d
000003e0: 73c9 113c 24ea bb3d f391 72bd 9cbf 3e3c
000003f0: 7099 4d38 f83a d93d 38f7 a53d 2b60 d43d
