3690.HK_stock_model.pth (torch, 205335 bytes, 9 tensors)

rnn.weight_ih_l0 f4 [256, 1]
0	0x3e4df578	0.2011317
1	0x3dded267	0.10879975
2	0x3d41ff60	0.047362685
3	0x3e808a26	0.251054
4	0x3d74706d	0.05967753
5	0x3e218063	0.15771632
6	0x3de30465	0.110848226
7	0x3df9ed8a	0.1220351
8	0x3e6f9b28	0.23399031
9	0x3db43819	0.08799762
10	0x3da10f90	0.078642964
11	0x3e052eb5	0.13006099
12	0x3e509794	0.20370322
13	0x3d6cefc4	0.057845846
14	0x3cdbcbde	0.02683061
15	0x3e1a119c	0.1504578
16	0x3e6223b7	0.22083937
17	0x3e601a68	0.21885073
18	0x3e35e47a	0.17762938
19	0x3e193027	0.14959775
20	0x3e86f647	0.2635977
21	0x3e548af0	0.20756125
22	0x3dde18cd	0.10844574
23	0x3e2adc55	0.16685612
24	0x3e69eb77	0.22843729
25	0x3d8d63fe	0.069038376
26	0x3b465a1e	0.0030266116
27	0x3e4f04e9	0.20216717
28	0x3e89e28f	0.26930663
29	0x3e55f782	0.20895198
30	0x3e781b48	0.24229157
31	0x3e42abb8	0.19010818
32	0x3e2d3d21	0.1691785
33	0x3e3e463b	0.18581478
34	0x3d9207d4	0.07130399
35	0x3bb0e81f	0.0053987647
36	0x3e273057	0.16327034
37	0x3e4f8812	0.2026675
38	0xbd423ba8	-0.047420174
39	0x3eacfa72	0.33784825
40	0x3c6bf6a1	0.014402063
41	0x3dd0f01d	0.10202048
42	0x3d5125e0	0.05106151
43	0xbded1fcf	-0.11578333
44	0x3d8b8105	0.06811718
45	0x3e34af56	0.1764501
46	0x3e16ca04	0.147255
47	0xbd729c74	-0.059231237
48	0x3e58c560	0.21169043
49	0x3d826065	0.06366042
50	0x3dea248f	0.11432754
51	0x3d8dced6	0.069242164
52	0x3dfdaa1a	0.1238596
53	0x3df4f36e	0.11960493
54	0xba805b6c	-0.0009792871
55	0xbe482dc7	-0.19548713
56	0x3e50b3f5	0.20381148
57	0x3ccc17c7	0.024913682
58	0xbcb69c47	-0.022291316
59	0x3d25ab19	0.040446375
60	0x3e382514	0.17982894
61	0x3e0ab767	0.13546525
62	0x3d37beaa	0.044859566
63	0x3e645906	0.22299585
64	0x3dae418e	0.08508597
65	0x3e301ae6	0.17197761
66	0x3e1ae902	0.15127948
67	0xbd87ec54	-0.06636873
68	0xbcb22f1d	-0.021750981
69	0xbbc1f1dd	-0.005918725
70	0x3d9822b9	0.07428498
71	0x3de2432c	0.11047968
72	0x3d886168	0.06659204
73	0xbcb282aa	-0.021790821
74	0x3db40325	0.08789662
75	0x3d81996a	0.063280895
76	0x3e0964d0	0.13417363
77	0xbd2e55e3	-0.042562377
78	0x3e183da9	0.14867271
79	0x3ce663aa	0.028123695
80	0x3bf3ba88	0.0074380077
81	0x3cc1861c	0.023623519
82	0x3dc01ce3	0.0938051
83	0x3d40bbdb	0.047054153
84	0x3e5c5076	0.21515068
85	0x3d4c191a	0.049828626
86	0x3d635c61	0.05550802
87	0x3e07ca79	0.13260831
88	0x3dddc95a	0.108294204
89	0x3dbe9cd8	0.09307259
90	0x3d573101	0.05253697
91	0x3da32c52	0.07967438
92	0xbcafba9b	-0.021451285
93	0xbc17ab2b	-0.009257118
94	0x3ddba307	0.107244544
95	0x3d67a40f	0.056552943
96	0x3d6453a7	0.05574384
97	0x3e30384a	0.17208973
98	0xbe1f0d57	-0.15532432
99	0x3c7c23aa	0.015389362
100	0x3cb95408	0.022623077
101	0x3e26b5b9	0.16280259
102	0xbdad8671	-0.08472908
103	0x3e145811	0.1448672
104	0xbce4269b	-0.02785044
105	0xbc827a84	-0.01592756
106	0x3e2b9b03	0.16758351
107	0xbc8cd0c3	-0.01718939
108	0x3c20d743	0.009816947
109	0x3e3c8bc7	0.18412696
110	0x3cd650c9	0.026161568
111	0xbe18f367	-0.149366
112	0x3e34d574	0.17659551
113	0x3e1359ce	0.14389727
114	0xbc6a0c73	-0.014285195
115	0xbd8eca45	-0.069721736
116	0xbcdcfd67	-0.0269763
117	0x3e140a00	0.1445694
118	0x3d3be096	0.04586848
119	0xbdcde37c	-0.10053155
120	0x3dfc449c	0.12317774
121	0x3e0c4d47	0.13701354
122	0xbe31961d	-0.1734242
123	0x3d491dd9	0.04910073
124	0xbd630b6d	-0.05543082
125	0x3cf21344	0.029550202
126	0xbc00a335	-0.007851412
127	0x3be59160	0.0070058554
128	0xbe0cc142	-0.13745597
129	0x3e62ebe1	0.22160293
130	0x3e2b263c	0.16713804
131	0xbe62cd05	-0.22148521
132	0xbc80e507	-0.015734209
133	0xbe4f25a4	-0.20229203
134	0xbe511c09	-0.20420851
135	0x3e6e233d	0.2325563
136	0x3e88d91c	0.2672814
137	0xbe2e3e35	-0.17015918
138	0xbe07ce82	-0.1326237
139	0xbe48d468	-0.19612277
140	0xbc8619cd	-0.016369725
141	0xbe5e0ab0	-0.21683764
142	0xbccaeff0	-0.024772614
143	0xbe82a310	-0.25515032
144	0x3ba13ac4	0.0049203355
145	0x3e687c1e	0.22703597
146	0xbd79f601	-0.061025623
147	0xbe057502	-0.13032916
148	0x3da4ad8d	0.08040915
149	0xbe3a8c5f	-0.1821761
150	0xbe6082c9	-0.2192489
151	0xbe1d2fef	-0.15350316
152	0xbe3af7bf	-0.1825857
153	0xbe7b7c04	-0.24559027
154	0xbd3032e0	-0.04301727
155	0xbe44b9fa	-0.1921157
156	0xbe27ac72	-0.16374376
157	0x3b8ab961	0.0042335247
158	0xbe4188a5	-0.18899782
159	0xbdd4dc77	-0.10393613
160	0xbe57679f	-0.21035622
161	0x3e21421d	0.15747876
162	0xbe6196b3	-0.22030143
163	0x3dd0984a	0.10185297
164	0x3e4e7d79	0.20165052
165	0xbdcdf8db	-0.10057231
166	0x3d8f82de	0.07007383
167	0x3e41259a	0.18862
168	0xbe736aa4	-0.23771149
169	0x3e578cf5	0.21049865
170	0xbe2be03c	-0.16784757
171	0xbd6229fb	-0.055215817
172	0xbde9ff09	-0.11425597
173	0x3e071aa2	0.13193753
174	0xbcd3ecaa	-0.025869686
175	0x3e4d351b	0.2003979
176	0xbe2e130f	-0.16999458
177	0xbe528c59	-0.20561351
178	0x3d0f405e	0.034973495
179	0xbc552042	-0.013008179
180	0xbb743fcc	-0.0037269471
181	0xbe317a75	-0.1733187
182	0x3ce4e030	0.027938932
183	0xbe6fbce9	-0.23411907
184	0x3e61ae8d	0.22039242
185	0xbb2c12cc	-0.002625632
186	0xbe0fa10b	-0.14026277
187	0x3e492c4a	0.19645801
188	0xbe50f171	-0.20404603
189	0xbe8ae9ff	-0.2713165
190	0x3e2cf870	0.16891646
191	0x3e7ea67c	0.24868196
192	0x3e610773	0.21975498
193	0x3d46f181	0.04857016
194	0x3d7de22c	0.061983272
195	0x3e8435a7	0.25822183
196	0x3e03e79f	0.12881325
197	0x3db91b5d	0.09038422
198	0x3e3327c7	0.17495643
199	0x3e572c00	0.21012878
200	0x3e5c00b6	0.21484646
201	0x3e1ccefe	0.15313336
202	0x3da90d77	0.08254521
203	0x3def97bb	0.11698862
204	0xbbbaea90	-0.0057042316
205	0x3de854ad	0.113442756
206	0x3e1bb5d1	0.15206076
207	0x3d79360a	0.06084255
208	0x3d83bbdb	0.06432315
209	0x3e27f1ff	0.16400908
210	0x3df49fe2	0.11944558
211	0x3e143bf1	0.14475991
212	0x3e75b6dd	0.23995538
213	0x3e8331c2	0.256239
214	0x3da542b5	0.08069364
215	0x3e806e9b	0.25084385
216	0x3dce2784	0.10066131
217	0x3e83fef4	0.2578045
218	0x3d6a205b	0.057159763
219	0x3d7c0c83	0.06153537
220	0x3e4b5442	0.1985636
221	0x3e29a30c	0.16566104
222	0x3d8463cb	0.064643465
223	0x3d66264f	0.056188878
224	0x3e1bfc91	0.15233065
225	0x3e2c0c6a	0.1680161
226	0x3daafdc5	0.08349184
227	0x3dcf1936	0.101122305
228	0x3dd3c7dc	0.103408545
229	0x3d9d7dff	0.076900475
230	0xbd2bad67	-0.041913416
231	0x3eb21f7b	0.34789643
232	0x3db99e22	0.090633646
233	0x3e53bcaf	0.20677446
234	0x3db18367	0.08667641
235	0x3db03ba9	0.08605129
236	0x3e4bad95	0.19890435
237	0x3e103ee2	0.14086488
238	0xbd00d940	-0.031457186
239	0xbe802be5	-0.2503349
240	0x3e791354	0.2432378
241	0x3bd64253	0.006538668
242	0x3da714e9	0.08158285
243	0x3e038bd8	0.12846315
244	0x3e49f906	0.19723901
245	0x3e24d369	0.16096272
246	0x3e5cab2c	0.21549672
247	0xbdf57c4a	-0.11986597
248	0x3d8d10de	0.06887983
249	0x3bfd73c1	0.007734746
250	0xbd43b434	-0.047779277
251	0x3e23506f	0.15948652
252	0x3e61f134	0.22064668
253	0x3d7b14fd	0.061299313
254	0x3e75d721	0.24007846
255	0x3db83be5	0.08995799

rnn.weight_hh_l0 f4 [256, 64]
0	0x3db848e4	0.08998278
1	0x3c74d56b	0.014943461
2	0xbcfe03c3	-0.031007653
3	0xbdd08bbe	-0.10182904
4	0x3cecbfee	0.028900113
5	0x3d04042c	0.03223054
6	0xbd827785	-0.06370453
7	0x3cc3e41f	0.023912488
8	0xbd73b215	-0.059496004
9	0x3dd78e21	0.10525156
10	0xbd9c2778	-0.076247156
11	0x3d0e86ae	0.03479641
12	0x3dcf4d28	0.10122138
13	0x3dcbd56e	0.09952818
14	0x3c50a35a	0.012734259
15	0xbc5b8fe5	-0.013401006
16	0xbdcf3c07	-0.10118871
17	0x3ca20c5d	0.019781286
18	0xbcd5754f	-0.026056914
19	0xbd9691cf	-0.073520295
20	0xbded0ad0	-0.11574328
21	0x3cc945c3	0.024569398
22	0x3d08d6b8	0.033407897
23	0xbc91bdbd	-0.01779067
24	0x3d0e6682	0.034765728
25	0xba956200	-0.0011397004
26	0xbd7b2715	-0.06131657
27	0xbdd93534	-0.10605851
28	0xbc02cff2	-0.007984148
29	0xbe0a8e94	-0.13530952
30	0x3d0af64f	0.033926304
31	0x3c2430a3	0.0100213615
32	0xbe300364	-0.17188793
33	0xbb4c7c9b	-0.00312022
34	0xbe3e0d33	-0.18559723
35	0x3d62de97	0.05538806
36	0xbddafaeb	-0.1069239
37	0xbdf69204	-0.12039569
38	0xbd222841	-0.03958917
39	0x3dc01b51	0.0938021
40	0xbe218abf	-0.15775584
41	0xbdb3d0d2	-0.08780064
42	0x3d1f05d3	0.038823914
43	0x3cfc73a7	0.030816866
44	0xbd9c50d2	-0.07632603
45	0x3dfbd754	0.1229693
46	0x3d981c72	0.074273005
47	0x3ce46a19	0.027882623
48	0x3d41d408	0.04732135
49	0xbd2c3e64	-0.042051688
50	0x3d224842	0.03961969
51	0xbca8865a	-0.020571876
52	0xbc1d3df4	-0.00959729
53	0x3dcfe394	0.10150829
54	0xbdfd4aa6	-0.12367754
55	0xbc78a6f5	-0.015176524
56	0x3de4ab1c	0.11165449
57	0x3cbfa79b	0.02339535
58	0xbd3ec03b	-0.046570044
59	0xba86f1d6	-0.0010295461
60	0x3da4fe9c	0.080563754
61	0xbe076409	-0.13221754
62	0x3e069939	0.13144387
63	0x3c9586b5	0.01825271
64	0x3dba76bd	0.09104679
65	0xbaf877d1	-0.0018956607
66	0x3acb7ad0	0.0015524272
67	0xbaf81319	-0.001892659
68	0xbda5d9cb	-0.08098181
69	0xbdf95582	-0.121745124
70	0x3d36d728	0.044638783
71	0x3d8fe01f	0.070251696
72	0x3d285304	0.041094795
73	0x3d44c1ff	0.04803657
74	0x3da246d1	0.079236634
75	0xbb36a22d	-0.002786766
76	0xbc9d1aba	-0.019177783
77	0x3db50e7a	0.08840652
78	0xbdcf4e90	-0.101224065
79	0x3dc41105	0.09573559
80	0xbda01bdb	-0.07817813
81	0x3e01b093	0.12665014
82	0xbdde8ba3	-0.10866477
83	0xbd1bb925	-0.038018364
84	0x3bb9a8e2	0.0056658844
85	0xbda1fa73	-0.079090975
86	0xbdbf20ad	-0.09332404
87	0x3d1c67eb	0.03818504
88	0x3d664ae8	0.05622378
89	0xbdefd1c7	-0.11709934
90	0xbdf57120	-0.119844675
91	0xbd02aecc	-0.03190498
92	0x3d5426e2	0.051794894
93	0x3d00a82b	0.031410377
94	0x3d62ef04	0.055403724
95	0x3d6a1855	0.05715211
96	0x3dd258cc	0.10270843
97	0xbae2de56	-0.0017308693
98	0xbe0563fc	-0.13026422
99	0xbdf3a2c8	-0.118962824
100	0xbd8ce3c4	-0.0687938
101	0xbd81f8cd	-0.06346283
102	0x3d685bf2	0.05672831
103	0xbd6aa49a	-0.057285883
104	0x3cacdd05	0.021101484
105	0x3e077156	0.13226828
106	0x3d482273	0.04886098
107	0x3cec4324	0.028840609
108	0x3dc853b1	0.09781588
109	0x3cf42dd9	0.029807018
110	0xbdb6bd09	-0.08922774
111	0xbc7ae9b7	-0.015314511
112	0x3a724386	0.0009241629
113	0x3dad18f1	0.08452023
114	0xbd065a7e	-0.032801144
115	0xbce37cd8	-0.027769491
116	0x3df9e942	0.122026935
117	0x3d2b3eef	0.041808065
118	0xbdd092f4	-0.10184279
119	0xbd092031	-0.033477966
120	0x3d910554	0.070810944
121	0x3dd5ed47	0.10445648
122	0xbb89aed4	-0.0042017493
123	0xbd45bf4a	-0.04827813
124	0x3d1e36d9	0.038626526
125	0xbe1d60e5	-0.15368994
126	0x3d758131	0.05993766
127	0xbd7cb990	-0.061700404
128	0xbd15f8ab	-0.0366141
129	0xbd788ec4	-0.060683027
130	0x3cd5df84	0.026107557
131	0x3d015b42	0.03158117
132	0x3df46411	0.11933149
133	0xbc097536	-0.008389762
134	0xbd6e6b04	-0.058207527
135	0x3da053fe	0.0782852
136	0xbd5a3745	-0.053275365
137	0x3c0c3b6d	0.00855909
138	0xbc432967	-0.011911727
139	0x3dbd198c	0.09233388
140	0xbd3b1f7f	-0.045684334
141	0x3d716dec	0.05894272
142	0xbdbad8cf	-0.09123384
143	0x3d469fb4	0.04849215
144	0xbd63d944	-0.055627123
145	0x3d7a4792	0.06110341
146	0xbd8f8356	-0.07007472
147	0xbcfd4d60	-0.030920684
148	0xbd567cd4	-0.05236514
149	0xbdcd3eca	-0.10021742
150	0x3d6a5db3	0.057218265
151	0x3da90029	0.08251984
152	0xbdce9949	-0.100878306
153	0xbdf8801b	-0.12133809
154	0x3cc94f4e	0.024573948
155	0x3c661249	0.014042445
156	0x3d72d533	0.059285354
157	0xbd188428	-0.03723541
158	0xbdc8cc3b	-0.09804579
159	0xbd994e1c	-0.07485601
160	0xbd8d263f	-0.068920605
161	0x3bc0ae1d	0.005880131
162	0xbcd692d2	-0.026193056
163	0x3d7bfe64	0.061521903
164	0xbd9b0010	-0.07568371
165	0x3d931516	0.07181756
166	0xbdb25177	-0.087069444
167	0xbc0f376b	-0.00874124
168	0x3e0061eb	0.12537353
169	0xbd3dae13	-0.04630859
170	0x3cbddc62	0.023176376
171	0xbd17148f	-0.03688484
172	0xbd6efc1d	-0.058345903
173	0xbc8c2895	-0.017109195
174	0x3dee93f1	0.11649311
175	0xbc092482	-0.008370521
176	0x3c28f321	0.010311873
177	0x3d645c6a	0.055752195
178	0x3df1cdfc	0.118068665
179	0xbb1571eb	-0.0022803496
180	0x3b142b61	0.0022608864
181	0xbbaf2334	-0.0053447727
182	0xbd802b95	-0.062583126
183	0x3d23e2c0	0.040011168
184	0x3d7bc008	0.061462432
185	0xbd9e7c4f	-0.07738554
186	0x3d00d4e9	0.031453047
187	0xbd6e4ef7	-0.058180775
188	0x3d1186c3	0.03552891
189	0x3d06f1fa	0.03294561
190	0xbdc42ba7	-0.095786385
191	0x3e0528b2	0.13003805
192	0xbc17bbfb	-0.009261127
193	0xbd694ec8	-0.056959897
194	0xbcc26931	-0.0237318
195	0xbdaa5bf9	-0.08318324
196	0x3d803558	0.062601745
197	0xbdc63071	-0.09677208
198	0x3be5b4c9	0.0070100767
199	0x3ba58575	0.0050513097
200	0xbd78d56a	-0.060750403
201	0x3cdb301e	0.026756343
202	0x3d14ab35	0.03629609
203	0xbd288aaf	-0.041147884
204	0xbdfc6407	-0.12323766
205	0x3d24bbd3	0.040218186
206	0xbcaac50c	-0.020845912
207	0x3b110454	0.0022127824
208	0x3d11ff1d	0.035643686
209	0x3e057505	0.1303292
210	0x3d7468cf	0.059670266
211	0x3cd7f7ee	0.02636334
212	0xbcac1245	-0.021004805
213	0xbdc5d4d3	-0.096597336
214	0x3d9ce9b1	0.076617606
215	0x3c97d4fc	0.018534176
216	0xbd423043	-0.047409307
217	0x3dc202c0	0.09473181
218	0x3deaccba	0.1146483
219	0xbd584fe3	-0.05281056
220	0xbd602a66	-0.054727934
221	0x3e07c5e3	0.13259082
222	0xbb7149d0	-0.0036817677
223	0xbcc0228d	-0.023453975
224	0x3c2a9388	0.010411151
225	0x3cd15368	0.025552467
226	0x3ce27879	0.027645336
227	0xbc1f5cea	-0.009726742
228	0x3ca6e0b1	0.020370813
229	0xbc5723ae	-0.013131065
230	0xbdf73628	-0.12070876
231	0x3d6feece	0.05857735
232	0x3cce15a5	0.025156805
233	0x3e097303	0.1342278
234	0xbd797cfe	-0.060910217
235	0x3e546895	0.2074302
236	0xbdc8b706	-0.09800534
237	0xbd6ee6a9	-0.058325443
238	0xbd15c79f	-0.036567327
239	0xbdc5b765	-0.0965412
240	0xbd9133f8	-0.070899904
241	0xbe0e8db9	-0.1392125
242	0xbd1b057d	-0.03784703
243	0x3e15237d	0.14564319
244	0x3ccf441f	0.025301037
245	0x3c9dacac	0.019247375
246	0x39078914	0.00012925669
247	0x3dd60f09	0.104520865
248	0xbd8f6af7	-0.07002824
249	0x3d7cd1d1	0.061723534
250	0x3d1ae79e	0.037818544
251	0x3d0f26da	0.03494916
252	0xbd9e51c8	-0.07730442
253	0xbcafbdd6	-0.021452826
254	0x3d6eb274	0.058275655
255	0x3d3c5ed0	0.045988858

rnn.bias_ih_l0 f4 [256]
0	0xbd3e7853	-0.04650147
1	0x3c67826b	0.014130215
2	0xbc999c44	-0.018751271
3	0x3e2534d0	0.16133428
4	0x3d3b0422	0.04565824
5	0x3d513b13	0.05108173
6	0x3d257b0a	0.040400542
7	0x3d62582d	0.055259872
8	0x3e560b74	0.20902807
9	0x3e261814	0.16220123
10	0xbcf0a4b4	-0.029375412
11	0xbc96061f	-0.018313466
12	0xbd9afe30	-0.07568014
13	0x3dc431cb	0.0957981
14	0xbb11e49e	-0.002226151
15	0x3df168c6	0.11787562
16	0xbc8480b2	-0.016174648
17	0x3e1b1f96	0.15148768
18	0xbdcc2d6e	-0.099696025
19	0x3de1ab4c	0.110190004
20	0x3e27628a	0.16346183
21	0x3c8b8a6a	0.017033774
22	0x3e1b64a8	0.15175116
23	0x3df1963a	0.117962316
24	0x3dba2101	0.09088326
25	0x3e15a960	0.14615393
26	0x3d83eb0b	0.06441315
27	0x3dd848d0	0.10560763
28	0x3e31caf6	0.1736258
29	0xbd71ca33	-0.059030723
30	0x3df223f5	0.118232645
31	0x3d95b42e	0.07309757
32	0x3e85bb11	0.26119283
33	0xbd0323c5	-0.032016534
34	0x3ebb2dc1	0.36558345
35	0x3d66feed	0.05639546
36	0x3d61fc8f	0.0551725
37	0x3d83bb0a	0.06432159
38	0xbd24f24e	-0.040270142
39	0x3d58ad79	0.05289981
40	0x3e8b140e	0.27163738
41	0x3e197a76	0.14988121
42	0xbb81afee	-0.00395774
43	0xbddab300	-0.10678673
44	0xbc32e62a	-0.010919133
45	0xbd11e303	-0.035616886
46	0xbd637cd1	-0.055538956
47	0x3e41da3e	0.18930909
48	0x3d20842a	0.03918854
49	0x3d69cd4d	0.057080556
50	0xbd94a463	-0.07257917
51	0xbc84ead1	-0.01622525
52	0xbd02818e	-0.031861834
53	0x3e31bf78	0.17358196
54	0xbc089f34	-0.008338738
55	0x3d805447	0.06266075
56	0x3d9062e6	0.070501134
57	0x3e1994ef	0.1499822
58	0xbdbe362c	-0.09287676
59	0x3d87e00b	0.0663453
60	0x3e40205c	0.18762344
61	0x3e9e01c9	0.30860737
62	0x3d70c890	0.05878502
63	0x3e8eaf25	0.27868
64	0x3c1a84e1	0.009431095
65	0x3d45ef9d	0.048324216
66	0x3d6b0d4c	0.057385728
67	0x3e0768ce	0.13223574
68	0xbe351c98	-0.17686689
69	0x3d6b9628	0.057516247
70	0xbdbc5ffd	-0.09197996
71	0x3def33c7	0.116797976
72	0x3dfce924	0.123491555
73	0x3da78e4f	0.0818144
74	0xbd1972f8	-0.03746316
75	0x3dfa916e	0.1223477
76	0x3d97a8df	0.074052565
77	0x3d838ff8	0.06423944
78	0x3d2431d9	0.0400866
79	0x3d770d5c	0.060315475
80	0x3d44c3c7	0.04803827
81	0x3e07523d	0.13214965
82	0xbb3aa425	-0.0028479185
83	0xbdecd446	-0.115639254
84	0x3d70ba24	0.058771268
85	0x3dd6acd8	0.10482186
86	0xbd4454a4	-0.047932282
87	0x3c7d6646	0.015466278
88	0x3dab03b7	0.08350318
89	0xbd031d77	-0.03201052
90	0x3c56d20d	0.013111603
91	0x3dcccf2a	0.10000451
92	0xbcd04b79	-0.025426613
93	0x3b6ac5f4	0.0035823556
94	0xbd2d81a0	-0.04235995
95	0xbddc1d98	-0.10747832
96	0x3d93e501	0.072214134
97	0xbbffd1e9	-0.0078070057
98	0xbdacc2a2	-0.08435561
99	0xbda62604	-0.0811272
100	0xbde415bc	-0.11136958
101	0xbce4a147	-0.027908934
102	0xbe3a6048	-0.18200791
103	0xbe302087	-0.17199908
104	0xbbe437e6	-0.0069646714
105	0x3db6d27a	0.08926864
106	0xbda96d0f	-0.082727544
107	0xbe3f7b78	-0.18699443
108	0xbc3f558d	-0.011678112
109	0x3c047f80	0.008087039
110	0xbd2434c4	-0.040089384
111	0xbc217879	-0.009855383
112	0x3dd41f33	0.10357513
113	0x3ddf1dc1	0.10894347
114	0xbd3b3be4	-0.045711413
115	0xbd7c7964	-0.061639205
116	0xbb9601c8	-0.004577849
117	0x3bb58786	0.0055398373
118	0xbd853d95	-0.065058865
119	0xbc6b7844	-0.014371935
120	0xbd52d98b	-0.051476996
121	0xbc1630bd	-0.009166894
122	0xbbd7549a	-0.0065713646
123	0x3dd77521	0.105203874
124	0x3dcdde65	0.10052184
125	0x3bac3744	0.0052556116
126	0x3dc1b20f	0.0945779
127	0xbd844481	-0.064583786
128	0xbd2cd5a4	-0.04219593
129	0x3d9eb4e8	0.07749349
130	0x3cd13988	0.025540128
131	0x3da4d39b	0.08048173
132	0x3da0a012	0.07843031
133	0xbda1efcc	-0.07907066
134	0x3dbf4222	0.09338786
135	0x3dbef75a	0.09324522
136	0x3d823a46	0.06358771
137	0xbda51c6f	-0.08062064
138	0xbdfd460f	-0.12366878
139	0x3cd61830	0.02613458
140	0xbe13da26	-0.14438686
141	0xbd5359f2	-0.05159945
142	0xbe0be238	-0.13660514
143	0xbd98d414	-0.07462326
144	0x3e093200	0.1339798
145	0x3c97251c	0.018450312
146	0xbdca9b6b	-0.09892925
147	0xbd961947	-0.0732904
148	0x3dd5da1e	0.10441993
149	0x3dc62e8e	0.09676848
150	0xbc5c3379	-0.013440006
151	0xbd8739a9	-0.06602795
152	0x3c5d1f5d	0.013496247
153	0x3cf236c2	0.029567126
154	0x3e12ff86	0.14355287
155	0xbc965a8e	-0.018353727
156	0x3cf1a2fb	0.02949666
157	0x3dd790d1	0.105256684
158	0x3d3f6045	0.04672267
159	0x3d6f94bd	0.058491457
160	0x3bee53e2	0.007273183
161	0x3bf05328	0.0073341317
162	0xbc9eb3d8	-0.019372866
163	0x3d330f0b	0.043715518
164	0x3e06501f	0.13116501
165	0xbe12b09c	-0.14325184
166	0xbd553450	-0.052051842
167	0xbd5aab8b	-0.053386252
168	0x3d217140	0.039414644
169	0x3e11bae2	0.14231446
170	0xbd6a6181	-0.057221893
171	0x3cce50ac	0.025184952
172	0xbd2ce378	-0.04220912
173	0x3cb8d1c8	0.022560969
174	0x3df1de34	0.1180996
175	0xbdf8ce1d	-0.12148688
176	0xbe0a93b3	-0.13532905
177	0xbdd2fe68	-0.103024304
178	0x3d5d350b	0.054005664
179	0x3e1cec38	0.15324485
180	0xbe0aca71	-0.13553788
181	0x3b93d0e0	0.004510984
182	0x3e0ddba0	0.13853312
183	0x3d272044	0.040802255
184	0x3e03cc9a	0.12871018
185	0x3dae191c	0.08500883
186	0x3de72781	0.11286832
187	0xbd449bfe	-0.04800033
188	0xbdc2411f	-0.09485077
189	0x3bf35ff2	0.007427209
190	0xbd9524ad	-0.07282386
191	0x3d8cb2ca	0.06870039
192	0x3ca8a883	0.020588165
193	0x3d8f2907	0.06990247
194	0x3e14b0c8	0.14520562
195	0x3df4048e	0.11914931
196	0x3e287326	0.16450176
197	0x3cbc77ee	0.023006406
198	0x3e1e24df	0.15443753
199	0xbc7d54e5	-0.015462135
200	0x3e7e1f88	0.24816716
201	0x3c62a960	0.013834327
202	0xbd75c599	-0.060002897
203	0x3d26c28e	0.040712886
204	0x3ceffb16	0.029294532
205	0xbd92060c	-0.071300596
206	0x3dd2b59e	0.10288547
207	0x3e14d520	0.14534426
208	0x3d385f3c	0.045012698
209	0x3e3c7b74	0.18406469
210	0xbd316d7e	-0.04331731
211	0x3e2f84d5	0.17140515
212	0x3c5bccc2	0.013415517
213	0x3e09cca5	0.13456972
214	0x3e15165e	0.14559314
215	0x3e360d9f	0.17778634
216	0x3dcc13bc	0.099647015
217	0x3e56b72c	0.20968312
218	0xbd6d616b	-0.057954233
219	0xbd45736b	-0.048205774
220	0x3e680e95	0.22661813
221	0xbcf304b6	-0.029665332
222	0x3ddcc0d4	0.107789665
223	0xbd669a41	-0.05629945
224	0x3e566fa9	0.20941032
225	0x3de9c9a7	0.11415415
226	0x3ea7e5fb	0.3279265
227	0x3da0584d	0.07829342
228	0x3d8ec431	0.06971014
229	0x3bf7e6a2	0.0075653354
230	0xbd9b079b	-0.0756981
231	0x3e7b186c	0.24521035
232	0x3e4de1fd	0.20105739
233	0x3e3121a6	0.17297992
234	0xbd272d76	-0.04081484
235	0xbd81c7f7	-0.063369684
236	0xbcae174d	-0.021251345
237	0x3d908b58	0.07057828
238	0xbd642903	-0.055703174
239	0x3e54e1a7	0.20789205
240	0x3e2c49e4	0.16825062
241	0x3e31f4a1	0.17378475
242	0xbd3a6928	-0.04551044
243	0x3c79415f	0.01521334
244	0xbc85c16e	-0.016327586
245	0xbc495474	-0.012288202
246	0xbda9fa65	-0.08299712
247	0x3d9d64f7	0.07685273
248	0x3dbe336a	0.0928715
249	0xbd3ced5d	-0.046124805
250	0xbddc878f	-0.10768043
251	0x3dd36276	0.10321514
252	0xbb2cb04b	-0.0026350196
253	0x3de0bc22	0.109733835
254	0x3e23d163	0.15997843
255	0x3e94fb22	0.2909785

rnn.bias_hh_l0 f4 [256]
0	0xbc01deeb	-0.007926683
1	0xbc21c0b3	-0.009872603
2	0xbb7764e5	-0.0037749347
3	0x3e2be1a0	0.16785288
4	0x3d0f903d	0.035049666
5	0x3dbb4dbc	0.09145686
6	0x3e426a8d	0.18985958
7	0x3dafef7c	0.085906
8	0x3e060229	0.13086762
9	0xbda9b804	-0.08287051
10	0xbbbe1d58	-0.005801838
11	0xbd083f03	-0.033263218
12	0x3e0a98ee	0.135349
13	0x3e2c4425	0.1682287
14	0x3e0cead1	0.1376145
15	0x3d59a81e	0.053138845
16	0x3e005c0c	0.12535113
17	0x3dfb4c6b	0.12270435
18	0x3daa199a	0.08305664
19	0x3c9f35c7	0.019434823
20	0x3e0db0ca	0.13836971
21	0x3d1d40e1	0.03839195
22	0x3df6585a	0.120285705
23	0x3df058c7	0.11735683
24	0x3d6ca458	0.057773918
25	0x3e19e74f	0.15029643
26	0x3c9a8c36	0.018865686
27	0x3cb253a5	0.0217684
28	0x3c7617f5	0.01502036
29	0xbc704637	-0.014665178
30	0x3e00ce3c	0.12578672
31	0x3cf5d54e	0.030008938
32	0x3e338c00	0.17533875
33	0x3dfef66b	0.12449344
34	0x3e538d6e	0.2065942
35	0x3ddcba71	0.107777484
36	0xbb26b1fd	-0.002543568
37	0x3d8ce0c0	0.06878805
38	0x3da9ee75	0.08297435
39	0x3d5a7102	0.05333043
40	0x3e308c61	0.1724105
41	0xbc6ada3f	-0.0143342605
42	0x3e1abcbc	0.15111059
43	0x3d9f4873	0.077774905
44	0x3cd60f76	0.02613042
45	0xbcff6b76	-0.031179171
46	0x3cf83132	0.030296896
47	0x3dcc0166	0.09961204
48	0x3d80d1e7	0.06290036
49	0x3d8f3222	0.06991984
50	0x3cc4cf70	0.024024695
51	0x3cdb1545	0.02674354
52	0x3d0c4109	0.03424171
53	0x3de70666	0.11280517
54	0x3cb20a3c	0.021733396
55	0x3d3607f3	0.044441175
56	0x3de9c533	0.11414566
57	0x3d8add46	0.06780486
58	0xbd3db7c8	-0.046317846
59	0x3d90c7da	0.07069369
60	0xbb6a013c	-0.0035706302
61	0x3e3ac4e7	0.18239175
62	0xbd227258	-0.039659828
63	0x3e37cf54	0.17950183
64	0xbc6bef69	-0.014400342
65	0xbd3a152f	-0.04543036
66	0x3bd8ee66	0.006620216
67	0xbcf2bc95	-0.029630939
68	0xbe1b8bb7	-0.15190016
69	0xbda70eea	-0.081571415
70	0x3d85b14d	0.06527958
71	0x3d874005	0.06604008
72	0x3e302a20	0.1720357
73	0x3d5b0943	0.05347563
74	0xbd3e2a14	-0.046426848
75	0x3dfbd9ed	0.122974254
76	0xbdc181a3	-0.09448554
77	0xbcf8c7b7	-0.030368669
78	0xbc1faff9	-0.009746545
79	0x3d816061	0.06317211
80	0x3d28836c	0.04114096
81	0x3dd3c698	0.10340613
82	0xbd5fcf43	-0.05464102
83	0xbd25bb5f	-0.040461894
84	0xbcd28593	-0.025698459
85	0x3dbaeb60	0.091269255
86	0xbdc901c7	-0.09814792
87	0xbd526881	-0.051369194
88	0x3d09f532	0.033681102
89	0xbd2f7929	-0.042840157
90	0xbd8fffcb	-0.070312105
91	0x3c83a3e4	0.01606936
92	0xbdfb0382	-0.122565284
93	0x3bcc2432	0.0062299008
94	0xbd0de595	-0.034642775
95	0x3dc686e6	0.096936986
96	0xbdd78119	-0.1052267
97	0x3cec2c46	0.028829705
98	0xbd86550c	-0.0655919
99	0xbddb02fc	-0.106939286
100	0xbdb8cb08	-0.090231
101	0xbd910f3c	-0.07082984
102	0xbe106e50	-0.14104581
103	0xbe45a435	-0.19300921
104	0xbc90a703	-0.017657762
105	0x3d3570a5	0.04429688
106	0xbdc94e44	-0.09829381
107	0xbe20062e	-0.15627357
108	0x3d53f802	0.05175019
109	0xbd813e59	-0.0631072
110	0x3d4f1478	0.05055663
111	0x3cb8ccc6	0.022558581
112	0xbd64cdd4	-0.055860355
113	0x3ccf2dd4	0.025290407
114	0xbdc08181	-0.09399701
115	0x3d4c639e	0.04989969
116	0xbd502e08	-0.05082515
117	0x3a938f53	0.0011257924
118	0x3d2c0e93	0.042006087
119	0x3de44285	0.111455
120	0x3e05cd6b	0.13066642
121	0x3c9e8aa8	0.019353226
122	0x3d0255e8	0.031820208
123	0x3e012f50	0.12615705
124	0xbdbd15af	-0.092326514
125	0xbc2c92fe	-0.010533093
126	0x3ccd7977	0.025082333
127	0x3da1fc99	0.07909507
128	0xbdfde148	-0.123964846
129	0x3de9300c	0.11386117
130	0x3be80221	0.007080332
131	0xbdc4b15b	-0.0960414
132	0x3da38e6a	0.07986148
133	0x3c896a1f	0.016774235
134	0xbe017f0e	-0.12646124
135	0xbc70688a	-0.014673362
136	0xbda05524	-0.07828739
137	0xbdfd1ddf	-0.12359213
138	0xbe09135f	-0.13386296
139	0xbdcea73a	-0.1009049
140	0xbd814d0d	-0.063135244
141	0xbdd6b879	-0.10484404
142	0x3d3f405f	0.04669225
143	0x3cf2aa2f	0.029622165
144	0x3dc7cca2	0.097558275
145	0x3db78bf4	0.08962241
146	0xbdd4829d	-0.10376475
147	0x3d3315f2	0.0437221
148	0x3d23384e	0.03984862
149	0xbe147462	-0.14497522
150	0xbdb8f871	-0.090317614
151	0xbe0f1ccf	-0.13975833
152	0xbd81520e	-0.06314479
153	0xbdb01b5b	-0.08598968
154	0x3d138ea9	0.036024723
155	0xbdafef9d	-0.085906245
156	0xbd767653	-0.060171437
157	0x3d7d486f	0.061836656
158	0xbdf38d65	-0.11892203
159	0xbe128793	-0.1430953
160	0x3c3c2c01	0.011485101
161	0x3d96ad7b	0.073573075
162	0x3dc6dc25	0.09709958
163	0x3daa405a	0.08313055
164	0x3dab5993	0.08366694
165	0xbdcf5fc1	-0.101256855
166	0xbd8a4ff8	-0.06753534
167	0x3dd75b91	0.10515512
168	0x3d09b899	0.03362331
169	0xbd3ad9f3	-0.04561801
170	0xbd5d1929	-0.053979073
171	0x3df9be01	0.121944435
172	0xbdeba478	-0.11505979
173	0x3d58dc45	0.05294444
174	0x3def02b2	0.11670436
175	0xbd2c1255	-0.04200967
176	0xbc5d0762	-0.01349053
177	0x3ca0d0f1	0.019630881
178	0x3e07cb0f	0.13261054
179	0xbd4fc35f	-0.05072343
180	0xbd867479	-0.06565184
181	0xbe02d587	-0.12776767
182	0x3df194af	0.11795937
183	0x3db1f3b6	0.08689062
184	0x3c65cb1b	0.014025475
185	0x3dda9fc2	0.10675003
186	0x3dba2f99	0.0909111
187	0x3dad393b	0.084581815
188	0x3da938d3	0.082627915
189	0x3d52f6f2	0.051505037
190	0x3df30ab9	0.118672796
191	0xbd94d478	-0.07267088
192	0xbc3c5c53	-0.011496621
193	0x3e1463f3	0.14491253
194	0xbcddbd28	-0.027067736
195	0x3e0a2215	0.13489564
196	0x3d6d4abf	0.05793261
197	0x3d8dfd9b	0.06933137
198	0x3e233726	0.15939006
199	0x3e1d9129	0.15387405
200	0x3de7fc08	0.11327368
201	0x3e0e1d36	0.1387833
202	0x3d1413e5	0.036151785
203	0x3e235ca3	0.15953307
204	0x3e007d1c	0.12547725
205	0x3ddeb123	0.1087363
206	0x3b234e13	0.0024918362
207	0x3d8db645	0.06919531
208	0x3d44a6cc	0.048010632
209	0x3da169ca	0.07881506
210	0x3dadfad9	0.08495111
211	0x3e048303	0.12940602
212	0xbae6d209	-0.0017610203
213	0xbd06398e	-0.032769732
214	0x3e1ae872	0.15127733
215	0xba879dab	-0.0010346671
216	0x3e59aa0a	0.21256271
217	0x3d80917a	0.062777475
218	0x3d9dd529	0.07706673
219	0xbd54b66f	-0.051931795
220	0x3e31c4f3	0.17360286
221	0x3dd81b45	0.10552076
222	0x3e460bf5	0.19340499
223	0xbd0a242b	-0.0337259
224	0x3e9457ef	0.28973338
225	0x3deb6538	0.11493915
226	0x3ea6564a	0.32487708
227	0xbbdc63c8	-0.006725762
228	0x3d3f3122	0.046677716
229	0xbc030926	-0.007997787
230	0xbdad10b5	-0.08450452
231	0x3e40ef86	0.18841371
232	0x3ec1982f	0.3781142
233	0xbc235216	-0.009968301
234	0x3d8632e2	0.06552674
235	0x3ddea355	0.10870997
236	0xbb5917e0	-0.0033125803
237	0x3dbdca68	0.092671216
238	0x3b906773	0.0044068634
239	0x3d4c6d0c	0.049908683
240	0xbd5276d8	-0.05138287
241	0x3e1d6765	0.15371473
242	0xbd37a890	-0.044838488
243	0xbdc5b521	-0.09653688
244	0x3dda39ea	0.106555775
245	0xbc8caece	-0.017173197
246	0x3c960679	0.018313633
247	0x3dd3a3ae	0.10333954
248	0xbd2b4d1b	-0.04182158
249	0x3e02f979	0.12790479
250	0x3d48e68c	0.04904799
251	0xbc4695e7	-0.0121207
252	0x3cd0327d	0.0254147
253	0x3e80610c	0.2507404
254	0x3dbbf732	0.09178008
255	0x3e43deae	0.19127914

rnn.weight_ih_l1 f4 [256, 64]
0	0xbdaf60ce	-0.08563386
1	0x3c3cbfc0	0.011520326
2	0x3e022a56	0.12711462
3	0xbc2d9142	-0.010593714
4	0xbd44f760	-0.048087478
5	0xbd0ae0af	-0.03390568
6	0xbccc769c	-0.024958901
7	0x3c6743c4	0.014115278
8	0x3dc6a5fb	0.09699627
9	0xbe0ff8e3	-0.14059786
10	0xbe1d8a84	-0.15384871
11	0xbe15c747	-0.146268
12	0xbe1daf83	-0.15398984
13	0xbce5332a	-0.027978498
14	0xbd654afd	-0.055979718
15	0xbc18cc55	-0.00932606
16	0x3d955768	0.07292062
17	0x3e04eec9	0.12981714
18	0xbd2cdfde	-0.042205684
19	0xbdbdf086	-0.09274392
20	0xbc8ba32c	-0.01704558
21	0x3bdb972e	0.0067013716
22	0xbde10131	-0.10986555
23	0x3d34a0e4	0.04409875
24	0xbe3f08c3	-0.18655686
25	0x3c0e3ef3	0.008682
26	0x3ddf089a	0.108903125
27	0xbd965323	-0.07340076
28	0xbbd7abf2	-0.006581777
29	0x3ddbf72a	0.10740502
30	0xbdd3cb75	-0.10341541
31	0x3d717e45	0.05895831
32	0xbde67762	-0.11253239
33	0x3d64bab9	0.055842135
34	0xbe5d937a	-0.21638289
35	0x3d641391	0.055682722
36	0x3afe737f	0.0019413083
37	0x3d1ec4d2	0.03876192
38	0x3d4abdbb	0.049497347
39	0x3e525961	0.20541908
40	0xbe4bd7cb	-0.19906537
41	0x3c30de1b	0.010795142
42	0xbdb1fe2b	-0.08691057
43	0x3d560e22	0.05225957
44	0x3d108ba8	0.035289437
45	0x3d3aeb66	0.04563465
46	0x3dfcb5f7	0.123393945
47	0x3dfd6640	0.12373018
48	0xbd28d533	-0.041218948
49	0xbce66239	-0.028123008
50	0xbca1b537	-0.01973973
51	0x3dd20804	0.10255435
52	0x3d102539	0.03519175
53	0xbdc2079b	-0.09474107
54	0x3d8316f2	0.06400861
55	0x3cb596c5	0.02216662
56	0x3d175877	0.0369496
57	0xbd2927d3	-0.041297745
58	0x3d6dd417	0.058063593
59	0x3e1530da	0.14569417
60	0xbd0324b1	-0.032017414
61	0xbe566f0b	-0.20940797
62	0x3d59b502	0.053151138
63	0x3ddb3ee5	0.107053556
64	0xbd8c3b3f	-0.06847238
65	0x3e0772b0	0.13227344
66	0xbc282c87	-0.010264522
67	0xbe2f5b45	-0.1712466
68	0x3d8e400a	0.06945808
69	0x3bc2bfba	0.0059432657
70	0x3c9633f2	0.018335316
71	0x3dd59137	0.10428088
72	0x3e044a6f	0.12919019
73	0xbddd6fc9	-0.10812337
74	0x3c9bbda0	0.019011319
75	0x3bafbe8c	0.005363291
76	0xbca11610	-0.01966384
77	0x3dc399d6	0.09550826
78	0x3d95fe84	0.07323936
79	0x3d401e96	0.04690417
80	0xbdbc7240	-0.09201479
81	0xbd9615e3	-0.07328393
82	0x3cfb60f0	0.030685872
83	0xbd33a4b5	-0.04385825
84	0x3d5d451a	0.05402098
85	0xbd9b8328	-0.075933754
86	0x3db32e0f	0.08749019
87	0xbdc91d3b	-0.098200284
88	0xbd501cba	-0.050808646
89	0xbdaa1e66	-0.08306579
90	0xbd96b83d	-0.073593594
91	0xbe1c9432	-0.15290907
92	0xbdd27a44	-0.102772266
93	0x3d9ff794	0.07810894
94	0xbdbb3304	-0.0914059
95	0x3d92c76d	0.07166944
96	0xbe4c6b92	-0.1996291
97	0x3d76ce34	0.060255244
98	0xbba8deae	-0.0051534986
99	0x3dab66bb	0.08369204
100	0x3cf2438d	0.029573226
101	0x3db257cb	0.087081514
102	0xbd82cdfc	-0.06386945
103	0x3d7776e3	0.060416114
104	0xbdf10900	-0.11769295
105	0x3c40187b	0.011724587
106	0x3d45ed2d	0.04832189
107	0xba628692	-0.00086412684
108	0xbe067b00	-0.13132858
109	0xbd8c6e98	-0.068570316
110	0x3d77f37d	0.060534943
111	0xbdac3783	-0.084090255
112	0x3d99550a	0.07486923
113	0xbdebfbf4	-0.115226656
114	0xbc079542	-0.008275332
115	0xbcc2c093	-0.023773467
116	0xbcc7f03d	-0.024406547
117	0xbda928d3	-0.0825974
118	0xbd437986	-0.047723316
119	0x3d3131a6	0.04326024
120	0x3dd2936b	0.10282024
121	0x3c45ec0a	0.012080202
122	0xbdcf194e	-0.10112248
123	0x3d1dc8cd	0.038521577
124	0x3c0a054d	0.008424115
125	0x3d5ae2d7	0.053438988
126	0x3e24ffb8	0.16113174
127	0x3e37c0e9	0.17944683
128	0xbd99ed27	-0.07515936
129	0x3e09eead	0.13469954
130	0x3e2214ca	0.15828243
131	0xbe4714d2	-0.19441536
132	0xbd120461	-0.035648707
133	0xbdb29645	-0.08720068
134	0x3b6a0f05	0.0035714519
135	0xbcdc86b6	-0.026919704
136	0x3e605209	0.21906294
137	0xbddb4e9c	-0.10708353
138	0xbdcfbc88	-0.10143381
139	0xbe2a4ca1	-0.16630794
140	0x3d9c704b	0.07638606
141	0xbe29a5f1	-0.16567208
142	0x3dceb30b	0.100927435
143	0xbddbeb7b	-0.10738274
144	0x3ca7bbca	0.020475287
145	0xbc4e1e92	-0.012580531
146	0xbd07d3cc	-0.03316097
147	0xbe278c3c	-0.16362089
148	0x3c062124	0.008186612
149	0xbe22e44d	-0.15907402
150	0xbcf1c996	-0.029515069
151	0x3d69ae9f	0.057051297
152	0xbe272e70	-0.16326308
153	0xbe0abc62	-0.13548425
154	0xbd610554	-0.054936722
155	0xbd30d81b	-0.043174844
156	0xbda31778	-0.07963461
157	0xbcc14f87	-0.023597492
158	0xbd806d77	-0.06270879
159	0xbd5d1f27	-0.053984787
160	0xbe36aea6	-0.1784006
161	0x3d089ba5	0.03335156
162	0xbdc0518d	-0.093905546
163	0x3db064e8	0.08612996
164	0xbd4536ef	-0.048148092
165	0xbd9bf067	-0.076142125
166	0x3e04d7ef	0.12972997
167	0x3e4ae1df	0.19812725
168	0xbe964109	-0.29346493
169	0x3e3b4e84	0.1829167
170	0xbe315023	-0.17315726
171	0xbd9c3777	-0.076277666
172	0x3d98fb23	0.074697755
173	0xbd23680a	-0.03989414
174	0x3d581427	0.052753594
175	0xba1535ec	-0.0005691934
176	0xbdbdc159	-0.09265394
177	0xbd0edebd	-0.03488039
178	0x3dd72172	0.10504426
179	0xbc26f86a	-0.010191062
180	0xbd281ef1	-0.041045133
181	0xbe0cf91f	-0.13766907
182	0x3e02b06a	0.12762609
183	0xbd18bace	-0.037287526
184	0x3e0218c2	0.12704757
185	0xbca77c40	-0.02044499
186	0x3df963fe	0.12177275
187	0x3e0f3bf4	0.13987714
188	0xbda31d72	-0.079646006
189	0xbe22230b	-0.1583368
190	0x3de240a0	0.110474825
191	0x3e60f229	0.21967377
192	0xbdc363b5	-0.09540502
193	0x3b960ba2	0.0045790235
194	0xbd016f53	-0.031600308
195	0xbdf497ed	-0.1194304
196	0xbdab2382	-0.08356382
197	0xbd01b5df	-0.031667586
198	0xbd9c6589	-0.07636554
199	0x3d532c5d	0.05155598
200	0x3dbc8a3e	0.09206055
201	0xbe297fc6	-0.16552648
202	0x3cfdbfe1	0.030975284
203	0xbdb963db	-0.09052249
204	0x3d03f921	0.03222001
205	0x3c7b3976	0.015333524
206	0x3dc183c8	0.094489634
207	0xbc62e466	-0.0138484
208	0x3dff7805	0.12474064
209	0x3c280a11	0.010256306
210	0xbd394a0f	-0.045236643
211	0x3bca65f0	0.0061767027
212	0xbd15981c	-0.036522016
213	0xbb39f568	-0.0028375033
214	0xbcf64953	-0.03006426
215	0x3c4cc460	0.012497991
216	0xbcca8820	-0.024723113
217	0xbd35b697	-0.044363584
218	0x3e07a800	0.1324768
219	0xbdeeed5d	-0.11666367
220	0x3c923fa7	0.017852617
221	0x3dba1c5a	0.09087439
222	0x3c20a00a	0.009803781
223	0xbe2318d5	-0.15927441
224	0xbe367fe1	-0.1782222
225	0x3db9b28c	0.09067258
226	0xbe8c40f5	-0.27393308
227	0x3d49ff80	0.04931593
228	0x3daf1def	0.08550631
229	0x3d9bdc91	0.07610429
230	0x3d84dea9	0.064877816
231	0x3e49f066	0.19720611
232	0xbe43d16c	-0.19122857
233	0x3e35cc0c	0.17753619
234	0xbce86753	-0.028369581
235	0xbda067b8	-0.07832283
236	0x3d9d9aa7	0.07695513
237	0x3e2c18b8	0.16806304
238	0x3bafd72a	0.0053662257
239	0x3e060294	0.13086921
240	0x3d788e71	0.060682718
241	0x3cc6c5d8	0.024264261
242	0x3d641f54	0.05569394
243	0xbc2599e6	-0.010107493
244	0xbc58efd2	-0.013240771
245	0xbe016c4a	-0.12638965
246	0xbd4355b0	-0.04768914
247	0xbdba4a1a	-0.09096165
248	0x3dc6613d	0.096865155
249	0xbb5b254e	-0.0033438983
250	0x3c8e6005	0.01737977
251	0x3e11f4e3	0.14253573
252	0xbdc7f849	-0.097641535
253	0xbe362847	-0.17788802
254	0xbcc39afe	-0.023877617
255	0x3e0c22da	0.1368517

rnn.weight_hh_l1 f4 [256, 64]
0	0x3ca1964a	0.019724984
1	0x3d2194a1	0.039448384
2	0xbd4bf0a5	-0.049790043
3	0xbcb9eca5	-0.022695849
4	0x3df5f429	0.120094605
5	0x3c140386	0.009034043
6	0x3dc409d5	0.09572188
7	0xbd387e6f	-0.04504245
8	0xbdd69b5b	-0.104788505
9	0xbd51fd08	-0.0512667
10	0xbde427d3	-0.11140408
11	0x3bac5ee5	0.0052603357
12	0xbcb5052c	-0.022097193
13	0x3d5283bf	0.051395174
14	0x3d8e6866	0.06953506
15	0x3dd79e79	0.10528273
16	0xbd95c174	-0.07312289
17	0x3d82e0a0	0.063905
18	0xbd5c8b2b	-0.05384366
19	0xbd4aac11	-0.0494805
20	0xbdb46ccf	-0.08809816
21	0x3df6af1d	0.12045119
22	0xbd9baa3f	-0.07600831
23	0xbe281977	-0.16415964
24	0xbd92e77d	-0.07173059
25	0xbe1f705a	-0.15570202
26	0xbd7e3217	-0.06205949
27	0xbd830d60	-0.063990355
28	0xbd7f5652	-0.06233818
29	0xbdd62110	-0.10455525
30	0xbd7f74f6	-0.062367402
31	0x3da80636	0.0820431
32	0xbd38cb74	-0.045115903
33	0x3db4444e	0.088020906
34	0xbc23b06d	-0.009990794
35	0x3daf2e70	0.08553779
36	0x3dcd64c1	0.10028983
37	0xbd70560c	-0.05867581
38	0x3d885055	0.06655947
39	0x3dd4e914	0.103960186
40	0xbcac55e6	-0.021037053
41	0x3d782e41	0.060590986
42	0xbdeb9a7b	-0.11504074
43	0xbd6a83be	-0.057254545
44	0xbdb2b5f2	-0.087261096
45	0x3c95fbb1	0.018308492
46	0xbdd356c8	-0.103192866
47	0x3d79a385	0.06094696
48	0x3e01a607	0.1266099
49	0x3d40d9e7	0.047082808
50	0x3c8ff0f7	0.017570956
51	0x3da7f0c8	0.08200222
52	0x3d8693f5	0.06571189
53	0xbd87438a	-0.06604679
54	0xbdba9df0	-0.091121554
55	0xbd59f91f	-0.053216096
56	0xbc7ea950	-0.015543297
57	0x3d1a9ae9	0.03774539
58	0x3d80f2f9	0.06296343
59	0x3d8ae2eb	0.067815624
60	0x3df1e025	0.1181033
61	0xbdff248a	-0.12458141
62	0xbd063f3f	-0.03277516
63	0x3dd67415	0.1047136
64	0x3d642643	0.05570055
65	0xbc989e7b	-0.018630257
66	0x3ccccb48	0.024999276
67	0x3c5aa37d	0.013344643
68	0xbe041e83	-0.12902264
69	0x3d4d72be	0.050158255
70	0xbd4ca47f	-0.049961563
71	0x3d58b1cf	0.052903946
72	0x3d2ee503	0.04269887
73	0x3d326730	0.04355544
74	0xba1deb4b	-0.0006024136
75	0x3d7a912f	0.061173614
76	0xbdbf3e6f	-0.0933808
77	0x3e15bc63	0.14622645
78	0xbd838da6	-0.06423502
79	0x3d32b861	0.04363287
80	0x3d80dcc4	0.06292108
81	0xbcf60856	-0.030033272
82	0x3dc06da6	0.09395914
83	0x3dc0ef29	0.09420616
84	0x3a57ec25	0.00082367874
85	0x3de35b49	0.11101396
86	0xbc5c46af	-0.013444587
87	0x3d75e4e8	0.060032755
88	0x3d9c94d7	0.076455764
89	0xbd819290	-0.06326783
90	0x3d2c70cd	0.042099763
91	0x3dad2d95	0.0845596
92	0x3db1d95a	0.08684035
93	0x3dcbf82a	0.09959443
94	0xbd9024bd	-0.07038257
95	0xbcc93d26	-0.02456529
96	0x3e170dbf	0.14751337
97	0xbd09aa86	-0.03360989
98	0x3c7cdce0	0.01543352
99	0xbd9a9afa	-0.07549091
100	0xbd1406a9	-0.036139164
101	0xbde62052	-0.11236633
102	0x3d112fc1	0.035445932
103	0x3d07b6b7	0.033133235
104	0xbcdce175	-0.026962975
105	0xbde107e3	-0.109878324
106	0xbdc3b2b1	-0.09555567
107	0x3ddbe1b6	0.1073641
108	0x3d70963a	0.058737017
109	0xbd7dbb18	-0.061946005
110	0x3d5c3fbe	0.053771727
111	0x3d97d190	0.07413018
112	0x3dae55ad	0.08512435
113	0x3d0e7a62	0.034784682
114	0x3dcf8e43	0.10134556
115	0x3daf1c3d	0.08550308
116	0xbd21b155	-0.039475758
117	0x3e0eb895	0.139376
118	0xbd9531a4	-0.07284859
119	0xbdf7c9d4	-0.120990425
120	0xb9be33cc	-0.00036278216
121	0xbb9d0f47	-0.004793081
122	0x3d82c5cc	0.06385383
123	0xbe06ec9b	-0.13176195
124	0x3db9c09a	0.09069939
125	0xbd4aa9f8	-0.0494785
126	0x3d5f86ff	0.0545721
127	0xbda2a67f	-0.07941913
128	0xbcbce307	-0.023057474
129	0xbdc91e77	-0.09820264
130	0xbd0751ea	-0.033037104
131	0xbc64c17e	-0.013962148
132	0xbc8f510e	-0.017494705
133	0xbd8ea006	-0.06964116
134	0xbd38d43a	-0.04512427
135	0x3d416c24	0.04722227
136	0xbdc08647	-0.09400611
137	0x3cf118e5	0.029430816
138	0xbd571003	-0.052505504
139	0x3d683772	0.0566935
140	0xbd11ff2c	-0.03564374
141	0x3d1a172b	0.03761975
142	0xbddf208f	-0.10894882
143	0xbd55e4a9	-0.05222002
144	0x3db4f7a4	0.08836296
145	0x3db76c98	0.089562595
146	0xbd92c528	-0.07166511
147	0xbcd9e7e9	-0.026599841
148	0xbdc6d4c4	-0.097085506
149	0xbd429776	-0.047507726
150	0xbd09a3dc	-0.033603534
151	0x3d88dfac	0.06683287
152	0xbe07952c	-0.13240498
153	0x3c8ea7ae	0.01741394
154	0xbd7f2e86	-0.062300228
155	0x3d8b5dd9	0.068050094
156	0x3d981678	0.074261606
157	0x3c4de7a4	0.012567434
158	0x3d9f2b04	0.077718765
159	0x3d6e81f7	0.058229413
160	0xbc57165b	-0.013127889
161	0xbc9f7465	-0.01946468
162	0x3de5cfea	0.11221297
163	0xbceeaed9	-0.029136108
164	0xbdadfbfe	-0.08495329
165	0xbdf0e47b	-0.11762329
166	0x3dc3f4dd	0.09568188
167	0x3da97a3d	0.08275268
168	0xbd7d3854	-0.061821297
169	0xbd4899f7	-0.048974957
170	0xbdf1e8cd	-0.11811981
171	0x3d50111d	0.05079757
172	0x3d829255	0.06375567
173	0x3c737eea	0.014861802
174	0xbd0ce737	-0.03440019
175	0xbcf6dbf4	-0.030134179
176	0x3db9292a	0.090410545
177	0x3cc6fb13	0.024289643
178	0xbde822ad	-0.11334739
179	0x3c8ada50	0.016949803
180	0x3d878358	0.06616849
181	0x3c6d5af8	0.014487021
182	0xbd982980	-0.074297905
183	0xbe0b69b8	-0.13614547
184	0xbcc5d289	-0.024148243
185	0xbd9554de	-0.07291578
186	0x3e173ad1	0.1476853
187	0x3d9d0ec0	0.07668829
188	0xbd9f3ecb	-0.07775649
189	0xbd8b8bdf	-0.06813788
190	0xbd1f253e	-0.038853876
191	0x3d9ec3c0	0.0775218
192	0x3d9ad0df	0.0755937
193	0x3d86a055	0.0657355
194	0x3df4455b	0.11927291
195	0xbcf6b3be	-0.030115005
196	0xbd75a90c	-0.05997567
197	0xbd8a50a1	-0.0675366
198	0x3d6c6e70	0.05772251
199	0xbe2e6354	-0.17030078
200	0xbc4b71a8	-0.0124172345
201	0x3dbabc0f	0.091179006
202	0x3ad897cc	0.0016524731
203	0xbc045ed4	-0.008079249
204	0x3d786f7a	0.060653187
205	0x3cfe7fa8	0.03106673
206	0xbc92d8ed	-0.017925704
207	0x3de0c56b	0.109751545
208	0x3d8aa917	0.067705326
209	0x3ca76506	0.020433914
210	0x3d6ca7c4	0.05777718
211	0x3d698646	0.05701282
212	0xbd920d5f	-0.071314566
213	0xbde63f96	-0.11242597
214	0x3c8d1a13	0.017224347
215	0xbda6b320	-0.08139634
216	0xbe0df664	-0.13863522
217	0xbe1656aa	-0.14681497
218	0xbdd3b843	-0.103378795
219	0xbc739e93	-0.01486935
220	0x3d5b30e3	0.05351342
221	0xbd10e097	-0.035370436
222	0x3dfb2d52	0.122645035
223	0x3d43ddf7	0.047819104
224	0x3c4ae7bf	0.012384354
225	0x3bbcd56e	0.0057627475
226	0x3dc9dddd	0.0985677
227	0xbb904c8e	-0.0044036573
228	0xbb3b16bb	-0.0028547484
229	0x3d5242b8	0.05133316
230	0xbde2b8bb	-0.11070391
231	0xbd6aa550	-0.05728656
232	0xbb9cc893	-0.0047846525
233	0xbd312b06	-0.04325392
234	0x3d653490	0.05595833
235	0x3d539d83	0.051663887
236	0xbdedb488	-0.11606699
237	0x3cddf70b	0.027095338
238	0x3e003587	0.12520419
239	0x3d90b373	0.07065477
240	0xbcb8338a	-0.022485513
241	0x3da6304b	0.0811468
242	0xbda655f1	-0.08121861
243	0xbd49ed2e	-0.049298458
244	0xbd502685	-0.050817985
245	0xbdda4fd3	-0.106597565
246	0xbe0e5942	-0.13901237
247	0x3c50ffaf	0.012756272
248	0x3d46cd7d	0.048535813
249	0xbde8af0c	-0.113615125
250	0xbbbb94c8	-0.005724523
251	0x3d2e458e	0.0425468
252	0x3c11e097	0.008903644
253	0x3bb6e013	0.005580911
254	0x3de638ed	0.112413265
255	0x3dd254aa	0.10270055

rnn.bias_ih_l1 f4 [256]
0	0x3d02c7b0	0.031928718
1	0xbd8e1757	-0.069380455
2	0x3d16783e	0.036735766
3	0xbd6f3568	-0.05840054
4	0xbcedbbfa	-0.029020298
5	0xbd959475	-0.073037066
6	0x3de00da9	0.109401055
7	0x3d30623c	0.043062434
8	0x3cec08fb	0.028812876
9	0x3df5ba6b	0.11998447
10	0xbc1d08ac	-0.009584587
11	0x3de7fcc2	0.113275066
12	0x3d3b01c1	0.04565597
13	0x3dbc07a5	0.091811456
14	0x3d064ac2	0.03278614
15	0x3e273685	0.16329391
16	0x3cfb1344	0.030648835
17	0x3e17a7ff	0.14810179
18	0xbd84f358	-0.06491727
19	0xbd85a822	-0.065262094
20	0x3d244f52	0.04011471
21	0x3e0a697a	0.13516799
22	0xbc30ff5a	-0.010803068
23	0x3dfd77be	0.12376355
24	0x3e10c50c	0.14137667
25	0xbd72679e	-0.05918085
26	0x3dedb517	0.11606806
27	0xbd8e63a6	-0.069526
28	0x3d22054f	0.039555844
29	0xbc24f412	-0.0100679565
30	0xbd26b671	-0.040701333
31	0xbc9dc2e9	-0.01925798
32	0x3e251734	0.16122133
33	0x3da1b279	0.07895369
34	0x3cbbde33	0.022933101
35	0x3dc10f86	0.09426789
36	0xbcf29327	-0.029611183
37	0x3d1af181	0.037827972
38	0x3daa1741	0.083052166
39	0xbabbe6f1	-0.0014335794
40	0xbc83abec	-0.01607319
41	0x3e14fc75	0.1454943
42	0x3e10bda5	0.14134844
43	0x3db2fd8c	0.087397665
44	0xbda5eb6e	-0.08101545
45	0x3bec3a94	0.0072091315
46	0xbc6fff0c	-0.01464821
47	0xbd1a9a6e	-0.037744932
48	0x3d976325	0.07391957
49	0x3e0b3985	0.1359616
50	0xbd49c40f	-0.04925924
51	0x3e0a4d91	0.13506152
52	0x3dedbbf5	0.116081156
53	0xbd97dfa1	-0.07415701
54	0xbcf5c3ce	-0.030000594
55	0x3dd2fca4	0.103020936
56	0xbcdd8e15	-0.027045289
57	0x3e645e41	0.2230158
58	0x3e042289	0.12903799
59	0x3dc3a0f3	0.09552183
60	0xbd092f09	-0.03349212
61	0xbd578432	-0.052616306
62	0x3e363a88	0.17795765
63	0x3d8041a8	0.06262523
64	0x3da062a5	0.07831315
65	0xbd688d91	-0.056775633
66	0x3caf07e9	0.021366077
67	0xbc8eb9da	-0.017422605
68	0xbd32e99d	-0.043679822
69	0x3cd74819	0.026279496
70	0x3d575e3d	0.052580107
71	0x3d4ee36a	0.050509848
72	0x3ddf2c85	0.10897163
73	0x3d097f55	0.0335687
74	0xbd70a07b	-0.058746796
75	0xbd0b4199	-0.033998106
76	0x3dadc5c6	0.08484988
77	0x3c4a5105	0.012348418
78	0xbd941b92	-0.07231821
79	0xbde3770a	-0.11106689
80	0x3bbc608c	0.005748814
81	0x3dd8ad67	0.10579949
82	0xbd79fcb2	-0.061032005
83	0xbddfbeb6	-0.10925047
84	0x3d66b6d2	0.056326695
85	0xbc211c59	-0.009833419
86	0xbded8bcc	-0.1159893
87	0xbd842add	-0.06453488
88	0xbdab13fc	-0.08353421
89	0x3c264133	0.010147381
90	0xbda62bc0	-0.081138134
91	0x3d91023a	0.07080503
92	0x3cc812e1	0.024423065
93	0x3ce7a461	0.028276624
94	0x3d77aabe	0.060465567
95	0xbe0b6268	-0.13611758
96	0xbdaed79e	-0.085372195
97	0xbd817182	-0.06320478
98	0x3d35ab6b	0.04435293
99	0xbd83ea2d	-0.0644115
100	0xbd2cbead	-0.04217403
101	0x3d8d4749	0.06898362
102	0x3cb5ab30	0.022176355
103	0x3d8dfeea	0.069333866
104	0x3d09ec9b	0.03367291
105	0x3dea5141	0.11441279
106	0x3d96ff5e	0.07372926
107	0x3cabe1ff	0.020981787
108	0xbd877a6c	-0.06615147
109	0x3c611c6c	0.013739686
110	0xbdd6f7ff	-0.1049652
111	0xbdbc7a3f	-0.09203004
112	0xbe129084	-0.14312941
113	0xbdfb98f9	-0.122850366
114	0x3de0ac2b	0.109703384
115	0x3d957d27	0.072992615
116	0xbd8715e8	-0.06595975
117	0xbd3b0c72	-0.045666166
118	0x3d41a4f7	0.047276463
119	0xbdb6af8f	-0.08920204
120	0xbd99d71c	-0.07511732
121	0xbd905c34	-0.07048836
122	0xbd841613	-0.06449523
123	0x3d5fa8ff	0.054604527
124	0x3c6c68e6	0.014429307
125	0xbdfcdb1a	-0.12346478
126	0xbd08c4bd	-0.03339075
127	0xbddcc05f	-0.107788794
128	0x3d675ada	0.056483127
129	0xbdace230	-0.08441579
130	0xbd5a32d0	-0.053271115
131	0x3de291c6	0.1106296
132	0x3dae11b0	0.084994674
133	0xbdbcffb5	-0.0922846
134	0xbdcca0ed	-0.09991632
135	0x3d7a25cb	0.0610712
136	0x3e17cad2	0.14823464
137	0x3d5990bd	0.05311655
138	0xbe0f6e4c	-0.14006919
139	0x3d241e8a	0.040068187
140	0xbd01ea15	-0.03171738
141	0xbe192b5b	-0.14957945
142	0xbdd14594	-0.10218349
143	0xbd943ea7	-0.072385125
144	0xbda2c123	-0.07946994
145	0xbdc98a23	-0.098408006
146	0xbe0ec23d	-0.13941284
147	0x3d29ff6d	0.04150336
148	0xbcfcdf45	-0.030868182
149	0xbd0cb8d2	-0.034355946
150	0x3dd7d641	0.105389126
151	0xbc40ba9c	-0.011763241
152	0x3c6072d5	0.013699253
153	0x3d41a4a7	0.047276165
154	0x3de0db1b	0.10979291
155	0xbd83f300	-0.06442833
156	0xbd1e0611	-0.038580004
157	0xbd76534f	-0.060138043
158	0x3da5a4a7	0.080880456
159	0xbd5336a3	-0.051565778
160	0xbd92d140	-0.071688175
161	0x3c4712db	0.012150492
162	0x3e04b4c3	0.1295958
163	0x3d87bc22	0.0662768
164	0x3db33c32	0.08751716
165	0x3dadb49f	0.08481716
166	0xbda16b3d	-0.07881782
167	0xbd970c00	-0.07375336
168	0xbc78879a	-0.015169049
169	0x3df4a263	0.11945035
170	0x3dc1595a	0.094408706
171	0xbd975932	-0.073900595
172	0xbd8fb5f9	-0.070171304
173	0x3cf143f7	0.029451353
174	0x3d347b7a	0.04406307
175	0xbdd3c7d2	-0.10340847
176	0x3d881c69	0.06646044
177	0xbdaf53d9	-0.085609145
178	0xbd1b15ab	-0.03786246
179	0xbdb8746e	-0.09006582
180	0x3d8f21e2	0.069888845
181	0xbdcaca8e	-0.099019155
182	0xbbb57ddd	-0.0055386857
183	0x3d73314d	0.05937319
184	0x3d69b8cd	0.057061005
185	0x3c9b0214	0.01892189
186	0x3d9e7728	0.07737571
187	0x3cee8c58	0.029119655
188	0xbd5bc31e	-0.053652875
189	0x3d93e494	0.07221332
190	0xbdcc3bc0	-0.09972334
191	0x3a58c821	0.00082695676
192	0x3dd90572	0.10596742
193	0xbdb63187	-0.08896165
194	0xbd7d82c3	-0.061892282
195	0xbbd4dceb	-0.006496062
196	0x3dc721ca	0.097232416
197	0x3d08a548	0.03336075
198	0x3df70869	0.12062151
199	0x3dd78611	0.10523618
200	0xbc3e42be	-0.011612592
201	0x3e171836	0.1475533
202	0x3d89a148	0.06720215
203	0xbbdae41f	-0.006680026
204	0xbd85ee10	-0.065395474
205	0x3c935acf	0.017987637
206	0x3e2c07c5	0.16799839
207	0xbcf4f7dc	-0.029903345
208	0xbdac622a	-0.08417161
209	0xbc9e1fb3	-0.019302225
210	0xbceb8b89	-0.028753059
211	0xbd7f7418	-0.062366575
212	0x3dd31148	0.103060305
213	0x3d3893bb	0.04506276
214	0xbb0f13aa	-0.002183179
215	0xbb553f4b	-0.0032538946
216	0x3db99b41	0.090628155
217	0x3e2f6298	0.17127454
218	0x3e017db2	0.12645605
219	0xbd20ef62	-0.039290793
220	0xbd81adcf	-0.063319795
221	0xbd435c6c	-0.047695562
222	0x3d592c40	0.053020716
223	0xbca611e0	-0.020272195
224	0x3e3a10b0	0.18170428
225	0xbd1d8862	-0.038460143
226	0x3db3b490	0.08774674
227	0x3d65e59f	0.056127187
228	0x3d5cf286	0.053942226
229	0x3dca9339	0.09891362
230	0x3db16a5c	0.086628646
231	0x3d65c42e	0.056095295
232	0x3dce4bfa	0.10073085
233	0xbbffecd4	-0.0078102145
234	0x3de7f158	0.113253295
235	0x3c78b25a	0.015179241
236	0x3ce96e4c	0.028494976
237	0x3d4f44cd	0.050602723
238	0x3d6749a1	0.056466702
239	0x3ce1a577	0.02754472
240	0xbd35b9df	-0.044366714
241	0xbc95a0cd	-0.018265152
242	0x3d9e13e9	0.07718641
243	0xbca35693	-0.019938743
244	0x3a51b528	0.00079997117
245	0x3d1c4aee	0.038157396
246	0xbd50d46d	-0.050983835
247	0xbc42b883	-0.011884811
248	0x3d503aa9	0.050837193
249	0x3dc966fc	0.09834096
250	0xbda8781f	-0.08226036
251	0x3e22aa4d	0.15885277
252	0x3daf13ce	0.08548699
253	0xbb1737d7	-0.0023074055
254	0x3dcdf36e	0.10056196
255	0x3d57e84b	0.052711766
