600036.ss_stock_model.pth (torch, 205359 bytes, 9 tensors)

rnn.weight_ih_l0 f4 [256, 1]
00000000: 25d3 9b3e af8c 603e 0742 1f3e 3886 ae3c
00000010: 289c 523e bcc3 cc3c d924 0d3e 1bd2 523d
00000020: 7e4d 853e 23ce be3c d91e 003e e784 813e
00000030: 822f f33d f7a7 6f3d 55df 403e b704 7b3d
00000040: 2660 013e f86f 353e cdfb 3c3e a5c0 113e
00000050: f878 a73d e5ef 5a3e 092c 0f3d 2680 2e3e
00000060: 53a2 363e a738 443e 123c 163e a78c 623e
00000070: 9187 273d fd1c 643e 3fe2 8b3e 0663 903e
00000080: 7d88 2b3d d737 453e 228e 6b3d cb3a cd3d
00000090: eeb1 333e 2a21 18be c296 663e 6270 20be
000000a0: 60cb e43d 76b4 173c 7316 573e d847 073e
000000b0: 9ff6 5a3d 87f4 d63d bcc1 263e b1ce 0f3e
000000c0: 2489 8e3c 6db9 683e b4cc 603e 0e13 463d
000000d0: c86b 5dbc f5f6 dd3c e9ec 213e bb3c 043e
000000e0: 2cc6 de3d 97cc 263e ab02 d0bd 76c2 f03d
000000f0: ad7b 373e 780e 913d f2fb 503e 300d 323e
00000100: cc9d 4d3e 8fca e53b 3bf5 253e b704 f73d
00000110: 6daa c43d 022c 8bbc 8338 a53c 716a 7d3d
00000120: 700e 043d a35e ef3d d371 3f3e 3fc3 553d
00000130: 6290 193e 4b39 95bd 13d7 893d ecf2 c53d
00000140: 63b8 fe3c 58d3 133e aa22 f43d a7ff 5b3e
00000150: feb8 653c 514d 333e 5659 443e 42e1 3d3e
00000160: b832 b2bc e5f1 66bd 35d4 9f3c 6dd9 113e
00000170: bb70 0c3e 3089 d83b dc03 b9bc e879 e13c
00000180: 4321 203e ae8d 00bd 5d76 523c 446e 093e
00000190: 4c26 2d3c bed7 13be b3db 293e e152 40be
000001a0: 2908 ee3d 7c58 9bbb d9f7 913c 9de3 643d
000001b0: ff6b e43c 2d32 4e3d b5b6 af3d f2ea 163e
000001c0: 8a11 093e c616 273e 8e60 f83d 3531 ff3c
000001d0: e00b 223e c7ec e3bc b7a7 2d3e e2b3 3f3e
000001e0: f4e8 e83d 93ad 093e f839 3dbe 27ea f53d
000001f0: 4712 4a3e 9a44 b93d 15ae 143e bcd8 9f3d
00000200: de4d 493e b1b4 60be ef0a 31be 7853 543e
00000210: 209d 223d 7e89 ffbc f617 423e 6fc0 733e
00000220: e4d3 483d 6c72 17be 02b2 0fbe 8114 63be
00000230: 5d5e 10be b594 98bc ec01 073e bf76 e43d
00000240: 520b 853d 327d 373e f9c1 2abe 97d3 fcbd
00000250: 9dcb 1c3e a456 d7bc 935c 2fbe 69f4 12be
00000260: af96 07be adb3 ee3b e972 41be 783a 283e
00000270: c844 1abe c4a6 14be 3825 37be 9da0 72be
00000280: 3be4 c7bd 3e3d 2b3d 9f33 4e3e 60dc 6fbe
00000290: 721c c53c c92b c6bd 9e5a 42bd 36d3 f83d
000002a0: a936 13be 67fa 4fbd 0764 5c3e c8d3 38be
000002b0: 1387 823d e2f7 6d3e 19dc 0abe d409 a8bd
000002c0: 16e0 12be 5a70 b53d 94c8 85bd 296a 7abd
000002d0: 4c9a 97bc efb6 aebd d0df 4d3e 67c6 163e
000002e0: fecd 68be a4c4 2a3e f128 fb3d 9a9a 42be
000002f0: 36df cdbd a5fe eebd 8702 84bd 6861 fcbd
00000300: 6b39 9e3e d3cd d03d abe2 133e 3a05 3f3e
00000310: 5374 6a3e c841 063d 6088 3f3e 9545 1e3d
00000320: e1ef 243e 9499 4c3e 1779 313e ead7 f23d
00000330: eb0e 3d3e af25 5b3d f018 2c3e b527 f63d
00000340: 0e20 3f3d 96fe c13d 2d02 b43e 790c 603e
00000350: 8f49 3a3d 8dbb 183e b30e 743e 7506 b13d
00000360: f6ca 263e dd3e 01bd f4bb 673e 9e34 163e
00000370: 57b7 683d 1914 7e3d 88cb 0e3e 0269 913e
00000380: a20b dd3c 7c27 873d 4ff9 183e 7f6d d73d
00000390: 4ace 263e 29bc 28be 67b3 293e a0dc 483d
000003a0: 8bc2 153e 0eaa ef3d 14dc e23d 7615 be3c
000003b0: d047 4d3e 89aa 8d3e 975b 023e 7be8 8a3e
000003c0: 92ee 6a3e e6e7 283e 5081 1f3c 9f65 523e
000003d0: 9666 293e 171f 653e 4b75 043e c8b9 df3d
000003e0: 1ca4 dc3d 9cba dd3c dfae 123d edde 3b3e
000003f0: 4538 353e 29ea 8d3d e31c 393c 1d50 b23d
0.30434528 0.21928667 0.15552531 0.021304235 0.20567381 0.024995677 0.13783588 0.051469903
0.26035684 0.023291653 0.12511767 0.2529671 0.11874296 0.058509793 0.18835194 0.061283793
0.12634334 0.17718494 0.1845543 0.14233644 0.0817737 0.21380575 0.034954105 0.17041072
0.1783536 0.19162236 0.14671353 0.22123967 0.04090077 0.22276683 0.2732105 0.2820055
0.041878212 0.19259582 0.057508595 0.100209795 0.17548344 -0.14856401 0.22518447 -0.1566787
0.11171603 0.009259334 0.21004657 0.13211 0.053457852 0.10495859 0.16284841 0.1404369
0.017399378 0.22726984 0.21953088 0.048358016 -0.013514467 0.027095297 0.1581303 0.12913792
0.10877642 0.16288982 -0.10156759 0.117558405 0.17918272 0.07082838 0.2040861 0.17387843
0.20079726 0.0070126723 0.16206829 0.12061446 0.09602819 -0.016988758 0.020168548 0.06186909
0.03224033 0.116879724 0.18695764 0.052188154 0.14996484 -0.072863184 0.06730475 0.09665474
0.031093782 0.1443609 0.11920674 0.21484242 0.014021156 0.17509963 0.19174704 0.1854296
-0.0217527 -0.056383032 0.019510368 0.14243098 0.13714878 0.006608151 -0.022584848 0.02752395
0.15637688 -0.031385116 0.012845603 0.13420969 0.010568213 -0.14437768 0.16587715 -0.18781616
0.1162265 -0.004740773 0.017818378 0.05588113 0.027883528 0.05034082 0.085797705 0.14738062
0.13385597 0.16317281 0.12127791 0.031151393 0.15824842 -0.027822865 0.1695851 0.18720964
0.11372557 0.1344512 -0.18479145 0.12007552 0.19733535 0.09046288 0.14519532 0.07805011
0.1965861 -0.21943928 -0.17289327 0.20734966 0.039700627 -0.031193491 0.18954453 0.23803876
0.0490302 -0.14789742 -0.14032748 -0.2217579 -0.14098497 -0.018625597 0.13184327 0.111554615
0.064963 0.17918852 -0.16675557 -0.12345045 0.15312047 -0.02628643 -0.17125158 -0.14351048
-0.13241075 0.0072846026 -0.18891491 0.16428554 -0.150653 -0.14516741 -0.17885292 -0.23694082
-0.097603284 0.041806452 0.2013688 -0.2342391 0.024061415 -0.0967632 -0.0474497 0.1214966
-0.1437632 -0.05077591 0.21522532 -0.18049538 0.063734196 0.23239091 -0.13560523 -0.082049996
-0.14343295 0.0885932 -0.06532398 -0.0611364 -0.018506192 -0.085309856 0.20104909 0.14724122
-0.2273483 0.16676575 0.12263668 -0.19004288 -0.1005234 -0.11669663 -0.064457946 -0.12323266
0.3090318 0.10195508 0.14441936 0.18654338 0.22895937 0.032777578 0.18704367 0.038640577
0.16107132 0.1998046 0.17331348 0.118575886 0.18462722 0.053502735 0.16806388 0.12019292
0.04666143 0.094723865 0.3515791 0.21879758 0.045480307 0.14915295 0.23833732 0.0864381
0.16288361 -0.03155409 0.22630292 0.1466851 0.05681547 0.062030885 0.13944829 0.28400427
0.026983086 0.06599328 0.14938854 0.105189316 0.1628963 -0.16478027 0.16572343 0.04903853
0.14624994 0.11702357 0.11077133 0.023203593 0.20046926 0.2766917 0.12730251 0.27130494
0.2294257 0.16494712 0.00973542 0.20546578 0.1654304 0.22375141 0.12935369 0.10924107
0.10773489 0.027066521 0.0358113 0.18346758 0.17697246 0.06929428 0.011298391 0.08706687

rnn.weight_hh_l0 f4 [256, 64]
00000000: f892 483c 086d 0cbe 171e 0bbe 08cb 163e
00000010: 005b c63d 37f3 5abe 66d1 473e c272 943d
00000020: c4ea 333e 9ccf d5bc 3568 04be 154f f43b
00000030: 8b16 20be 034d 30be 6bc7 103d 785f 4f3e
00000040: d5ff c3bd 87c4 243e a463 1b3c 8ade 62bd
00000050: e65d cb3d e041 353b 8271 54bd 5c93 e13b
00000060: 37a9 f9bd d8f2 21be a51f 08be 3c27 333e
00000070: b2cc 0bbe e892 3bbe eaf3 28be 5a8a 96bd
00000080: fac2 bbbd 420f 603e 0ffa 223e d855 793b
00000090: 1f37 3e3e 3677 633e bd55 3bbe d7d5 5bbe
000000a0: 76c6 cfbc 69a7 30bd c627 3f3d 2711 28be
000000b0: 0937 5e3e f6b6 76bd d9f6 0cbd fc59 63be
000000c0: 6f2c 23be c4aa 5e3e b249 4fbc ea50 62bd
000000d0: eeee c2bd a8ed d4bd b63c 763d 6b51 a03d
000000e0: 9e39 adbb 77ea 603d a9a2 27be 0f8b 57bd
000000f0: d95a d8bd ce99 aebd e2a4 0a3c d0d5 1e3c
00000100: 2aef 003d 8f8b 40bd 6469 81bd bc0e d73b
00000110: 939c 203e 5b1b 14bb 5186 733c 16a0 d73c
00000120: 3b33 663d e0b4 00be 01ff 21bd a5c0 1f3d
00000130: 4696 ba3c 102f 20bd 29aa e93d a32c 54bd
00000140: 481e b5bd 771e 0a3e bff4 00bd 581d c6bd
00000150: ce0c 143e 9812 dfbc f4ea dfbd 1979 a53c
00000160: 8dc3 a6bd b8b2 05be a7d6 b7bd 6802 253e
00000170: 8fd8 8f3d 9567 c3bd a47d 983c fe31 dbbd
00000180: 9ac0 c5bc b513 7cbc 4e78 ec3d b778 a9bd
00000190: 5cff 43bd e0c5 023d 8f25 623c 22e8 163e
000001a0: d098 3ebb 376d d5bd 0514 543d 1fb5 a9bd
000001b0: e6b0 3fbd 9755 1d3d f178 eebd c161 e4bd
000001c0: 1f0e 853c 3653 ca3d 61ba d0bc a49e 05bd
000001d0: 3269 72bc bafc cabd 9976 1d3e 4832 57bd
000001e0: 699a 16be 9e58 e73c 4bcf 103d bbc9 1e3c
000001f0: a363 05be 37cf 533c 2414 8f3d 5a4d 20bd
00000200: d2b8 f03d cb9f 9bbc 1743 33bd 8493 263d
00000210: 9d72 973d f40f febd 7abd 45bd d1f9 8b3c
00000220: b6f3 80bd 85c2 1cbd f8ee 60bd eb43 6bbd
00000230: c0ce 0cbe e5fe d53d e0fd 50bd 625e 803d
00000240: 91ba 14bd 994e 9abd 10d7 263c c031 91bc
00000250: 58b8 be3d 2ca2 e43d 0cb2 0abd 3455 8a3d
00000260: 7154 c03d 0d71 f13c a574 0abe 496a abbd
00000270: 6b04 d43c 159d 00be 4a12 16be b8d3 453c
00000280: ede8 483d 1c37 ae3c f34d 9b3c d9fa 26be
00000290: 0457 2cbd 6cbd 80bc 0d80 a5bd 49df d7bc
000002a0: 6006 bfbd 66c6 4dbd bb22 52bd 567a 87bd
000002b0: f0fc db3d e322 ba3d 76f6 02be 63b4 b83d
000002c0: 94af eebd a5a1 61bb 9da5 e9bd aaa3 e43d
000002d0: 3955 aa3c 85c0 843d 8873 e63d 25ba 2f3c
000002e0: 33bb 0dbe 5023 b43d d237 1c3e cb5a 67bd
000002f0: 7c38 e93c cba7 1c3c ac85 34bd 5f5d 6bbd
00000300: b2e6 a538 bc5a 96bd b9d5 fbbd 9ac9 6d3c
00000310: beb1 f83d 4caa 34bd f054 6dbd 05af a83d
00000320: 9d58 f4bd ab33 cfbd f00a 87bc 294a 1abe
00000330: af59 b83b ec9c 83bd 5907 f63c 629b c0bc
00000340: 9f31 be3d 6339 32bd 7392 d7bd 09b1 c93a
00000350: 37d7 62bc 4653 e23d 0659 a7bd 6417 de3c
00000360: f1b5 793c e69a 0b3e d7c5 04be f7b0 dc3b
00000370: 0d5b cabd bd7a f7bd d7a7 f8bd 23bf b2bd
00000380: 7552 5abd b723 e4bd ddb0 153e f352 a0bd
00000390: b539 a8bd 2da9 30bd d1cd 65bd 9d21 57bc
000003a0: d0b2 473b 96f1 133d 82e4 6b3d 8596 0fbe
000003b0: c053 b43d 3793 d2bc bc9a 6ebd 2e85 abbd
000003c0: 3629 02be c73a 043e 8b23 df3d eaff 07be
000003d0: b4f4 c13c c693 e9bd 5d53 ebbb 8477 023e
000003e0: 0b8c 333d b473 85bd 0079 3dbd 417c 6e3c
000003f0: 0975 983c 1234 33bd ce8f 623a 2b27 7c3d
0.012242071 -0.13713467 -0.13585697 0.14725888 0.096853256 -0.21381842 0.19513473 0.07248451
0.17570025 -0.026099972 -0.12930377 0.0074557164 -0.156336 -0.17216878 0.03534643 0.20251262
-0.095702805 0.16090594 0.009484205 -0.05538801 0.09930019 0.0027657673 -0.051866062 0.0068840217
-0.12190478 -0.15815294 -0.13293321 0.17495435 -0.13652304 -0.18317759 -0.16499296 -0.07350607
-0.09168048 0.2188082 0.15915702 0.0038045552 0.18575715 0.22213444 -0.18294425 -0.21468292
-0.025363188 -0.043128405 0.04666879 -0.16412793 0.21700682 -0.06023308 -0.0344151 -0.22202295
-0.15934919 0.2174483 -0.012651848 -0.055252947 -0.095182285 -0.10396892 0.060116492 0.07828029
-0.0052864095 0.054911103 -0.16370644 -0.05262285 -0.10564203 -0.0852543 0.008462163 0.009694532
0.031478085 -0.047008093 -0.0631893 0.006563036 0.15684728 -0.0022599313 0.0148635665 0.026321452
0.0562012 -0.12568998 -0.03954983 0.03900208 0.022776734 -0.039107382 0.114094086 -0.05180038
-0.08843666 0.13488184 -0.031483408 -0.096735656 0.1445801 -0.027230546 -0.109334856 0.020199345
-0.08142767 -0.13056457 -0.089764886 0.16114199 0.07023727 -0.09541241 0.018614598 -0.10702895
-0.024139691 -0.015385558 0.11546384 -0.08274978 -0.04785095 0.03192699 0.0138029 0.14736989
-0.0029082783 -0.10421222 0.051776905 -0.08286499 -0.046799563 0.038411703 -0.116441615 -0.111514576
0.016242085 0.098791525 -0.025479497 -0.032621995 -0.014795588 -0.09911485 0.15377273 -0.052538186
-0.1470734 0.028240498 0.03535394 0.009691651 -0.1302629 0.012927822 0.069862634 -0.03913627
0.11754002 -0.018997094 -0.043765154 0.040668026 0.073949076 -0.124053866 -0.048276402 0.017086895
-0.06296484 -0.038271446 -0.0549154 -0.05743782 -0.13750744 0.10449008 -0.051023364 0.06268002
-0.036310736 -0.075345226 0.010183111 -0.017723918 0.093125045 0.11163744 -0.033861205 0.067545325
0.09391106 0.029472852 -0.13521059 -0.08369882 0.025881013 -0.12559922 -0.14655414 0.012074403
0.04905026 0.021266513 0.018958068 -0.16306628 -0.042075172 -0.015715323 -0.080810644 -0.026351588
-0.09327388 -0.050238036 -0.051302653 -0.066151306 0.107416034 0.09088685 -0.1278933 0.09018781
-0.116545826 -0.0034428623 -0.11408541 0.11164029 0.02079259 0.06482033 0.112525046 0.010725533
-0.13840942 0.08795798 0.15255669 -0.05648307 0.028469317 0.009561489 -0.044072792 -0.057462092
7.9107835e-05 -0.07341525 -0.12296624 0.014513398 0.12143277 -0.04410772 -0.05794233 0.08236507
-0.11930964 -0.10117277 -0.016484708 -0.15067352 0.0056259255 -0.06426415 0.0300328 -0.023511592
0.09286808 -0.04351176 -0.1052598 0.0015387844 -0.0138452565 0.110510394 -0.08171277 0.027110763
0.015241132 0.13633308 -0.12966095 0.006734963 -0.09880648 -0.12083957 -0.12141388 -0.08727863
-0.053301293 -0.111396246 0.14618249 -0.07828321 -0.08214132 -0.04313009 -0.056104485 -0.013130573
0.003047157 0.036119066 0.05759097 -0.14022262 0.088050365 -0.025704963 -0.058253035 -0.083750114
-0.12711033 0.12913047 0.10895451 -0.13281217 0.023676254 -0.11405139 -0.0071815685 0.12740904
0.043834727 -0.06516209 -0.046257973 0.014555992 0.018610494 -0.04375083 0.00086426444 0.06156079

rnn.bias_ih_l0 f4 [256]
00000000: 3a9c 893e b3c9 4a3e 9a4a 6e3d 90a3 cebb
00000010: d0c3 d8bc 6390 0f3c 4c86 833e 0b16 9b3d
00000020: 34c4 583d ef3f c4b9 2c8e f73d 26fb e13b
00000030: ebbd 5a3d 016c d8bc 458e ed3c fe25 d13c
00000040: 8749 43bc bfad e73c 05d7 b73e 3cdd f83b
00000050: f01a 66bc e7f9 033e fd3b 203e 3845 0f3e
00000060: 2305 e43d 682c b2bc 2da1 0b3e 0dd3 293e
00000070: 8ff6 c5bc 3ce7 1b3b 140c 913d 3ceb 9a3d
00000080: 705e 873d 51fa e93d bcd0 1b3e 52d0 f43d
00000090: c800 a53d 9fe8 c43d a9c5 5d3d 54cf bc3d
000000a0: 2bbe bf3d 498c 2f3d fcd3 e53d 214a 123c
000000b0: cc34 2b3e d6ac 4a3e 1f7d 313d 3fba f53d
000000c0: f345 8a3d 50b1 af3d 02cb f83d 3c04 3fbd
000000d0: aaf9 cfbb 6743 b33d b14f 8c3e 4254 90bd
000000e0: 1767 373d 18b6 163d 9d74 7abc 6fac d8bc
000000f0: ae4a 85bb d2ff 053d 6cb6 42bd 1e37 adbc
00000100: 96f1 6e3c 5bd4 313d 2797 00bc a29e 1abd
00000110: 3ac4 e7bb 9dbe 08be fe0c e63b 4511 c1bd
00000120: 086b e1bd 44f0 ddbd 3ead f23b b803 0e3d
00000130: 9229 7b3d 0fcd 23bd 3d90 193d d313 913b
00000140: 5b01 073d c497 b13d c90e 7cbc 46e3 6cbd
00000150: dd20 f7bc 7b78 14be 417b 733d 8266 efbc
00000160: e32d 143d 2367 823c 3cbf f23d 8f9a 273c
00000170: 0668 84bc 8003 b03d 7ba1 39bd 0962 bc3d
00000180: 01d0 50bd 5245 753d a830 c13c 52d4 3e3e
00000190: 69cc 263c 26d3 31ba 2ef9 8cbd 1e5a b13d
000001a0: 011e 65bd 07ed b3bd 779d d6bd f647 d93d
000001b0: fe06 553c 80f0 0bbc d20e 963d ecee 79bd
000001c0: 9757 023e e4bf 5c3d 540f 443d 0836 903c
000001d0: 37a8 00be a061 a33d d653 8b3d e2bd dc3d
000001e0: 0505 8ebc 9133 afbd ed9e ae3d d658 f03b
000001f0: 5ecc afbd 6886 0ebe e208 8fbd bfe4 b4bd
00000200: a9a8 913c f7e5 1d3c c796 a6bd 60eb 0c3e
00000210: 0a9e ce3d 1fde 14bd 4044 d03d 760b e43d
00000220: dd75 303c 6aa4 c0bd a4bb edbc c4f9 07bd
00000230: 010f 0dbd ec90 27be 8c8f dc3d 8a19 d93d
00000240: 7ca0 87bc 95ad 493d 2468 86bd 7b06 e23c
00000250: af84 dd3d 6c56 adbd 9ecb 04be e7c8 933d
00000260: 7847 16be 12e1 b03c a511 99bd e000 01bc
00000270: 7350 1dbe ac32 c7bc 92c0 f4bd 3d7e e93c
00000280: 4478 e8bd 6616 253c ec90 993d 16f7 363d
00000290: 088c a93d b43e d73d d0b1 9bbd 7c84 c73c
000002a0: 1236 87bd e44d c1bd 6c41 73bd 98b0 2b3d
000002b0: 94a2 e23d 861e 613d 3272 9abd 8a2e 85bd
000002c0: 6298 143d 250d 113d a254 1e3d 5d35 e0bd
000002d0: 13db 0cbe 6271 4f3d 1b3f a43d c352 8a3d
000002e0: 1fd4 5d3c 04e1 ea3c e7cf 8cbd 54ba 2f3c
000002f0: 1956 acbd e72b abbd 1fb6 d0bd 212d c8bc
00000300: b966 7e3d bc87 873a fb12 383e 1d22 e03d
00000310: 63f0 b2bd 76d7 1f3d a923 2f3e 0154 b03d
00000320: f32a c23d 7c00 243e eb86 be3d b0fe 5cbc
00000330: 24ac 173e 1a36 2ebd 0972 333d 3ae9 e83c
00000340: d434 c7bc eba6 1f3e 93ed 793e 8b40 a6bc
00000350: fb45 de3d d522 153e 9808 31bd 9ffe 163e
00000360: dfa9 5abd 92dc 873d d9be 073e c9c3 b43d
00000370: 7deb 173e 2629 7bbd 95fd 253e 652d 2d3d
00000380: 0548 58bb 5bd9 a2bc f55e b93d 0660 ba3d
00000390: f229 9fbd b128 b83c f99c df3c 6f29 f13d
000003a0: 8362 b53d e33f 8bbb a498 783e ed2f 573d
000003b0: cf1f e93d 038b 503d a52b 803e b51e ed3d
000003c0: e537 e9bc 673a 093d ac5d 223e efa0 d63d
000003d0: 4f98 d53d 4770 d4bb f0e0 4e3e d216 663c
000003e0: 4f5b 153e 83dc b1bc b2ab 473e 18ed 2c3e
000003f0: b3a8 05bc 1f16 a4bd fd11 b83d 15fe 6d3d
0.26877004 0.19803505 0.058176614 -0.0063061193 -0.026460558 0.008762452 0.25688398 0.07572564
0.05292149 -0.00037431667 0.12087664 0.0068963943 0.053403776 -0.026418688 0.028998503 0.025530811
-0.011919386 0.02828109 0.35906234 0.0075947326 -0.014044508 0.12888299 0.15647884 0.13991249
0.11133792 -0.02174969 0.13635702 0.16584416 -0.02416542 0.002378895 0.07082382 0.07564399
0.066098094 0.11424697 0.15216345 0.119537964 0.0805679 0.096146815 0.05414358 0.09219232
0.093624435 0.042858396 0.112220734 0.0089288065 0.16719359 0.19792494 0.043332215 0.11998414
0.06751623 0.085787416 0.12148096 -0.046634898 -0.006346901 0.0875309 0.2740455 -0.07047321
0.04477605 0.036794752 -0.015286592 -0.02644941 -0.0040677404 0.032714672 -0.047537252 -0.021144446
0.014583966 0.04341541 -0.0078485375 -0.03774894 -0.0070729526 -0.13353963 0.0070205918 -0.09427122
-0.11006743 -0.10836843 0.007405906 0.034671515 0.06131894 -0.03999048 0.037491072 0.004427412
0.032960277 0.08671525 -0.015384384 -0.057833932 -0.030167038 -0.14499085 0.059443716 -0.029223684
0.036176573 0.01591832 0.11852881 0.010229721 -0.016162883 0.085944176 -0.045320015 0.09198386
-0.050979618 0.059880562 0.023582771 0.18635681 0.010180571 -0.0006783478 -0.06883465 0.086597666
-0.055936817 -0.08785444 -0.10479253 0.106094286 0.013002155 -0.008541226 0.073270455 -0.06101887
0.12728725 0.05389394 0.04786618 0.01760389 -0.12564169 0.07977605 0.068031 0.10778405
-0.017336378 -0.085547574 0.085264064 0.007334809 -0.08583902 -0.1391846 -0.06984116 -0.08832692
0.017780619 0.009637347 -0.08134227 0.13761663 0.10088737 -0.036344644 0.10169268 0.111349985
0.010770288 -0.094063595 -0.029020138 -0.03319718 -0.034438137 -0.16363877 0.10769567 0.10600574
-0.016556017 0.049237806 -0.06562832 0.02759098 0.10816323 -0.08463749 -0.12968299 0.072160535
-0.146757 0.021591697 -0.074740686 -0.007873744 -0.1536272 -0.024316154 -0.11950792 0.028502578
-0.11351064 0.010076141 0.07498345 0.044669233 0.08278662 0.105100065 -0.076022744 0.024355166
-0.0660211 -0.094386846 -0.059388563 0.04191646 0.110661656 0.05496075 -0.07541312 -0.06503017
0.036278136 0.035412926 0.03865493 -0.10947678 -0.13755445 0.05064524 0.08019849 0.06754067
0.013539343 0.028671749 -0.06875592 0.010725576 -0.08414859 -0.08357983 -0.10190987 -0.024435582
0.062109683 0.0010340135 0.1797599 0.109440066 -0.087372564 0.03902384 0.17103447 0.086097725
0.09480848 0.1601581 0.09303077 -0.013488457 0.1481176 -0.042532064 0.043809924 0.028431524
-0.024317183 0.15591018 0.24407034 -0.020294448 0.108531915 0.14564069 -0.043221086 0.14745568
-0.053384658 0.06633867 0.13256396 0.088264056 0.14835925 -0.06131854 0.16210015 0.04227962
-0.0033001911 -0.019879034 0.09051315 0.09100346 -0.07771672 0.02248034 0.02729653 0.11775481
0.0885668 -0.0042495592 0.24276978 0.05253594 0.1138302 0.050913822 0.25033298 0.115781225
-0.028469035 0.033502962 0.15856045 0.104799144 0.10429441 -0.006483111 0.20202994 0.014043527
0.14585613 -0.021711593 0.1949909 0.16887319 -0.008157897 -0.08012032 0.08987806 0.05810364

rnn.bias_hh_l0 f4 [256]
00000000: 15d6 353e 4182 243e f88e 5e3d c3ef da3d
00000010: 6aed 15bc a358 89bd 93a6 363e b42c 3e3d
00000020: 516e 4b3c b199 9a3d 3e05 68bd 1e14 0e3e
00000030: 981e 7dbd f892 753d e949 593d 4633 293e
00000040: cd47 0c3d 2f40 3b3d c736 743e 44bf 0f3d
00000050: ea99 7e3d df20 3a3d 1b0a 23bd 27df 62bd
00000060: 9965 ad3c 41e0 123e c937 083d b59d 943a
00000070: a87c 113d 086c 243e 48b6 103e 5e81 693c
00000080: a82d bc3d e98b 853d a148 093d 4615 8b3e
00000090: b05f e6bc 8f8f 093e 3db4 d63d 87ce 423d
000000a0: 8376 9a3d 357a c93c aad6 823c 0093 b73d
000000b0: 69ee 063d 1985 18bc d545 813e c904 9b3c
000000c0: 4a7b 06bc 900f eb3d 5a4c aa3c b417 7d3c
000000d0: ca31 0b3e be98 5fbd d2a3 163e bad0 a73d
000000e0: 9b77 8e3d 34cf 6b3a 2e84 8bbc 8949 11bd
000000f0: 14fd 83bd beb2 9d3c ec7e abbc 83a8 8abd
00000100: 5419 39bd 4ee9 763d a6dc 31ba a61d aa3d
00000110: 8b99 0bbd bfbb 11be 5a5e b03c c35a 3fbd
00000120: 55aa 30be 2e52 88bc a4d1 8c3d 0ff3 4a3d
00000130: 1ef0 ed3d ce69 cdbd bad9 c43c 2409 bd3d
00000140: 86d8 ccbd 3dbf 49bd 0ad7 b43d 240f e43d
00000150: 914d 953d ef29 ba3d 0337 993d bdbd 33bc
00000160: 5ffa 123d 6906 1bbe eb37 b53d 5dae d23d
00000170: ef2d 00be 2130 c63d ca95 04bc ad3e a6bd
00000180: ad20 15bc aee8 90bd 78c5 ffbd 5028 62bc
00000190: b605 abbc df81 393d 80a5 98bd 1788 6dbc
000001a0: 55e3 a3bd c124 143d 4d3e af3d 24fd da3d
000001b0: 1a05 083d 56fd c73d 46eb ae3d 20f3 5abd
000001c0: 6190 26bd dbe2 b8bd a5ff f43c 6e90 c1bd
000001d0: 705c 98bd 645d a03d 6f64 2abd cd1c 1d3d
000001e0: 9536 b83d 4e2c ea3b d8e2 b5bc 3f37 c53d
000001f0: 5921 46bd 434b 423c 37d0 79bd 2c02 ef3d
00000200: bfcc f43c b08f b2bd 53c3 3abd 0796 473d
00000210: e235 c83d d2b6 19be 8a20 22bd ff92 94bd
00000220: 9f0b 313e 84d9 a4bd e8fc f8bd 466c 42bd
00000230: ac16 24bd 22fc eebc 8b3d afbc 0a20 1cbd
00000240: 2559 1bbe 07d9 d83d 17b3 4c3d a2d2 01be
00000250: 2c73 1c3e d71d 2dbd 3806 a93c 887d f9bd
00000260: 031e 84bd 11c3 1cbe 0e20 573d 289c d13d
00000270: 83ad 01be 784d 11be 7743 883d 0ba7 8bbd
00000280: ad70 18be a0c8 0b3e 89fa bdbc bc62 163c
00000290: aa63 ea3d 4e66 a03d 2672 92bd 57ab d3bd
000002a0: a698 c6bd 9487 0fbe f206 cd3d 27c0 a8bd
000002b0: beea 123e 2980 933a 07a6 c43d 98eb cebd
000002c0: 7e49 e1bd f6ce 5c3d 378b 20be e310 0cbd
000002d0: 58f5 96bd 0cbc 1abe f454 89bd 5e1a dd3d
000002e0: 3b54 0bbe d6eb bf3d 95f2 edbd 5073 93bd
000002f0: 2abd efbd 4d5b c9bd ce4e 08be 8c2f edbd
00000300: f045 823d f1f2 b6bc 50ef 2f3e ab91 e73d
00000310: 3115 d53c 3726 ed3d a3f2 823d 4b74 9b3d
00000320: 3a0d 7a3e 802b 183e 44d1 1d3e e635 e23d
00000330: 5bd2 4a3d ff1c fdbb 37eb 153e 38b2 a93d
00000340: 436f 09bd 471e 3dbc b875 983e 7107 2c3e
00000350: a2b7 5bbc 8619 033d 4247 fb3d 701c c0bc
00000360: 058c 8fbd c82c c33d 3898 11bc 262f 963d
00000370: 5920 dc3d e373 303e 5ab9 033e d4c1 b53d
00000380: e39b ec3d bb16 a53c 2e96 fbbc 9d10 a53d
00000390: 63ef d8bc 7863 8bbb b7fd 163e 0d39 063c
000003a0: b621 9c3d 9a44 c93d d4f1 053e a21f b93d
000003b0: 9d9c a63d ff22 a13d 99c6 0a3e 2c3c 9b3c
000003c0: 3f1d 4b3b fcf6 c73d 8800 18bd 8210 70bd
000003d0: e58b cb3d 3738 03bd ce81 e83d acfd 043e
000003e0: db1c 55bc 320a aa3c 265a d03d aa1c ee3d
000003f0: 5b35 613d 4b37 6bba 721c c7bc 504d f2bc
0.17757447 0.16065313 0.054335564 0.10690262 -0.009150842 -0.06706359 0.1783698 0.04642935
0.012416438 0.075488456 -0.056645624 0.13874862 -0.061796755 0.059954613 0.053049 0.16523466
0.034248162 0.045715507 0.23849021 0.035094514 0.062158503 0.045441505 -0.03980456 -0.055388596
0.02116661 0.14343359 0.033256326 0.0011338504 0.035519272 0.16056836 0.14132035 0.014252035
0.09188396 0.06520826 0.03351653 0.27164668 -0.0281218 0.1343367 0.104835965 0.04756024
0.075421356 0.024594406 0.0159715 0.08963585 0.03294221 -0.009309077 0.2524859 0.01892318
-0.008208105 0.11477578 0.02078836 0.015447546 0.13593212 -0.054589026 0.1471093 0.08194108
0.06956407 0.0008995414 -0.017030802 -0.03547052 -0.06444755 0.01925027 -0.020934545 -0.06770422
-0.04519017 0.06028109 -0.00067848933 0.08306436 -0.034081977 -0.14231776 0.021529365 -0.046717416
-0.17252477 -0.016640749 0.06875923 0.049548205 0.11618064 -0.10029946 0.024029601 0.09230259
-0.10002236 -0.049254645 0.08830078 0.111357 0.07290185 0.090900294 0.07481196 -0.01097053
0.035883304 -0.15139164 0.08848556 0.102871634 -0.12517522 0.096771486 -0.008092353 -0.08117423
-0.009102029 -0.0707563 -0.12488836 -0.013803557 -0.020876747 0.04528987 -0.074534416 -0.014497778
-0.080023445 0.036167864 0.08556805 0.10692814 0.03320799 0.09765117 0.085409686 -0.05345452
-0.040665034 -0.09027644 0.029907057 -0.09451376 -0.07439506 0.07830313 -0.041599687 0.038357545
0.08994786 0.007146395 -0.022202894 0.09629678 -0.048371647 0.011858764 -0.060989585 0.11670336
0.029882787 -0.087188125 -0.045596432 0.04872706 0.09775902 -0.15011147 -0.039581813 -0.072546
0.1728959 -0.080493 -0.12157613 -0.04746654 -0.040060684 -0.02917296 -0.02139165 -0.038116492
-0.15170725 0.1058827 0.04997548 -0.12678006 0.1527831 -0.042264786 0.020632848 -0.12182146
-0.06451037 -0.15308787 0.052520804 0.102348626 -0.12663846 -0.14189708 0.06653493 -0.0681897
-0.14886732 0.13650751 -0.023190754 0.009178814 0.11444791 0.07832013 -0.07150678 -0.10335415
-0.09697084 -0.14016563 0.1001109 -0.08239775 0.1434736 0.0011253405 0.0960198 -0.1010353
-0.11000346 0.05390831 -0.15678106 -0.034195792 -0.07371014 -0.15110797 -0.06705657 0.10796045
-0.1360635 0.09371154 -0.116185345 -0.071997285 -0.11706002 -0.09831867 -0.13311312 -0.115813345
0.06360996 -0.02233264 0.17181134 0.11307081 0.026011081 0.115795545 0.063939355 0.075905405
0.24419108 0.14860344 0.1541186 0.110454366 0.049517017 -0.007724404 0.14640509 0.08285946
-0.033553373 -0.011542863 0.29777312 0.16799714 -0.013410481 0.032006763 0.12269451 -0.02345106
-0.070091285 0.09530026 -0.008886389 0.073332116 0.10748357 0.17231707 0.12863675 0.088748604
0.115531705 0.02015244 -0.03071126 0.08059809 -0.026481336 -0.004253801 0.14745222 0.008192313
0.07623617 0.09827538 0.13080531 0.090392366 0.0813534 0.07868003 0.13552321 0.01894959
0.0030992774 0.097639054 -0.03710988 -0.058609493 0.09938792 -0.032036033 0.11352883 0.12987393
-0.013007368 0.020756815 0.101734444 0.11626561 0.054982524 -0.0008972778 -0.024305556 -0.029577881

rnn.weight_ih_l1 f4 [256, 64]
00000000: 80f6 0abe 8d08 8e3d 21c6 ae3d 8968 bf3d
00000010: c7e5 19b9 9306 c1bd 987d 583d f07a 213d
00000020: b481 d13d d2c7 903d b14a 6f3d 0909 bfbc
00000030: 2242 20bb 4070 4d3d f8d9 f13d 3bc3 c3bd
00000040: f9b6 60bd 0b03 e43d d82e c13d c59c c7bc
00000050: 54dd 43bc 8e5c 733d d1b3 c73d 58fd d83c
00000060: 6c80 c8bd 894e e4bc a7e6 453d 5bc9 2ebd
00000070: 763c 44bd 0b8f 873d 4174 5ebd 00e8 14bd
00000080: 0b6f d9bd 3724 0abd a30b 733c 5fb8 943d
00000090: 2123 c93d dc3e 973d c426 32bd 2c0e d8bc
000000a0: 6c49 063d cb56 17bd ac60 a1bd ba2b a5bc
000000b0: bc76 023d 77cd 90bd b807 80bd fb8f 803d
000000c0: bdeb 3dbd 8cd6 793d 69ef c73d 5142 abbd
000000d0: ebd2 f03b b21b 8fbd 1546 e43d 6b89 673d
000000e0: 86bf abbd c83e a53d 4a0f d5bd ca8e 063c
000000f0: b8c8 9cbd d6a5 e4bd 5ce5 473d e643 9dbd
00000100: 6a35 7b3e b521 03be 9d7e 17be aef2 af3d
00000110: 527b 3bbd b44a b5bd dd2d fe3c 8b19 e23c
00000120: 8a7c f5bc d86a 1e3d f004 1cbe a6b6 cdbc
00000130: 494e ecbd 9964 a83d 8521 b13d 864d 5b3d
00000140: 9e31 7b3d 1246 093e 3cac 8bbe e436 c2bd
00000150: 4276 e23b 1f65 a33d c750 183d b3a0 e6bd
00000160: e64a 9a3d dd34 0abe 326f c9bd d33b bf3d
00000170: 2dfb 5c3d 9674 8d3c 853f 2cbe 91c2 a1ba
00000180: 69ba 733d cae8 31bd 8746 85bc bfc2 00be
00000190: 2dd5 5bbb 77f5 0cbb a593 11be 12fe fb3d
000001a0: b8fd 31be a926 783d 2049 4a3e 3dd8 7fbd
000001b0: 23ac 97bc 13ce fa3d 83c5 28be e4ae 53bd
000001c0: 497b b7bd c470 1d3e 1dfd ecbd 3d88 26be
000001d0: 077f 00be e7f7 07be cb5d 833e 60a8 84bd
000001e0: 8e49 23be f551 e6bc 7a7c dc3c f5e0 d5bc
000001f0: 397d e8bd 1337 7d3b 6031 103d ce18 7bbd
00000200: 2a8c d8bc 3ebb 5bbd 637a 22bd 6b92 183b
00000210: 5e10 cf3d e2bc ffbc 4cb5 423e 0273 b43c
00000220: f8d1 173e 3c6b b5bd 3708 ce3d db14 f2bd
00000230: 57c6 02be ece4 09be d46e ec3c 0b61 1a3e
00000240: 2e19 2c3d 5947 a3bd 4cec 753d 7a7f 96bc
00000250: 25d9 8dbd 43dc e2bd 34bd 7e3c 8752 a03d
00000260: 666f 08be df58 1e3d dd45 47bd 6f05 b4bc
00000270: 1b0b 3a3d dc42 a33d 9327 b93c c28c 47be
00000280: b978 7f3c 65c0 afbd cf32 c9bd 1832 d8bd
00000290: a03e d6bd 41e3 193d 5440 493d 1b69 c3bd
000002a0: 5823 f0bd 60fc 4c3a b4d1 3dbd 05cb 303d
000002b0: 7b49 023e fbf9 283e 4b4b b23d db69 2cbe
000002c0: 6def 08bd cb45 203e 2ee5 6dbd 1904 05be
000002d0: fdac c1bd 0a87 eebd dd02 9b3d 9ba7 1e3d
000002e0: d3bf 42bc 9623 f73d 190f fabd b154 25be
000002f0: 44ca 5c3d 97e2 79bd 336a 4ebc f4ed 06be
00000300: e25d 8f3e 0c06 a5bc e11f 8c3d e29a 86bd
00000310: b30e f43b 165f 1b3d 1bcf f03d df0c be3d
00000320: c034 e23d 5379 bdbd 0841 0dbc 829a d2bd
00000330: 3e2d 21ba c948 c1bc d620 2f3e e183 663c
00000340: 5f78 71bd b915 983d 585e 28be caf3 7fbd
00000350: 1e5c 25bd ed13 a83d eb00 a3bc 8989 a5bd
00000360: 6fbe 0dbe de68 cebd 9f24 f6bc 60e5 8d3c
00000370: b7d4 ddbd 51b4 0fbe 911a 9bbd 45d2 82bd
00000380: d072 f7bc 1507 af3d c0bd 79bc 33c1 2ebe
00000390: ed3f 4b3d 52c0 9d3c a6fd abbc d470 263d
000003a0: 5851 12bd 0108 873c c737 f33d 1c82 b2bd
000003b0: 323a b93d 0f29 4b3e 4d84 32be fcb9 a1bd
000003c0: cee9 c0bc fb45 003e d1c0 123c 63b3 21bc
000003d0: 3484 503d edac 873d e702 233e 5b33 203e
000003e0: a19b 84bd dc55 09bd 0c1a 4dbc 6edb 473d
000003f0: 2ca9 39bd 2297 5cba 477a 7abd 7288 933d
-0.13570595 0.06935225 0.08533884 0.093461104 -0.00014676816 -0.09425082 0.05285415 0.039423883
0.10229817 0.07069363 0.05842084 -0.023319738 -0.002445348 0.050155878 0.11809152 -0.09558722
-0.054861996 0.11133393 0.09432763 -0.024366746 -0.011954624 0.05941444 0.09751094 0.026487991
-0.097901195 -0.02786948 0.04831567 -0.042672496 -0.047909223 0.0661908 -0.054310087 -0.036354065
-0.10616883 -0.033725943 0.014834317 0.072617285 0.098211534 0.07385036 -0.043494 -0.026373945
0.032784864 -0.036948007 -0.07879767 -0.020162452 0.031851515 -0.07070439 -0.06251472 0.06277462
-0.046367396 0.060995623 0.09762461 -0.08362258 0.007349362 -0.06987704 0.111461796 0.056527536
-0.083861396 0.08068615 -0.10403307 0.0082127545 -0.076554716 -0.11164443 0.04880272 -0.07678966
0.24532095 -0.12805827 -0.14794393 0.08591209 -0.045771904 -0.08852139 0.031027729 0.02760007
-0.029966611 0.038676113 -0.15236259 -0.025111508 -0.11538369 0.082223125 0.086489715 0.05354073
0.061326616 0.13405636 -0.27279842 -0.09483126 0.00691107 0.07978272 0.03718641 -0.1126112
0.07533817 -0.13496728 -0.09835662 0.093375824 0.053950477 0.017267507 -0.16821106 -0.001234131
0.059503946 -0.043434896 -0.016268982 -0.1257429 -0.003354381 -0.0021508613 -0.14216478 0.123043194
-0.17381942 0.060583744 0.19754457 -0.06246208 -0.018514698 0.12246337 -0.16481595 -0.05168046
-0.08959062 0.15375048 -0.11571715 -0.16262908 -0.12548457 -0.13278161 0.25657496 -0.064774275
-0.15946028 -0.028115252 0.026914824 -0.026108244 -0.11352009 0.0038637563 0.035203338 -0.061302952
-0.026434023 -0.053645365 -0.0396675 0.0023280631 0.10110544 -0.031217996 0.19014472 0.022027496
0.1482619 -0.08858344 0.100601606 -0.11820384 -0.12770973 -0.13466233 0.02886144 0.15076081
0.0420162 -0.07972593 0.060039803 -0.018371332 -0.06926183 -0.11077168 0.015548039 0.07828241
-0.13323745 0.038658973 -0.04865061 -0.021975247 0.045420747 0.07971737 0.022601878 -0.19487289
0.015592747 -0.08581618 -0.09824144 -0.105564296 -0.104611635 0.03757024 0.049133614 -0.09541532
-0.11725491 0.0007819589 -0.046342567 0.043162365 0.12723343 0.1650161 0.08705767 -0.16837256
-0.03343146 0.15651624 -0.05807989 -0.12989844 -0.09456823 -0.116468504 0.075689055 0.03873406
-0.011886555 0.12067334 -0.12209911 -0.16145588 0.053903833 -0.06100711 -0.012598562 -0.1317671
0.28001314 -0.020144485 0.06842018 -0.0657251 0.0074480413 0.037932478 0.11758252 0.09279799
0.110452175 -0.092516564 -0.008621462 -0.10283376 -0.0006148404 -0.023594277 0.1710237 0.014069528
-0.058952685 0.07426018 -0.1644224 -0.062488355 -0.040371053 0.082069255 -0.019897899 -0.080828734
-0.13842176 -0.100785956 -0.03004676 0.017321289 -0.10831588 -0.14033629 -0.075734265 -0.06387762
-0.030206114 0.08546273 -0.015242994 -0.17065887 0.04962151 0.019256745 -0.020994972 0.040634945
-0.035722107 0.016483309 0.11875873 -0.08716223 0.09044303 0.19839881 -0.17433281 -0.07896802
-0.023548987 0.12526695 0.008957104 -0.009869429 0.05090733 0.0662478 0.15919076 0.1564459
-0.06474996 -0.033529148 -0.012518417 0.04879325 -0.04532735 -0.00084148545 -0.06115177 0.07203759

rnn.weight_hh_l1 f4 [256, 64]
00000000: f402 09bc ed62 90bd 86e6 76bc 5d23 8cbd
00000010: 5bbf 55bd 49d8 e23d be5d 0a3d b199 f2bd
00000020: 8de8 a93c c426 ed3d 3a36 523c 8de7 ccbd
00000030: 57c2 e2bc 1b95 3bbd 9e53 c0bd b89c a73d
00000040: 82fc f7ba 698b 6f3d 1341 b7bd f355 2e3e
00000050: ed15 fdbd d490 8ebd 91d3 09b9 9484 41bc
00000060: d06c 49bd 2c0d 0fbe 61d0 423c ddf1 cb3b
00000070: 47df 6b3d ad44 b73d d6d4 abbd f610 a43d
00000080: 98d6 193c de06 053e 1411 133c 9e6a 3b3d
00000090: a194 a2bb 626d 8dbc 0306 bdbd 3bd4 43bd
000000a0: 4a38 083e a554 3bbd b1a6 103d a4f6 bc3d
000000b0: 9956 1fbe 415f 1a3d f6b8 673d b664 98bd
000000c0: 8130 cd3d acc0 b23d 26a4 903d 5948 12be
000000d0: 7212 83bd 0aec 5bbd feaa d73d 60bf 663d
000000e0: 3147 8abd 4a97 a4bd 438c ed3c 4866 1d3d
000000f0: fd7a fbba 2eb6 9e3d c536 c3bc 92c0 3dbd
00000100: 987e 79bd 08ad d33d 889c a3bd 2c3b 853d
00000110: 2de4 84bd bac7 353d 35b5 9dbd ac8b 113d
00000120: 282c 293c c71c 223d 3fcf 5f3d 7172 c83d
00000130: 0442 ed3d 7a9f ae3d e6e6 863c ab49 13bd
00000140: 2208 f13b 4f23 1f3e d2ba 4e3d 725d 92bc
00000150: d0a0 7b3a 266c dabd c71d a13d 9e24 7fbd
00000160: cec1 e3bc 761d 8c3d 5ce8 bf3b dbee 37bd
00000170: 3850 4a3d 354b b63d 9241 793d 2870 b83d
00000180: 0beb 1cbd cc12 043e b9f7 f2bd 402e a53d
00000190: a280 01be bae2 dcbd a655 bbbd 830d debd
000001a0: ed0e 103e 8485 833c 65a3 27bd fd7b fbbd
000001b0: f5c8 edbd 95c1 dabd e8fe 853d 8d58 663d
000001c0: 4356 d6bd 8bb6 bbbc c59d cfbc 182d 18bd
000001d0: 67aa 83bd d69d 883d 519d 943d 4962 9ebb
000001e0: bfcb 463d 3c1d fc3d b644 9c3d cb41 b1bd
000001f0: dc0a 19bd 0989 84bc 2949 1c3d d47d b23c
00000200: 9246 723d 4d0b a8bd c2cf 533d 926b 28bc
00000210: 67a4 01be 9886 e5bc fed2 71bc 5ae3 3b3d
00000220: 1af4 15bd e09a 2bbe dd8b 6a3d 2ebe 95bd
00000230: 00e1 973d a609 453d acdf ee3d 40cf d13c
00000240: e2ae ae3c 79ed b9bd 0da4 373d 99b4 983d
00000250: 03e8 883d eac9 cf3d 78bf 7bbc d1ce 433e
00000260: 0661 223e 679f b2bd d1ed d9bd d7d2 243d
00000270: 18e0 e3bd 48ae c43c 545f 9dbd 5edf 0c3e
00000280: 8c86 933d d22a fabb 220e cdbd ef60 37bd
00000290: 8060 3cbd 7d4e 9bbd 405b 4b3d ec34 b73d
000002a0: ccb4 20be 46b2 adbc 472c 41bd 8d3b f1bd
000002b0: c3a8 bbbd 94b9 f23d 8678 44bc 7396 48bd
000002c0: f8e9 81bd 1dbb 663c c94c 98bd b273 e83d
000002d0: 22b2 3abc 7a8b 89bd 665d cf3c 5f9f eabd
000002e0: f3a0 0a3d 0d66 debd 88df e6bd ef69 cebc
000002f0: 8404 bdbd 65aa 58bd 125b ec3d 6de3 a13d
00000300: 0ed3 043c 386e ba3d 47c7 b93d 3425 9bbd
00000310: 2dd9 36bd cad6 c1bd 9e63 c2bd adcc 6a3c
00000320: 046e 013d 7444 dc3d 7b98 eebd ac2e 353d
00000330: 125c 59bd d2f7 cdbc 28a3 d6bb 4ae8 3abd
00000340: 72c6 c6bd 2c9d 143e a4e6 acbd b537 f3bc
00000350: b823 12bd bc0f 693d 5d59 41bc 8ae1 acbc
00000360: c775 c5bd d206 993d 6e03 343c 171e 013d
00000370: f10b 54bd a23a 2a3d 1124 873c 3208 28bd
00000380: fbec f2bd f0cb 933b 07dc 783c 4253 f1bd
00000390: f8dd 863d 49a3 de3d d4cb b93c 9a94 a8bb
000003a0: a7cb 0e3e 429e e23d 8a65 a6bd 8b26 e03d
000003b0: eee8 bebd 5e45 7cbd 9002 e7bd be1c 6a3d
000003c0: fa0c 87bd 2977 ad3d d2a8 1a3d 0ab5 9fbd
000003d0: 786f ffbc 551b bc3d b629 033e a0f1 f7bb
000003e0: d82f 4a3c 0d27 8dbd 2f82 06be 1d9f f13d
000003f0: 92df 683c 6179 37bd ab10 d6bd 34e2 8e3d
-0.0083625205 -0.070501186 -0.0150696095 -0.068426825 -0.052184444 0.11076409 0.033780806 -0.118457206
0.020740772 0.115796596 0.012830311 -0.10005102 -0.02768056 -0.045796495 -0.09390949 0.081841886
-0.0018919858 0.05848256 -0.08947959 0.17024975 -0.12357698 -0.069612175 -0.00013144153 -0.011811394
-0.049176037 -0.13969868 0.011890502 0.0062239007 0.05758598 0.08948646 -0.083902046 0.080110475
0.009389542 0.12990901 0.00897624 0.045755975 -0.0049615656 -0.017264072 -0.09229662 -0.04780982
0.13302723 -0.04573502 0.03531522 0.092267305 -0.15560378 0.037688497 0.056572877 -0.07441084
0.10019017 0.087281555 0.07062559 -0.14285411 -0.064000025 -0.0536919 0.10530661 0.056334853
-0.0675186 -0.080366686 0.028997546 0.03842762 -0.0019186434 0.07749592 -0.023829827 -0.046326227
-0.060911745 0.103357375 -0.0798884 0.06505427 -0.064888336 0.044379927 -0.07700578 0.035533592
0.010325469 0.039578225 0.054641005 0.09787453 0.11584857 0.085265115 0.016467523 -0.035958927
0.007355706 0.15540813 0.050471134 -0.017866824 0.0009598853 -0.10665159 0.07867008 -0.06229078
-0.027802374 0.06841557 0.005856557 -0.044905525 0.04939291 0.08901063 0.06085355 0.09005767
-0.038310092 0.12897795 -0.118636556 0.08065462 -0.12646726 -0.10785432 -0.091471955 -0.10842421
0.14068194 0.016054876 -0.04092731 -0.12279508 -0.11610595 -0.10681454 0.0654276 0.056236792
-0.10465672 -0.022914192 -0.025343785 -0.03715238 -0.06428986 0.0667073 0.07256568 -0.004833494
0.04853415 0.123102635 0.07630293 -0.08655127 -0.037363872 -0.016178625 0.03815571 0.021788515
0.059149332 -0.082052805 0.051711805 -0.010279553 -0.12660371 -0.02801828 -0.014759777 0.045871116
-0.036609747 -0.16758299 0.05726229 -0.073116645 0.07415962 0.048104905 0.11663756 0.02561152
0.021323625 -0.090784974 0.044834185 0.07456321 0.06684878 0.10145934 -0.015365474 0.19121863
0.15857324 -0.0872181 -0.10641063 0.040240135 -0.11126727 0.024008885 -0.07684198 0.13757083
0.07203397 -0.007634499 -0.10012461 -0.044770177 -0.045990467 -0.0758333 0.04964757 0.08945641
-0.15693969 -0.021203171 -0.047161367 -0.117789365 -0.09163048 0.118518025 -0.011991626 -0.048971605
-0.06343454 0.014082697 -0.074365206 0.11350192 -0.011395009 -0.06716056 0.02531309 -0.11456179
0.0338449 -0.108593084 -0.11273104 -0.025196997 -0.09229377 -0.052896876 0.11540808 0.07904706
0.00810696 0.09103054 0.09071212 -0.07575455 -0.04464071 -0.09464796 -0.09491657 0.014331025
0.03159906 0.10755244 -0.11650177 0.044233963 -0.05306632 -0.025142584 -0.0065502115 -0.045631684
-0.09705819 0.14513081 -0.08442429 -0.02968965 -0.035678595 0.05689977 -0.011801091 -0.02110364
-0.09641605 0.07472004 0.010987146 0.031522837 -0.0517692 0.041559823 0.01649669 -0.04102344
-0.11861607 0.004510395 0.015189177 -0.11783458 0.06585306 0.10870988 0.0226802 -0.005144668
0.13944875 0.110653415 -0.08124836 0.109448515 -0.093217716 -0.06158959 -0.11279786 0.057156317
-0.06594272 0.084699936 0.037758656 -0.07798202 -0.031181082 0.09184901 0.1280888 -0.0075666457
0.012340508 -0.06892214 -0.13135599 0.117979266 0.01421346 -0.04479349 -0.10452398 0.069767386

rnn.bias_ih_l1 f4 [256]
00000000: 67e9 01bd 735d 253e 0eeb 0f3d 3496 b33d
00000010: d47e 803e 3af4 72bd c1d7 d53d 884a c63d
00000020: 8d90 bcbc 32be f83c 792e 483a 51f8 11bd
00000030: aaab d83d 868e 7ebd 2df1 af3d 1291 7dbc
00000040: d51e 833d de03 e23b 631f a4bd f8bb 04bd
00000050: 1d25 76bc cb96 73bd f269 79bd ec5a c33d
00000060: b35a 263d e5d6 203d e345 103e 0513 dfbd
00000070: b5a5 583c d217 183e c20d a8bd 5cb4 da3d
00000080: 78f8 01bd 4084 9fbc 6885 543c 7379 2f3d
00000090: 9582 003e c324 f3bc ced8 6ebd f435 3e3d
000000a0: 3ee1 efbc 5f79 9dbc f210 313e cd2e 133d
000000b0: 0c10 983c e687 e03d 0657 623d 40df 223e
000000c0: 9a29 433d c9bc d23b f14d c03d 9e2c e9bb
000000d0: f4c0 d43d 0c7f 1c3d 3455 af3d 7c5d 1bbd
000000e0: fc43 543c b919 163e c7f8 3cbd b82a 8ebd
000000f0: e15f 333d 1f8a 713d a219 243e f08c 76bd
00000100: d53f 94bd d8e8 b5bc 416f 813d 6259 0e3d
00000110: 4563 2ebe 2ad5 63bd 04b6 c6bd 6f72 453d
00000120: 5892 f0bd 2ea4 c53c 7404 3bbc a8fc dcbd
00000130: 79a0 3c3d 64c9 bb3d 3266 b9bc e45f 93bd
00000140: 51e0 e23d 3eef 07be 94aa ffbd 0249 bcbd
00000150: 3451 05be e89b c8bb 7656 6d3d de14 15bb
00000160: 9f4b e23b 5a66 bebd 0f4c a43b 9568 b83b
00000170: 700a 81b9 b8f4 be3d 7b2c 753d 6c24 c9bd
00000180: 8e73 3d3c 76a7 bd3a 8b0c 2ebd 456a b8bd
00000190: b760 cf3d 9694 e8bd daa8 313d 4936 f5bd
000001a0: ff6c 29be 1492 37bd 9478 943b 89bb c5bb
000001b0: dcea d4bd 4cd8 853d 1a8e d0bd 08ed c03d
000001c0: 80a2 d7bc 2fd8 1bbe 4705 6d3c 1075 203c
000001d0: 92e5 983c 77d4 883d 203d a5bc f131 573c
000001e0: 4dfa 00be ae82 d7bd 3d4f 8cbd d5ae 4ebd
000001f0: 88c8 b73d 061e c73d 1852 61bd 4cdd f8bd
00000200: 94a0 e93c 3971 8dbd e54a 693c b758 59bd
00000210: c1d4 babd 4073 6a3c 12a3 0cb9 dc86 79bd
00000220: bb60 33bd cd4e 52bd b2d9 683d d71d ef3d
00000230: e694 093d e178 fbbd f06c eb3d 36ca d83d
00000240: 9f51 233e 0b70 01bc 2ead d93b bbd7 e9bd
00000250: 1ba9 f33b fbcd 24bd fe98 eebd 8471 df3d
00000260: cce3 a23d 04b9 2bbc 91ca 6cbd 21b0 88bd
00000270: e55e 0ebe b4ad 24be 9258 8dbd aef8 babc
00000280: aa16 b3bd e9d3 243d 9782 933c c0b3 323e
00000290: 92e6 00be da6e 143e 7453 72bd b58e 14be
000002a0: 6517 bebc 3558 cebd 7265 ae3d 8397 0ebe
000002b0: 68eb b4bd 1c6a 163e e638 20bd d3f9 f2bd
000002c0: 8594 c43c 2ecc 86bc e8a2 35bd d78d ee3d
000002d0: 9b6d f4bd a473 22bd 7cb9 8a3c 7712 21be
000002e0: d949 073e 57a4 2d3d 6c17 9f3d b94b 71bd
000002f0: 843d babd ba18 55bd 06ab c33d 57c0 f73b
00000300: 5e0e d33d 292d 943d 8ee9 9c3d c679 98bd
00000310: 9436 6b3e 271b 16bc b93b 983d 3a58 553d
00000320: 0cbe 423e d70f 7bbd 87e2 00bd d636 ed3d
00000330: 16dc f7bc b764 123e 0d5f 6e3d 102d 843d
00000340: 8881 64bd 9701 2ebd badc d7bd 4781 233d
00000350: 463b 653d c5a9 3c3b d74d 133d b0cf 153c
00000360: 1159 173e d5ff 923c 76a7 2c3d 2240 8ebd
00000370: 20a8 b9bc 6b14 293e 4b26 0ebd d7ab 1b3e
00000380: 9fd6 90bd 50d5 d63b 7974 433d 84a5 1f3e
00000390: b92e c83d 7a67 23bd 253e f73c 84c7 9c3d
000003a0: 98db c7bd b197 e43d 421d cc3c ed4d c03d
000003b0: 9b5b 3a3d 6c10 8e3d d445 523d 3538 023d
000003c0: d687 0abc 30a4 e03d 93e7 cd3a cac5 4a3e
000003d0: 70a7 15bc da84 133b 1803 a5bb 13bf 213e
000003e0: 2d9e 4ebd f054 033d 5067 283d 7f43 be3d
000003f0: a021 483c 2f11 2a3e 6d75 eebc 0c2a 2f3e
-0.03171673 0.1614893 0.035136275 0.08768883 0.25096762 -0.059314944 0.104415424 0.096821845
-0.023018146 0.03036413 0.00076363195 -0.035637204 0.10579617 -0.06214764 0.085909225 -0.015476482
0.06402365 0.0068974337 -0.08013799 -0.032405823 -0.015023497 -0.05946998 -0.060892053 0.09538826
0.04061384 0.03926744 0.1408916 -0.108922996 0.013223101 0.14852837 -0.08205749 0.10678932
-0.0317311 -0.019472241 0.01297126 0.042840432 0.12549813 -0.029680615 -0.05831223 0.046438172
-0.029282209 -0.019222913 0.1729162 0.035933305 0.01856234 0.109634206 0.055258773 0.15905476
0.047647096 0.0064311964 0.09389866 -0.0071159145 0.103883654 0.0382071 0.08561173 -0.03793095
0.012955662 0.1465825 -0.04613569 -0.06941742 0.04379261 0.058969613 0.16025403 -0.060193002
-0.072387375 -0.022205755 0.06320048 0.03475321 -0.17030056 -0.05562321 -0.097026855 0.048204836
-0.11746663 0.024126139 -0.011414636 -0.10790378 0.046051476 0.091692716 -0.022631738 -0.07196024
0.11077941 -0.13274857 -0.12483707 -0.09193613 -0.13019258 -0.006122101 0.057943784 -0.0022748034
0.0069059874 -0.09296866 0.0050139497 0.0056277015 -0.00024612574 0.0932402 0.059856873 -0.098214
0.011563195 0.0014469463 -0.04249243 -0.09004644 0.10125869 -0.113564655 0.04337392 -0.11973245
-0.16545485 -0.044817045 0.0045309756 -0.006034319 -0.10396358 0.06535396 -0.10183354 0.0942021
-0.026322603 -0.15219186 0.01446659 0.009793535 0.018664155 0.066811495 -0.020170748 0.013134466
-0.12595482 -0.10522972 -0.06851051 -0.0504597 0.08973795 0.097225234 -0.05500993 -0.12151584
0.028518952 -0.06906361 0.014239048 -0.05306312 -0.09122611 0.014309704 -0.00013412189 -0.060919628
-0.04379342 -0.05134468 0.056848235 0.116756134 0.033589266 -0.12278915 0.114953876 0.10585444
0.15949105 -0.007900248 0.006642959 -0.114181004 0.0074359304 -0.0402355 -0.11650275 0.10910323
0.07953605 -0.010481123 -0.05781037 -0.06674219 -0.13903387 -0.16081887 -0.06901659 -0.022823658
-0.08744557 0.040241156 0.018006606 0.17451382 -0.12587956 0.14495412 -0.05916162 -0.14507563
-0.023204515 -0.10075418 0.08515443 -0.13924985 -0.08833963 0.14688915 -0.039116763 -0.118640564
0.0239966 -0.016454782 -0.044344813 0.116481476 -0.11934968 -0.039661065 0.016934149 -0.157297
0.13211764 0.042393055 0.07768139 -0.058910105 -0.090937644 -0.052025534 0.095541045 0.0075607705
0.10305475 0.07235176 0.076617345 -0.074451014 0.22970039 -0.009161747 0.07433266 0.052086093
0.1901781 -0.061294403 -0.031466033 0.11582725 -0.030256312 0.14296232 0.058196116 0.064539075
-0.055787593 -0.042481985 -0.10540147 0.03991821 0.05596473 0.0028787714 0.035962906 0.009143755
0.1478007 0.017944256 0.04215189 -0.06945826 -0.022663176 0.16511695 -0.034704488 0.1520227
-0.07072186 0.0065561906 0.0477185 0.15590483 0.09774537 -0.039893605 0.030181 0.07655242
-0.09758681 0.11161745 0.024916295 0.09389863 0.045497518 0.06936726 0.051336125 0.031791884
-0.008455237 0.10968816 0.0015709273 0.19802013 -0.0091341585 0.0022509606 -0.005035769 0.15795545
-0.050443817 0.032063425 0.04111415 0.092902176 0.012215048 0.16608118 -0.029108727 0.17105883

rnn.bias_hh_l1 f4 [256]
00000000: 1554 b83b 478c 763d fcb1 9e3c 1d4d 263d
00000010: a54a bf3d d750 abbc cfc7 363d 109d c1bc
00000020: 3d50 b23d c8e8 adbd efeb 9dbc 04d0 423e
00000030: c865 71bd 15a2 103c 8bc6 2fbd b438 be3d
00000040: 8174 b33d 229e 873d d311 dc3c 0aa7 5b3d
00000050: 2e06 e03d 80fc 083e 74e0 533d 76fa 6b3d
00000060: 1398 fd3d 53fc d03d 1c3e 1a3e 5601 6cbd
00000070: 924a d63d 86da 82bb 66b9 843d 11ce 33bd
00000080: 2a5c 1a3e e9ea dbbd bf90 333c 44ec 3e3d
00000090: ff1a 2e3e 4c39 b73d a82f 2e3e b467 56bd
000000a0: edd0 63bd 35d4 463c 0c71 2bbc 270c 723d
000000b0: 339d ea3d 805a a7bd 4222 d43d 30f1 f23d
000000c0: 6392 95bd 648b 8dbc 593a f73b 3540 5a3e
000000d0: c448 65bd 026c 07bd a0ae a8bd 3707 1e3e
000000e0: 677a e43d 8077 44bd 4569 633b c3aa abbd
000000f0: 757c a1bd a4e3 003e 1b62 7a3d 67ec f03d
00000100: 76b5 993c 3ff0 923d 53ef ba3d 87fc bebd
00000110: d33f 47be 55ca fbbb 4662 76bd ce2e d4bd
00000120: a6ea 01be f810 0bbc d05d cd3c cab5 673d
00000130: 06f5 d0bd 3cb3 98bc 6ab7 87bd 50a7 263c
00000140: 22c8 b4bc 50cc f03c 7de5 0cbe 1b6b acbd
00000150: ad27 d4bc e27f f6bd 071b 823c 3a5e 52be
00000160: 260e 49be 731c 60bd 6ca1 a3bd bbc7 32bd
00000170: 04e3 90bc 4b76 873c 2882 5ebd feaf 12bd
00000180: d54d 84bd 2ec8 6abd 7b3a 61bd 705e eebd
00000190: 52d3 57bd 5f62 5b3d e6ee 333d 31fd 91bd
000001a0: e38d fcbd 1dab 2ebd 88bc 943a 9f03 663d
000001b0: 53d7 07be 1c2f fd3c c469 01be 6d71 ffbd
000001c0: b9ad 17be d49b 2abe b7c9 f6bc 56f4 c2bd
000001d0: d6e4 8ebd b9ac 933d bbaa 643d bd40 a1bc
000001e0: dc22 fabd 13c3 01be f33f e4bc 305a 583d
000001f0: f06f c53b b548 a6bd 38e4 733d 7ecd 2c3d
00000200: 29b0 43bd e049 52bd 71dc 963d c369 9cbc
00000210: 70b1 c7bd d751 d3bd 5779 003e f415 233e
00000220: e6ca a3bd cef0 44bc 7af0 2ebc 500e 7dbd
00000230: acc3 d7bc d945 e5bd 1d4a d23d ed6b 7cbd
00000240: 2c9b c33d 6cc5 c3bb de68 51bc 0495 4bbd
00000250: c7b9 4a3d d23b f5bd 8be1 11be 0f52 d7bc
00000260: 214a 57bd 296d 263e 7c77 1b3e 3a1d 033c
00000270: 1d0b 7b3d 0103 07be e433 e93d 265a ca3d
00000280: ee0f 263c 32e6 1abc 7662 ffbd 899a 18bd
00000290: f1a1 1ebe 4e44 473c 6ec9 203e 10cf 02be
000002a0: 11af 233d cdc1 cbbd 0838 e83c 1ef5 91ba
000002b0: 03e3 f73d 282d 243d b83a 3dbd 725b 65bd
000002c0: 4618 883d 291a 113d 0e91 523c 6f3a 8abc
000002d0: e7cc 053d dc6c 43bd 4e3d 913d 0693 e7bd
000002e0: 6391 30bd 1723 683d 9ae0 cf3d 5b17 ef3d
000002f0: 563f 87bd ae8b 163e f144 e83d f1c6 0c3e
00000300: fe5c 05bd 9924 e73d e2c6 e73d 3506 66bd
00000310: 8306 883e 07ad 793d dcc6 283e 222d 133e
00000320: d2d8 22bd 72c2 493d cd2c 8a3d 1640 46bd
00000330: 1fb2 593d 3f46 283e 3d8a 453d f2e7 a5bd
00000340: a5f8 703d 7c57 c6bd c899 5bbd da55 c8bc
00000350: b40a 093e 158f 7e3c a96c 59bd 3d38 bc3d
00000360: 1655 d43d e53a 3e3d 2f25 7cbd 79c0 923d
00000370: edf0 7abd 315e 5fbd 5a98 dc3d c722 4a3e
00000380: 66e3 85bc ab46 e1bd 97d0 013d 972e 5d3e
00000390: 3728 2ebd 483c 833d d4c3 773d d41d 8a3d
000003a0: f816 cb3d f33e 673b 5d99 003d 7db3 f03d
000003b0: 9220 803d b29b dd3d d853 cbbd 674d 323e
000003c0: 2e39 9abc 8a4b 103e d225 863c 2994 423e
000003d0: 3db2 163e 70d8 333e e8e1 a7bc 467f 1c3d
000003e0: 5c76 c0bc e822 ed3d c96e 61bc 1fef ac3d
000003f0: 8b66 173e 3f44 5fbd 44d2 f5bc c3b5 853d
0.0056252577 0.060192373 0.019371979 0.040600885 0.09340409 -0.02091257 0.044624146 -0.023634464
0.087067105 -0.08491665 -0.019277541 0.19024664 -0.058934957 0.008827706 -0.042913955 0.09288159
0.08762456 0.06621958 0.026863968 0.053626098 0.10938679 0.13377571 0.051727727 0.057611905
0.123825215 0.10204377 0.15062755 -0.05761846 0.10463442 -0.003993335 0.064806744 -0.043897692
0.1507422 -0.10738165 0.010959803 0.04661204 0.17002486 0.089464754 0.17010367 -0.052344993
-0.05561917 0.012135555 -0.010463964 0.05909362 0.114557646 -0.081715584 0.10358097 0.11862409
-0.07303312 -0.01727838 0.0075447974 0.21313556 -0.055977598 -0.03306199 -0.08236432 0.1543244
0.11156159 -0.047965527 0.0034700197 -0.083821796 -0.078850664 0.12586838 0.061128717 0.1176384
0.018763285 0.071747296 0.09127679 -0.093255095 -0.19457941 -0.007684032 -0.060152315 -0.1036049
-0.12687168 -0.008487932 0.025069147 0.056569852 -0.102029845 -0.018640153 -0.0662678 0.010171726
-0.022068087 0.029394299 -0.13759418 -0.08418866 -0.025897825 -0.120361105 0.015882028 -0.20543757
-0.19634303 -0.05471463 -0.07989773 -0.04364751 -0.017686374 0.016535899 -0.054323345 -0.03581237
-0.06460158 -0.057319812 -0.054987412 -0.11639106 -0.052691765 0.05356061 0.043929003 -0.071283706
-0.1233175 -0.042643655 0.0011347691 0.056155797 -0.13265733 0.030906253 -0.12638003 -0.12472806
-0.14812364 -0.16661006 -0.030125482 -0.0951926 -0.06977241 0.072106786 0.055826884 -0.01968419
-0.1221368 -0.12672071 -0.027862525 0.052820385 0.006025307 -0.081193365 0.05954382 0.04218816
-0.04777542 -0.051339984 0.073662646 -0.0190934 -0.097506404 -0.10318344 0.12546287 0.15926343
-0.07997684 -0.012020303 -0.010677451 -0.061781228 -0.02633842 -0.11194963 0.10268042 -0.061626364
0.09551081 -0.0059744623 -0.01278135 -0.04970266 0.049493577 -0.119743004 -0.14246194 -0.026284246
-0.05256093 0.16252579 0.15182298 0.008002574 0.061289895 -0.1318474 0.113868505 0.09880476
0.010135634 -0.009454297 -0.12469952 -0.03725675 -0.15491463 0.012162281 0.1570184 -0.127743
0.03996188 -0.09949074 0.02834703 -0.0011135673 0.12103846 0.040082127 -0.046198577 -0.055995412
0.06645255 0.03542534 0.012851967 -0.016873566 0.032666113 -0.04771124 0.07091771 -0.11307339
-0.0431074 0.05667409 0.10150261 0.116743766 -0.06603877 0.14701721 0.113412745 0.13747765
-0.032559387 0.11286277 0.11317231 -0.056158263 0.26567468 0.060956027 0.16482109 0.14372686
-0.039757557 0.049257703 0.06746826 -0.04840096 0.053148385 0.16433047 0.048227537 -0.08100881
0.058830876 -0.09684655 -0.053613454 -0.024455 0.13382989 0.015537043 -0.053082142 0.09190414
0.10367791 0.046442885 -0.0615589 0.071656175 -0.06126492 -0.054533187 0.10771246 0.19739829
-0.016343784 -0.10999807 0.031693067 0.21599804 -0.04251882 0.06407982 0.06048949 0.067439705
0.0991649 0.0035285323 0.03139626 0.11752985 0.06256212 0.10820712 -0.09928101 0.17412339
-0.018826094 0.14091316 0.016375456 0.19001831 0.1471643 0.17563033 -0.020493463 0.038207315
-0.023493938 0.115789235 -0.013759323 0.08444046 0.14785211 -0.054508444 -0.030007489 0.06528809
