600276.SS_stock_model.pth (torch, 205359 bytes, 9 tensors)

rnn.weight_ih_l0 f4 [256, 1]
00000000: bf89 c13b 0a62 b43d c55e be3b 1ed0 323e
00000010: 2cf0 9f3e a05e 2abd 6edb fb3d d343 353e
00000020: 3824 243e 1e7a d63d e57b 023e 48bd fa3d
00000030: b10c e03d d41e 643e 7f71 bdbd a04b 053e
00000040: 958b 153d 3960 3a3e ba39 3c3d ce3b 793e
00000050: 4161 0e3e dbda bcba 0796 c33c f765 323d
00000060: 0db0 893d 3352 173e 87d3 253e cfc6 febd
00000070: 31ef c13d 5b22 473e 6e8b 853e 965a 1e3e
00000080: 9e3f a83d 6649 063e 1518 313e f8ae 6d3e
00000090: 3da1 803e 29a3 c23d 6f2c ff3d 7f49 613e
000000a0: 3b00 923e 573f b1bb 44e8 133e a881 623d
000000b0: be2b da3c ccd4 d83d 6185 793d 7d34 8e3d
000000c0: a9f5 043e dad0 e03d 192b 543b 65b9 a43d
000000d0: 82de 433e 4d2a d53c bca7 31bc 704a 9fbb
000000e0: 8168 183e 0aa3 643e c033 463c 3e14 2f3e
000000f0: 4c32 f9bd 59f5 3d3d bdbd 013e 5964 423e
00000100: ce3f 27be d402 d8bd 3675 8abb 4f09 b43d
00000110: d1e1 70bd 6c33 a03d 117a f0bd 2faf f63d
00000120: 1aea 9a3d 135f ef3d b9ab 72bd b624 923d
00000130: 5fe5 073c 5547 0ebd bf4e 1dbe 367a 333c
00000140: b36c 3f3d c694 5b3d 9e43 b93d 181d 06bd
00000150: 97dc 7d3d 2d9b cabd a370 f53d 6e36 2c3e
00000160: ab18 11be 261d 833d f4cc 7a3d 412d 57be
00000170: 0c0d a93d 71cd be3d c870 bc3d 34bc b63c
00000180: 93ee 283e c8db 403d 61eb 443e 422c 213e
00000190: f5e2 cbbc 0c02 553d a8f2 d0bb aabe 153d
000001a0: 0062 ff3d 7060 cd3d 9c72 aabc 4be2 4fbd
000001b0: 4759 af3d 5a4c b5bc d022 cb3d e766 133d
000001c0: 6d52 50bc fd24 de3d e8b4 ca3c 39c4 2a3e
000001d0: 0fa8 d63c ddbc 673d 5b45 6ebe 56ab a63b
000001e0: bd58 6c3d 41f6 573c 0012 183e 6932 c83d
000001f0: 7c91 1ebd 6df3 923c fe90 19bd f554 cabc
00000200: 4e2d bbbd 7bf1 ae3d ac02 2ebe c6ce a7bc
00000210: a52b 6c3e 9216 afbc 5bff 6b3d 2d66 5dbe
00000220: 3a68 81be 4017 23be a72d c7bd a9c2 62be
00000230: 468a 4dbd b293 34be ab47 363e acf8 693e
00000240: caf5 47be 6ace a5bd ee82 433e ef93 103e
00000250: b8c5 6cbe d0d9 f4bd 1b2c 273e 8678 4b3e
00000260: 0f48 a23d ece8 b53d 04e0 353c 7100 0f3e
00000270: 207f 573e a81d 74be 7302 1c3e 31bf 833d
00000280: 39d6 843d eaee 4dbe 1ce1 bebd 718f 413e
00000290: f3e6 0d3e 804f a9bd 2174 eb3d 2c95 313e
000002a0: 81af 4bbe 7def a0bd 5c13 56be 416d 2fbe
000002b0: d169 10be f1e9 f03b 10e6 0b3d 85c2 a8bd
000002c0: 2973 19be 14c1 53be a02a 5c3d 3e9f debd
000002d0: ebf3 49be 7e52 223e 1dfb 9c3d 4391 db3c
000002e0: 0188 26bd 5149 54be 47d9 f2bb 26ca 50bd
000002f0: bb05 e03d 23bb 32be e880 7b3e 91cd fd3d
00000300: 1461 0fbd 0c45 a8bd db9b 893d 4375 283e
00000310: f0b6 393e 5238 a43c fdb7 42bd 1bc5 803d
00000320: 39f9 293e d366 013c b7fe 3d3d b7a9 283e
00000330: 8237 5b3d 2844 453e 2db9 a43c 03ec 9d3d
00000340: 6a0f 783e 9369 223e 71d8 2b3e 9ef5 823d
00000350: 7e33 e03d 90dd 783c 571c 333e 9f0a f73d
00000360: 7c44 ec3d b404 073e 7cc0 803d 99ab 32be
00000370: 5e12 9d3e 14f1 873e 30e9 863e 292c d83c
00000380: d712 fe3d 0d43 c23d ab34 c73d 2636 7d3e
00000390: dcb1 313e bc92 113e ac2e 513e f700 df3d
000003a0: d056 823e a020 ee3d 4c7e 4d3d fd0b 45bd
000003b0: 4540 453e a50c 093e 3d80 423e 0669 77bc
000003c0: bd49 783e 8dd7 413e 2428 9bbb 2e4c be3d
000003d0: fe18 523e 1c9d fb3d 44c2 5cbe f38f 313e
000003e0: 4c3c a03d 4cf2 1d3e fb76 613e 8dec 413e
000003f0: bcd3 c03c 47e3 123e d192 293e 3ae7 08bc
0.005906313 0.08807762 0.0058096373 0.17462203 0.31237924 -0.041594148 0.12297712 0.17701654
0.16029441 0.10472511 0.12742575 0.12243134 0.10939921 0.22277385 -0.09250163 0.1301713
0.03651007 0.18200769 0.04595349 0.2433922 0.13904287 -0.0014408486 0.02387525 0.043554273
0.06723032 0.1477745 0.16193973 -0.124402635 0.0946945 0.194467 0.2608294 0.15464243
0.08215259 0.13113937 0.17294343 0.23211277 0.25123015 0.095037766 0.12459647 0.22000693
0.285158 -0.005409162 0.14444071 0.05529943 0.026632186 0.10587463 0.060918216 0.06943605
0.12984337 0.10977335 0.003237432 0.08043174 0.19127849 0.026021147 -0.010843214 -0.0048611686
0.14883615 0.2232782 0.012097299 0.17097566 -0.121677965 0.04637656 0.12670036 0.18983592
-0.16332933 -0.105474144 -0.0042253984 0.08790838 -0.058809105 0.07822308 -0.11742032 0.12045132
0.075641826 0.11688056 -0.0592458 0.07135908 0.008294432 -0.034735996 -0.1536207 0.01095443
0.046734523 0.05360868 0.090461 -0.03274259 0.06197795 -0.09892879 0.119843744 0.16817638
-0.14169566 0.06402044 0.061230615 -0.21013357 0.082544416 0.093165286 0.09201199 0.02230654
0.16497259 0.0470846 0.19230415 0.1573954 -0.024888495 0.052003905 -0.006376583 0.036558785
0.12469864 0.100281596 -0.020806603 -0.05075292 0.0856195 -0.022131134 0.09918749 0.035986807
-0.012714964 0.10846899 0.024744466 0.16676416 0.026203183 0.0565766 -0.23268645 0.005086343
0.057701815 0.01318127 0.14850616 0.0977524 -0.038712963 0.01793834 -0.03749179 -0.024698714
-0.091395006 0.085421525 -0.16993207 -0.02048434 0.23063524 -0.021373067 0.057616573 -0.21621008
-0.2527483 -0.15926838 -0.09725504 -0.2214457 -0.050180696 -0.17634466 0.17800777 0.22848767
-0.19527355 -0.08096011 0.19092914 0.14118932 -0.23122299 -0.11955607 0.16325419 0.19870195
0.079239 0.08882317 0.011100773 0.13965012 0.21044588 -0.23839438 0.1523531 0.06432951
0.06486172 -0.2011067 -0.0932028 0.18902375 0.13857631 -0.082671165 0.11496759 0.17342061
-0.19891168 -0.07858179 -0.20905823 -0.17131521 -0.14102866 0.0073521067 0.03415495 -0.08240227
-0.14985336 -0.20679122 0.053751588 -0.10870217 -0.19721954 0.15851781 0.076650836 0.026802665
-0.040657047 -0.20731093 -0.0074111554 -0.050974034 0.10938593 -0.174542 0.24560893 0.12392724
-0.03500469 -0.08216295 0.0671918 0.16450982 0.18136191 0.020046387 -0.047538746 0.06287595
0.16598977 0.00789805 0.046385493 0.16470991 0.053519733 0.19264281 0.02010783 0.07711031
0.2422463 0.15860586 0.16781785 0.06394504 0.10947321 0.015189543 0.1749128 0.12062573
0.115365 0.13185388 0.062867135 -0.17448272 0.30678076 0.26551116 0.26349783 0.026388245
0.12405937 0.09485445 0.097268425 0.24727687 0.17353004 0.14216131 0.2042796 0.10888856
0.25456858 0.116273165 0.050169274 -0.048107136 0.19262798 0.1338373 0.18994232 -0.015100723
0.24246879 0.18929882 -0.0047350097 0.09291874 0.20517346 0.122858256 -0.21558481 0.17340069
0.07824001 0.1542446 0.22018044 0.18937893 0.023538463 0.14344512 0.16559912 -0.00835591

rnn.weight_hh_l0 f4 [256, 64]
00000000: 0fec acbd 8ac8 0b3e fcb0 fdbd cd9b 63bd
00000010: b74a 943d 831c 093d 7561 463d 4d4e 113e
00000020: f198 cf3b 753b 343e 6cfa 343e e6bf be3c
00000030: 236e 37be c996 8b3d c1e6 123e 8391 27be
00000040: 3256 0bbd 16de 0d3e 10fc 19be 0c4e e2bd
00000050: 339b af3d 3af9 c5bd 7083 c83c d797 24bd
00000060: 3351 43bd 805f 40bd abe7 0cbe 5677 283d
00000070: 5447 0cbe 2e81 9abc b63b 02be b107 363d
00000080: 9237 35be 0a49 cf3d 9a8d a83c d423 16be
00000090: 5eed 6339 dfc0 303e 7c27 733d 4e00 6ebc
000000a0: d2b2 033e de34 d73d 1078 403c 16d6 1cbd
000000b0: 387b 093d fce6 94bc 8170 dbbd 4625 253a
000000c0: 2a38 d13d 8085 ec3d e1da 11be 176b 0dbd
000000d0: 3b89 2dbd 8a6a 72bd 6ec7 87bd 0d25 ddba
000000e0: e249 6ebd 3236 b4bc 9b34 f63d e928 043d
000000f0: 87dd bdbc b8e9 f83d c86c 893b d336 06be
00000100: 1751 30be 594a fb3d 40fd 40be 9bf0 4a3c
00000110: bb0c d23d 5cd0 a7bd 7ae4 643d 3703 60bc
00000120: 2406 0c3e 3eb5 223c 02f1 003e a3c9 ecbc
00000130: 79fd 21be 7478 b33a a45f 523e 76b9 ebbd
00000140: 411c 74bd c798 e93d 0666 fdbd defb 18bd
00000150: 050f 753d 210e d7bd aad4 8c3c e972 eebd
00000160: a646 dc3b b380 21bd 2eee 3cbd 9010 103d
00000170: 456e a2bd 5bf0 853d e425 bd3b d141 f9bd
00000180: d767 00be b465 ca3d 0185 7c3d 5903 12bd
00000190: a400 51bb ec3f 53bc 1eaf 13be e20c 043d
000001a0: 4f9a 243e 9069 043e ce6b 58bd aef1 4f3b
000001b0: 9f2f 103e 97df 853d 596d 333c ede7 44bc
000001c0: e4ea d13d c399 1a3e dde5 c63b aac6 d13d
000001d0: 33d6 713d 9774 8c3d db42 0c3d 8733 113b
000001e0: 672b 2d3e b57a be3d 8623 e33d 309b f53c
000001f0: bf7c 8d3d 1b36 153e bc58 b9bd 7d19 8a3d
00000200: 13ce d33d 1d13 3cbe 78ec eb3d 8216 023d
00000210: 48b9 febd 98ea 083e ea45 6cbe 6d56 10bd
00000220: 0073 dabc 9979 a93d 4dac afbd 9759 013e
00000230: fe15 ea3d b702 84bd 8abb 5cbe 7956 923b
00000240: e3e5 a4bb 9bef 343d b4a7 de3c 35f2 39bd
00000250: 4175 dc3d f1b8 b53c ae93 f43d fe33 203d
00000260: cd20 e2bc 8aaa 273e f0ea 173e a07f 4bbe
00000270: 5a46 d7bc d84e 3ebd b0a8 6d3d 2919 f23d
00000280: 8c44 0bbd 2528 c1bc 3026 dbbd eb10 c03d
00000290: db21 fd3c 4aab 1dbe 754a d63d 0313 083e
000002a0: 57ed bfbd bec1 173b 8b79 adbc 7a86 87bb
000002b0: b248 13bd 66e0 a0bb d2be 213e eac3 18be
000002c0: 6bd3 f0bd 41c9 26bd e3c8 a43d 144e 0ebe
000002d0: 1b43 11bd 036a 533d 5296 713d 6ad0 2bbc
000002e0: 332e a3bd 03ff 0fbd e315 9f3b 17ff 96bd
000002f0: 8a1e b6bd 7c94 06be fca8 1cbb a65c c33c
00000300: 6a5a 72bd 37b1 0a3e ff6f b7bd 0a7d ac3d
00000310: 02e0 023e c42d 28be ddb1 1a3c e49f aa3d
00000320: 3e9d 983d cb1c a7ba f09b 583d 0c97 12be
00000330: bd28 3dbd 2f2d dc3b 382c 273e 3dc4 4fbc
00000340: 81a4 073e 924d 263c 173a 9b3d 77de d7bd
00000350: b1d3 563d a960 03be f7bb dabd 0702 bc3c
00000360: 123c 453e d703 a1bd 4ff5 2cbe c8c5 3f3c
00000370: 08ef 0ebb de23 943d dc23 abbb 8d0b b6bd
00000380: dc63 11be 3622 833d 6a54 6b3d 26d7 893d
00000390: 0ff0 24bc 3454 193d 164f 15be 357a 033d
000003a0: 0be6 d13d a95e 9fbd b4db ab3d 49b8 5abe
000003b0: 9f34 c3bd d384 27bc d308 e63c 64ac fbba
000003c0: a384 d5bc f713 f83d 531e efbd 5e34 053e
000003d0: a3b4 703d 41d2 9a3d 1e13 5d3d c834 b9bd
000003e0: 5f58 35bd bb1a 8e3c 5c3e 253e 7e32 073e
000003f0: f18e 1c3e d545 01bd cbe1 8d3c 4316 0fbe
-0.08443462 0.13650718 -0.12387273 -0.055568505 0.07240813 0.033474457 0.048432786 0.14190026
0.0063353707 0.17600806 0.17673653 0.023284864 -0.17913108 0.06815869 0.14345838 -0.16364102
-0.03401775 0.1385425 -0.1503756 -0.110500425 0.08574524 -0.09666677 0.024476737 -0.04018387
-0.04768486 -0.046966076 -0.1376025 0.041129433 -0.13699085 -0.018860426 -0.1271809 0.04444093
-0.1769698 0.10121353 0.020575333 -0.14662105 0.00021736833 0.17261074 0.059363827 -0.01452644
0.12861183 0.105081305 0.011747375 -0.038290106 0.033564776 -0.018176548 -0.10714818 0.00062998047
0.102157906 0.115489006 -0.14243652 -0.034525957 -0.0423672 -0.059183635 -0.06629835 -0.0016872004
-0.05817593 -0.021998499 0.120217524 0.032265577 -0.023176922 0.12153953 0.004193876 -0.13106851
-0.17218433 0.1227004 -0.18846607 0.012386466 0.102563344 -0.08194038 0.055881955 -0.0136726415
0.13674217 0.009930907 0.12591937 -0.028904742 -0.15819348 0.0013692514 0.20544297 -0.11509983
-0.059597258 0.11406093 -0.12372975 -0.037349574 0.059828777 -0.10500742 0.01719125 -0.11643011
0.006722289 -0.039429378 -0.046125583 0.035172045 -0.079311885 0.06539985 0.005772339 -0.121707566
-0.12539612 0.098826796 0.06165028 -0.035647724 -0.003189125 -0.012893658 -0.1442227 0.03223885
0.16074489 0.12930894 -0.052837186 0.0031729746 0.14080666 0.06536787 0.0109513635 -0.012018186
0.1024988 0.15097718 0.0060698823 0.1024297 0.059042167 0.06858175 0.034243446 0.0022155957
0.16911088 0.09300748 0.1109076 0.029981226 0.06908559 0.14571421 -0.09050128 0.06743143
0.1034204 -0.18366666 0.11519712 0.031759746 -0.12437683 0.1337074 -0.23073545 -0.035238672
-0.026666164 0.08275146 -0.08577786 0.12631832 0.11429976 -0.0644583 -0.21555915 0.0044658748
-0.0050322874 0.044173818 0.027179576 -0.045397002 0.10764552 0.022182913 0.1194223 0.039112084
-0.027603531 0.16373649 0.14835715 -0.19872904 -0.026278663 -0.04646191 0.0580222 0.11821205
-0.03400092 -0.023578713 -0.10700643 0.09378227 0.030899933 -0.15397373 0.1046342 0.13288502
-0.09371441 0.002315625 -0.02117612 -0.004135904 -0.035958 -0.004909563 0.15795448 -0.14918485
-0.11759075 -0.040719274 0.080461286 -0.13896972 -0.035464387 0.051614773 0.058981247 -0.0104867015
-0.07967796 -0.035155308 0.004854904 -0.07372873 -0.088925436 -0.1314258 -0.0023904433 0.02384789
-0.059168257 0.13544165 -0.089569084 0.08422287 0.12780765 -0.16423708 0.00944182 0.08331278
0.074518666 -0.001274967 0.05288309 -0.14315432 -0.04618143 0.0067192535 0.16325462 -0.012681064
0.13246347 0.01015033 0.07579439 -0.10540479 0.05244798 -0.12829842 -0.10680383 0.022950185
0.19261196 -0.078620605 -0.16890453 0.01170487 -0.0021809954 0.072334036 -0.0052227806 -0.08888922
-0.1419825 0.064030096 0.05745355 0.067304894 -0.010067 0.037433818 -0.1458095 0.032098968
0.10248955 -0.07781727 0.083915144 -0.21359362 -0.09531521 -0.010224539 0.02808038 -0.0019201157
-0.026064223 0.12113183 -0.11675706 0.13008258 0.05876602 0.07559634 0.05397331 -0.0904327
-0.04427373 0.01734673 0.1613707 0.13202855 0.15288903 -0.031560738 0.01731958 -0.13973336

rnn.bias_ih_l0 f4 [256]
00000000: 7b88 c23d c110 8a3d 4d07 f83d 8ce2 203e
00000010: 7b72 103e a102 d23d cf0c de3d 77c7 4e3c
00000020: 0288 313e e18e 6fbd e013 2a3d 8bbc 653e
00000030: 6139 db3d 0bbf 813d fca8 163e a8c2 083e
00000040: 74c9 23bd 064b c03c c6a6 04bd 1ae7 ca3d
00000050: 60f6 113e e5d3 c03d 32b7 c13d 4c65 8c3d
00000060: f83f 0bbd aaae acbb c5a9 0b3e 9c34 703d
00000070: cdf1 dc3d b41e 523c 4d4c 133e dcf0 253e
00000080: 4e79 0b3d 7ba1 0cbd fc3e 8b3c aefd 1f3e
00000090: 05c2 813d 5692 50bb 8804 ef3c 1e17 f63b
000000a0: e878 663e 4e62 6d3c 27e8 74bd 2e01 2d3d
000000b0: 2acd a7bb 4284 a7bd e636 c53d 5bac 9d3c
000000c0: 7948 1a3e 51c7 853d 1969 6abd 1d0e 843d
000000d0: cd89 063b 8cf8 86bd 0b09 6f3d 83ff a3bd
000000e0: 22bd 81bc e3fa 8b3d f462 e93d f5cc 0c3e
000000f0: 127b 70bc c4c8 743d 6dc4 213e f1da ea3d
00000100: 608f 1ebe b01e e03c 35e2 09bd 0669 28be
00000110: 07ac 103d ce0b 1bbe 3cc9 28be 1fcf c6bd
00000120: 2e61 d23c 094c bc3d ada7 bd3c c5a6 b03c
00000130: db0c 8d3d 6c59 b13c 27da 183e 9f3f 583c
00000140: bccd b7bd 9d5d 9dbc d072 06be 4f6f 00bd
00000150: 3ab9 9ebd 23fd 5cbd 5d02 723d 3acd c3bb
00000160: 852e 39bc ce37 53bd 6cd4 ecbd 98ff c9bd
00000170: 0522 733d bbcd 603a b34f f33b 78a7 b9bd
00000180: 36c5 5cbd 5cd7 86bd c727 02be ebe0 f8bc
00000190: 49d6 683d 9e5d c53d 0517 03be b436 05bc
000001a0: e1f3 92bd 8557 8e3c 3e7d dfbd 6b7f 56bd
000001b0: 9da6 043d 9714 a63c 21ee 90bc 07c3 15be
000001c0: e663 0f3d 9b43 3cbd cbeb 78bd 96f4 77bb
000001d0: 2db0 64bd 4509 5bbc f813 a53c 8795 75bd
000001e0: 4d0a 813d 3777 bdbd 2e1b 1b3d 5585 b8bd
000001f0: b23d b3bc 6a63 e3bd 59f6 ac3d e04c 02be
00000200: 96f6 a13d 15eb b4bd 36dc c63d 21dc 98bd
00000210: 3d7a c0bd 7241 f93d 492e 913c ee0f 00be
00000220: 2105 c9bd 38c3 12be 8f0e babd 80e3 69bd
00000230: 6e86 803d e79a b2bd 5657 f7bd f7c7 fa3c
00000240: 05fb e8bc a017 11be e0b7 9cbb 9468 7d3d
00000250: b9a0 b73d 1688 5b3d 5b37 893d a1bf a53c
00000260: 5da3 02be 5ebe cd3d b346 5b3d 5141 05be
00000270: ecaa ef3c 0885 a6bb cb81 0b3e f7b9 d73d
00000280: 1742 223d 05d6 323c e6d8 41ba 9eb7 31bd
00000290: 340d 253b 8963 dfbc a65b bc3d 532c 503d
000002a0: c5a4 00bd fbbe dcbd 5c90 babd 9495 733b
000002b0: 4dec d63b 2b2c 00bd 72ba 79bc e235 dbbd
000002c0: 9886 d73c 2425 16bd dca6 ee3d e56b b1bd
000002d0: c15c 17be 3473 ac3c 5adf cbbd 571d aa3d
000002e0: c6a7 05be db8a 9ebd 0644 f3bd d97f ccbd
000002f0: 20a1 e6bd 72be 6ebd 645c 623d fe9b 003e
00000300: 0455 833d b2d6 84bd 3e6a 623e 861d e4bc
00000310: 7403 a63e f461 1d3d 9e71 86bd afed 8abd
00000320: ca03 453e 6487 2abd 77e9 113d 0770 953e
00000330: 6efd 70bd d94c 2c3e 2e5c fa3d 6327 193e
00000340: d4ae 033d b5b7 4d3d c8b6 1dbd bc03 d63d
00000350: 467a 683e 83c1 f23d f1d8 863c 3cf2 533d
00000360: 4a99 d63d a5ea a3bd 1f1a a43d 53b8 4a3d
00000370: 4a28 a73e 899e e53d 563b 35bd 9e0b 213e
00000380: 56cf bfba e3f1 323d 6191 1d3e fde2 d13c
00000390: da73 62bd 7587 db3d e0f9 033e 2c3c 2d3c
000003a0: eca3 083d e517 063e 8e3e 333d 33a3 2f3e
000003b0: d468 293e 3647 80bd b37f 403b 6cc1 693d
000003c0: dc1a fb3d ffe1 4d3e 161e 973c f75e 5fbd
000003d0: fc7c 49ba 9975 d13d 0f8a cc3d c3f4 513d
000003e0: d946 073e 9261 b23c 9932 d13d 5f7e 363d
000003f0: 19f9 313e 9a54 063e 94a3 353e 65d1 a03c
0.09498688 0.06741477 0.121107675 0.15711421 0.14106171 0.10254408 0.10842287 0.012620798
0.17337039 -0.05848587 0.04152286 0.22435205 0.107043035 0.06335267 0.147129 0.13355505
-0.039987043 0.023473274 -0.03238561 0.099073604 0.14254141 0.09415416 0.0945877 0.06855258
-0.033996552 -0.005269845 0.1363898 0.058643922 0.10788307 0.012824703 0.14384575 0.16205162
0.034051232 -0.034333687 0.016997807 0.15624115 0.063358344 -0.0031825504 0.029176965 0.00751008
0.2250706 0.01448877 -0.05979171 0.042237453 -0.005120893 -0.08179523 0.09629612 0.019247225
0.15066709 0.06532157 -0.057229135 0.064480044 0.0020528913 -0.06590375 0.058358233 -0.08007719
-0.015837256 0.06834962 0.11395827 0.1375006 -0.01467778 0.059761778 0.15797587 0.11467541
-0.1548438 0.027358383 -0.033662993 -0.16446313 0.035320308 -0.15141222 -0.16483015 -0.09707474
0.025681105 0.0919419 0.023151243 0.021563897 0.068872176 0.021649085 0.14926969 0.013198762
-0.089747876 -0.019209677 -0.13129735 -0.031356152 -0.07750173 -0.053952347 0.059084285 -0.0059753926
-0.011302595 -0.05156689 -0.11563954 -0.09863204 0.059358615 0.0008575578 0.0074252724 -0.09065145
-0.053899013 -0.06584045 -0.12710486 -0.030380687 0.056844983 0.09636997 -0.1280175 -0.008130718
-0.071754225 0.017375717 -0.1091256 -0.05236761 0.032385457 0.02027349 -0.017691674 -0.14625178
0.03500738 -0.04596291 -0.060771745 -0.0037834994 -0.055832077 -0.013368909 0.020151123 -0.059957054
0.06300793 -0.09251254 0.037867717 -0.09009806 -0.021880005 -0.11102946 0.084454246 -0.12724638
0.07908361 -0.08833901 0.09709971 -0.07463861 -0.09398315 0.12170686 0.017722266 -0.12506077
-0.098154314 -0.14332283 -0.09084808 -0.057101727 0.062756404 -0.087209515 -0.12077205 0.030612929
-0.028440008 -0.14169168 -0.004782662 0.06186731 0.08966202 0.05359658 0.06700011 0.020232977
-0.1275763 0.10046075 0.05353422 -0.13013197 0.029256307 -0.0050817765 0.13623731 0.10533517
0.03961381 0.010915284 -0.0007394686 -0.043388 0.0025184872 -0.027269142 0.09197168 0.05082352
-0.031407136 -0.10778614 -0.091095656 0.0037168013 0.006558931 -0.03129212 -0.015242206 -0.10703637
0.026309296 -0.036656514 0.1165292 -0.086631574 -0.14781477 0.021051027 -0.0995471 0.083063774
-0.13052282 -0.07741328 -0.11878209 -0.099853225 -0.11261201 -0.05828709 0.05526389 0.12559506
0.064127 -0.064862624 0.2211084 -0.02784611 0.3242451 0.038423494 -0.065646395 -0.06783616
0.19239727 -0.041633025 0.03562304 0.29187033 -0.05883544 0.1682619 0.12224613 0.14956431
0.03214915 0.050224025 -0.038504392 0.10449931 0.22702894 0.11853316 0.016460868 0.051744685
0.10478456 -0.08003739 0.08012795 0.04949219 0.32647926 0.11211879 -0.04424604 0.15727088
-0.0014633934 0.043687712 0.15387489 0.025620932 -0.055286266 0.10719196 0.12888288 0.010573428
0.033359453 0.13095053 0.04376083 0.171521 0.16543895 -0.062635824 0.002937299 0.057069227
0.122609824 0.20105742 0.018446963 -0.054533925 -0.00076861656 0.10227508 0.0998727 0.051258814
0.1321062 0.02177504 0.10214729 0.04455411 0.1738018 0.1311821 0.17738181 0.019631097

rnn.bias_hh_l0 f4 [256]
00000000: f897 d63c 0bd6 053d 80cc 0b3c e99d 233e
00000010: c35c 2c3e 6c4a 2fbc 9ad9 33bd 917f 75bd
00000020: ecb3 683e caf4 e93d 9616 903d 252a 883e
00000030: cd3b d03d 0925 abbc 1590 1d3e ac33 3f3e
00000040: 4d12 363e 6204 db3d 33ee 113e 3197 95bc
00000050: 38c2 1c3e 556e e63d 30b8 b73d d737 8c3d
00000060: 8635 dd3d 6fcd 8dbc 4168 dc3d 4435 a53d
00000070: ed75 143e 6eef ce3d 9d68 b33b 07ad 233d
00000080: 73eb c83d ce30 c23d 7567 243e 454d 2ebc
00000090: 04d8 92bc df25 a5bd fceb 69bd 1366 29bd
000000a0: 6dfd 2a3e bd52 683c 5a25 dc3d c733 4d3e
000000b0: a4ac 233c 18d5 a5bd aac3 bb3c a5c4 9abd
000000c0: a670 a13d 8acb 3c3e dbb7 993d bd60 53bd
000000d0: edbb 2f3e 2adb 97bd 2079 cf3d 92cc ccbb
000000e0: 6a1e 0b3e 5ef6 373d 3f7d c9bc 071a fe3d
000000f0: 3942 393d 1bb7 bb3d f959 353d f488 7dbd
00000100: b6e1 593d 310f 10bd bb1b d73d f987 5ebc
00000110: 14ac 063d 3493 9fbd 6e25 333d 0f4e b83d
00000120: 2683 e23d 24a2 ea3d 2720 3f3d 3674 743d
00000130: 35c9 b8bb 2f98 21bd 4b64 83bd 3dc4 a73d
00000140: 68fa 64bd ed35 a8bd d213 53bd 1d21 d0bd
00000150: 18bb 7b3d 0cd5 2bbe 4fde d53d ec07 22bd
00000160: 1d1a 29be aae8 12be 39c3 40bd 93e3 bbbd
00000170: f770 90bd b686 aebd ee32 37bd 90a7 64bd
00000180: bc00 cfbd 3d2d 06be 0833 babd a9de b23c
00000190: f522 b83d 5f50 97bd abfb 373d b921 d6bc
000001a0: a30b a03d 9bd2 a43d ce71 2a3d d378 063e
000001b0: 85fe 0cbd 35eb 4dbd dbde 363d e333 2e3d
000001c0: 8b6c b8bd 9c3f b1bd d3b2 f33c d7ec b8bd
000001d0: 4cd4 f2bc 39e0 6cbd 6ec4 91bd 84fc f5bc
000001e0: efce de3c 6e1b 033e a202 8d3c 2ecd 93bd
000001f0: 67e8 ffbc b77b 923c 05c3 d2bc 0a8f 7bbd
00000200: a1d0 773d 9b3b 8ebd e731 ecbc 9f19 0ebe
00000210: 0d04 993d b51e 9e3d 1e0b 0cbe 7904 edbd
00000220: ed04 8f3d b259 9a3d 9c57 cbbc 52f6 0b3e
00000230: cdfb a03d dadb c3bc fb33 fe3b 9917 843b
00000240: 4285 0fbe f263 243d e869 1a3e c4a1 ef3c
00000250: 051e c0bd 831d c73d 34b9 5dbc f485 8c3b
00000260: 5ee5 61bd 02d5 1b3e 5b89 f03d 1fa5 9bbc
00000270: 9ba3 06bd 55b2 cdbc 8102 26bc 572c 0dbd
00000280: 5fa4 363d 1d39 c4bd 2864 c9bd 27cc c13d
00000290: 4ba5 853d 36c6 01be c9e9 323c 4aea 153e
000002a0: e23d 99bc 39f3 acbb b0f7 b3bd c196 693d
000002b0: 3143 61bd 911b dabd f98b 183e 52b8 f7bd
000002c0: 3a03 f7bd fc77 61bd a63d 123e 11c5 9bbd
000002d0: ae17 bb3d 0723 163e 6ef9 223d 8bcc 8e3d
000002e0: 6dd2 c7bc 59d4 d73c d6f6 d2bd 9d6b 03be
000002f0: 2b99 82bc ac31 8abc 6cbe 37bd 801f 883d
00000300: c000 2dbc 2163 33bd 63cc a43d f0eb e73c
00000310: 766f 4d3e e4d0 cfbd 5d91 493d 9450 a13d
00000320: 405b 813d 2200 65bd da34 3fbd 4726 7c3e
00000330: e43b f03d 6574 d33d c20e 243e d489 5b3e
00000340: 3c54 613d 49c4 8a3b ab3b 963c 0077 2bbd
00000350: 19b0 323e 5d09 8c3b 8402 243e 3e6d 203e
00000360: f607 79bd aee1 a73c 0057 d93b 4f67 193e
00000370: 2727 173e cb51 703e 6e69 3c3d 9c0d 4b3c
00000380: 960d f9bc 494e 183e 84b0 62bc 4a03 503e
00000390: 57e3 cdbc 9778 e73d 30d6 b83d 7c4f 393d
000003a0: 65b8 2a3e c013 183e 5e79 2c3e 55b4 633e
000003b0: 1c7c 683d 169b 9e3d 9397 dd3d 5b81 a83d
000003c0: 4054 87bd 5faf 0e3d 24fb d13d 2c51 93bd
000003d0: 12ac 3f3e 0149 933d ac7a 86bd a617 ad3d
000003e0: b1d7 683d ecf8 653c 1ae1 413a 007a 74bd
000003f0: d45c 20bd e27a b43d d670 683e 2e84 fd3d
0.026195511 0.03267483 0.008532643 0.15978207 0.16832261 -0.010698896 -0.043908693 -0.05993611
0.22724885 0.11423643 0.07035558 0.26594654 0.10167656 -0.020891683 0.15386994 0.18672055
0.17780419 0.10694195 0.14251022 -0.01826057 0.15308464 0.11251513 0.08970678 0.06846588
0.108012244 -0.017309872 0.10762072 0.080668 0.1449811 0.10104261 0.0054751174 0.039959934
0.098105334 0.09481965 0.1605509 -0.01063854 -0.01792527 -0.08063864 -0.057109818 -0.04135711
0.16698237 0.014179883 0.10749312 0.20039283 0.009989891 -0.08097285 0.022920448 -0.07557038
0.07882814 0.18437019 0.07505771 -0.05160593 0.17161532 -0.07414849 0.10130525 -0.0062499726
0.13585821 0.04491269 -0.024595855 0.12407308 0.04522917 0.09165784 0.044275258 -0.061898187
0.05319377 -0.035170738 0.10503336 -0.013582223 0.03287895 -0.07791749 0.043736868 0.089992635
0.11060171 0.11456707 0.046661522 0.05968114 -0.00563922 -0.039451774 -0.06415614 0.08191726
-0.05590287 -0.082134105 -0.051532574 -0.10162566 0.061457723 -0.1678049 0.104427926 -0.039558336
-0.16513868 -0.14346567 -0.04706118 -0.09174266 -0.07052796 -0.08521788 -0.044726305 -0.055823863
-0.10107562 -0.13103195 -0.09091765 0.021834688 0.089910425 -0.073883764 0.044917744 -0.026139127
0.078147195 0.08047982 0.04161244 0.13132028 -0.034422416 -0.05027314 0.044646125 0.04252995
-0.09005078 -0.08654711 0.029748356 -0.090295486 -0.029642247 -0.057831023 -0.07117544 -0.030027635
0.027198283 0.12803432 0.01721317 -0.07216869 -0.031238748 0.017881257 -0.025727758 -0.06141571
0.0605017 -0.069449626 -0.028832389 -0.13876961 0.07471476 0.07720701 -0.13676116 -0.11573119
0.069833614 0.07536639 -0.024822049 0.13668182 0.07860527 -0.023908544 0.0077576614 0.0040311334
-0.14015678 0.040134378 0.15079463 0.02925194 -0.09380726 0.09722426 -0.013532925 0.0042884294
-0.055150382 0.15217975 0.117449485 -0.018999634 -0.03287087 -0.02510945 -0.010132433 -0.034466114
0.04459035 -0.09581206 -0.098335564 0.09462767 0.06525668 -0.12673268 0.010919997 0.14640155
-0.018706266 -0.005278018 -0.08787477 0.057028536 -0.05499572 -0.10649789 0.14897145 -0.12095703
-0.12061162 -0.055046067 0.1428133 -0.07605947 0.09135376 0.146618 0.039788656 0.06972607
-0.024392331 0.026346372 -0.103009865 -0.1283402 -0.015942177 -0.016869389 -0.044859335 0.06646633
-0.010559261 -0.04379571 0.08046796 0.028310746 0.2006205 -0.101472646 0.049210895 0.07876697
0.06316233 -0.05590833 -0.046681263 0.24623977 0.11730173 0.10324935 0.16021255 0.21439296
0.055011973 0.004234825 0.018338999 -0.041861534 0.17449988 0.004273577 0.16016585 0.15666673
-0.060798608 0.020493355 0.0066326857 0.14980815 0.14761029 0.23468702 0.045998983 0.012393381
-0.030401986 0.14873613 -0.01383603 0.20313755 -0.025132818 0.113022976 0.09025228 0.045241818
0.16671903 0.14851284 0.16843173 0.2223676 0.056758985 0.07744424 0.10819926 0.082277976
-0.06607866 0.034835216 0.102529794 -0.07193217 0.18717983 0.07191659 -0.065663666 0.08451776
0.056846324 0.014036398 0.00073959085 -0.05968666 -0.039151028 0.088125005 0.22699293 0.12378727

rnn.weight_ih_l1 f4 [256, 64]
00000000: adae bb3b b3a8 b03d 4691 1fbd 78d2 1abc
00000010: 8524 983e 9be8 b8bd 5dfa b3bd d5d9 87bd
00000020: df81 8cbd 038f 983d ca3d 573c 7481 74be
00000030: 4d42 d23c f6d4 babd ed55 133e caf4 8b3d
00000040: 07cf 1d3a 079e 963d 5b06 fcbc f17e cbbb
00000050: 822f 5e3b 5393 a53d 3394 ab3c 3adb 18bd
00000060: 738f 563c 7e56 d3bc 8272 f4bc 38ea 83bc
00000070: b888 493e 6b75 20be 9dd9 e9bb c081 60bd
00000080: 5773 a83d b715 07bb c541 0abd 73fb 683d
00000090: 7c3e 283e f371 85bd 56ff 77bd 91ef 4b3d
000000a0: fd22 53be dbaf 373c ac52 aa3c 6e85 86be
000000b0: 5cdc 3e3d 0f1b 66bd 53c5 183e 7000 dbbc
000000c0: 17e6 08be f44c 3bbe 55ce 1f3e 9f02 91bd
000000d0: faae c7bd 3697 033d 487f 7e3d 3e84 753d
000000e0: 4f9c debd 4531 1dbe 298e 2bbc 663b f8bd
000000f0: de24 c1bd fb6c 1d3d 0ed3 413e 798c 72bc
00000100: 4676 38bd 8e5b f53c bfb8 46be 20f9 9e3d
00000110: e3ca 193e 3df3 dc3d a032 c73d 60f1 6e3d
00000120: 4a09 0ebe 915a 5cbd f539 3f3d 0313 75be
00000130: 7923 c53d ecda 573d 520c 173e 20a8 a2bc
00000140: 99f3 01be a583 57bc 7c82 8cbd bec6 8ebc
00000150: c40a ab3c 882d e0bd 5f55 58bc 55a9 4d3a
00000160: f7a8 2b3d f116 0c3d 63dd 54bd 22a4 e2bc
00000170: ca0d 403e a192 343d e7d6 1d3e 6e93 46bd
00000180: d09e 87bd c3f5 073d f2cf 9e3d 05eb 1c3e
00000190: 11a7 c93d ede0 b4bc 83bf d93c b4d3 0438
000001a0: 7150 4cbe db40 d13c c9f3 19be 9310 f7bd
000001b0: 38eb adbc ad31 3fbd a6c9 bd3d 88f1 7cbc
000001c0: ea0e a0bd 51fc 1cbe ddad 8b3d a814 03be
000001d0: 24a7 d4bd 548e e13d ad83 283e 721f cabc
000001e0: c783 10be 8fa7 27bd 9fcd f6bc eaad bd3c
000001f0: 6b2b cb3d 2757 853d eee3 3b3e f19d 8f3c
00000200: 2c44 82bd 4ba8 19bd 6b5c 9fbd cba5 e0bd
00000210: 4028 903e 04a8 4f3d 5b21 a2bd ad3d cabd
00000220: a8a2 c3bd 117c bbbd 6015 063b 6f7a c3bd
00000230: 8d84 af3d 5973 e7bd 4535 373e 6b67 49bc
00000240: a015 88bc 607d babd 2b8e 873c 212d e9bc
00000250: 7203 4fbe d0eb 63bd 4f19 d63d 0032 f93d
00000260: 85c9 303d b7fa ef3d f4bf 41bd f694 063c
00000270: 604e 0b3e d24c 48be 981a df3d ebb7 94bd
00000280: 2422 f63d cd25 063d 234e 043d 149f f63d
00000290: 81f4 e63d 10f1 2ebd 0dda a9ba 4a56 57bd
000002a0: ce86 32be 66cb e1bd 72b2 1abe abda 91bd
000002b0: df1b a0bd 50d3 f8bd 4778 92bd 0b11 20be
000002c0: 2e90 cbbc 5b65 cfbc 8fd3 c93d 17d5 1abe
000002d0: bbcc 02be 047d e1bc 1670 4c3d bae2 bcbd
000002e0: c70a 363d 9c62 983b 11be 4abd a934 0abe
000002f0: 64ba 413b a763 52bd 591c 373d 3988 1e3e
00000300: 474e 82bd 7424 ac3b 1b35 e1bd 8cab 863d
00000310: 8757 1d3e 2ffc 55bb 6893 a5bd 4e98 d6bc
00000320: 2a0c e7bd 3e9f 2f3d 0a90 bebc 4657 4ebe
00000330: ce51 e3bd f86d 333c b0ab f73d 0802 10bd
00000340: 25aa 753d 09c6 1fbe acec 3b3d c4a4 0f3e
00000350: 3056 82bd a55c ec3c 04fc 3a3e 68c3 033e
00000360: 93c3 49bd cf91 f9bc 87e1 4b3d fa27 ba3d
00000370: 948c 503d dbc9 3bbd 0d54 023e f70e 1a3e
00000380: a4c5 393d 5091 debd 7875 463d 5f61 ab3a
00000390: 7e15 233e 5c74 efbd 11fc e13c b560 183e
000003a0: b56d 27be a53e f7bc 5386 15be ff94 11be
000003b0: d08b 84bd 7cd6 bebd 8bf9 bdbd f0c8 ac3d
000003c0: f3ec 69bd 6df3 24bd 3269 033e 230d 01be
000003d0: 107b 823b 55cb e23c a1ba 2e3b 8ca7 6e3d
000003e0: c07e 92bd c630 3abd 0dfa 0bbe db1d 4f3d
000003f0: ffdb 05bd b57e 893d 4037 d0bb 77d9 0f3e
0.00572761 0.08625927 -0.038956903 -0.009449594 0.29715362 -0.09028741 -0.087879874 -0.06633345
-0.068607084 0.07449152 0.01313729 -0.23877507 0.02566638 -0.0912265 0.14388247 0.06833799
0.0006019924 0.0735436 -0.03076475 -0.006210201 0.0033902829 0.080847405 0.02094469 -0.037318446
0.013095724 -0.025798079 -0.029839758 -0.016102895 0.1968106 -0.15669791 -0.007136537 -0.05481124
0.08225124 -0.0020612308 -0.03375413 0.056880426 0.16430086 -0.06515875 -0.06054624 0.049789015
-0.20618816 0.011211361 0.020791374 -0.26273674 0.04659687 -0.05617815 0.14919023 -0.026733607
-0.13369022 -0.18291074 0.15606053 -0.07080578 -0.09750171 0.032126628 0.062133104 0.05994057
-0.10869657 -0.15350826 -0.010470905 -0.12120704 -0.0943086 0.03843401 0.18928167 -0.014803999
-0.04503467 0.029950883 -0.19406413 0.077623606 0.15018801 0.107885815 0.09726453 0.058335662
-0.13870731 -0.05379731 0.04668613 -0.23933034 0.096259065 0.052699015 0.14750794 -0.019855559
-0.12690581 -0.013153945 -0.068608254 -0.017428752 0.020879157 -0.109461844 -0.013203948 0.0007845362
0.041909184 0.034201566 -0.051968943 -0.027666155 0.1875526 0.04408515 0.1541401 -0.048480444
-0.06622088 0.03319336 0.07754506 0.15324028 0.098463185 -0.02207991 0.026580578 3.1668416e-05
-0.19952561 0.02554362 -0.15034403 -0.12063708 -0.021230325 -0.046678234 0.09266977 -0.015438445
-0.07815345 -0.15330626 0.06820271 -0.12800848 -0.10383442 0.11013475 0.1645648 -0.024673197
-0.14112769 -0.04093128 -0.030127345 0.023154218 0.09920391 0.065107636 0.18348667 0.017531367
-0.06360659 -0.037514012 -0.07781299 -0.109691225 0.28155708 0.05069734 -0.07916518 -0.09875045
-0.095525086 -0.09154523 0.0020459518 -0.09544837 0.08570204 -0.11301298 0.17891414 -0.012292723
-0.016611874 -0.09105945 0.016547283 -0.028463902 -0.20216158 -0.05564481 0.10454046 0.1216774
0.043160934 0.11717742 -0.0473022 0.008214226 0.13604116 -0.19560555 0.10893744 -0.07261642
0.120182306 0.032750893 0.03230108 0.120420605 0.11277104 -0.042710364 -0.0012958661 -0.052572526
-0.17434236 -0.11025123 -0.15107134 -0.07121786 -0.07817816 -0.1214968 -0.07151847 -0.15631501
-0.024849024 -0.025316885 0.09854805 -0.1512035 -0.12773411 -0.027525432 0.04991158 -0.09222932
0.04444387 0.004650427 -0.049497668 -0.13496651 0.002956056 -0.051364567 0.04470477 0.15481652
-0.063625865 0.005253369 -0.10996457 0.06575689 0.1536542 -0.0032651534 -0.08084756 -0.026195671
-0.11281617 0.042876475 -0.023262043 -0.2015048 -0.110995874 0.010951512 0.12093294 -0.035158187
0.059976716 -0.15602888 0.045880005 0.14027697 -0.06364095 0.02885277 0.18260199 0.1286751
-0.04925878 -0.030465035 0.049775627 0.09089656 0.050915316 -0.0458468 0.12727375 0.15044771
0.0453545 -0.1086756 0.04845187 0.0013075283 0.15926167 -0.11692116 0.027586015 0.14880641
-0.16350444 -0.030181238 -0.14602022 -0.14216994 -0.064719796 -0.093182534 -0.09276112 0.08436763
-0.057110738 -0.04027121 0.12833098 -0.12602668 0.0039819553 0.027684847 0.0026661532 0.058265254
-0.07153082 -0.04545667 -0.13669606 0.05056558 -0.032680508 0.067136206 -0.0063542426 0.140478

rnn.weight_hh_l1 f4 [256, 64]
00000000: 184c 223d 95f3 a83d af46 cd3d c036 b6bd
00000010: 1030 c6bd 0196 56bd 56b2 9b3d 18d3 763d
00000020: 01af d1bd 0f7e 843d 5f3a f13c 938a 0b3d
00000030: eb85 b5bd df71 ca3d 0804 123d e4db d8bd
00000040: 8fc1 e43d 275b 86bd f83c 913c 5d9e 52bc
00000050: 0977 57bd f07f 0b3d 1727 b43c 2061 133e
00000060: 546d 3c3c eb39 653d 064d 573d 645e 7ebd
00000070: 2a30 aa3d 6d85 ca3d 6423 46bd 3fb3 9e3d
00000080: f3f2 be3c 40ac 74bc 7e38 07bd e240 733b
00000090: 2592 98bd 36a1 733d b9a6 c73d 8df0 903d
000000a0: f690 ecbd 1ebc 18be 4e56 263e 701d 80bd
000000b0: 17ac f2bd 1faf aa3d 0c63 9939 c113 923d
000000c0: b185 fdbd 5a73 b5bd 5def e0bd 1163 28bd
000000d0: c860 153d 5ba0 843c 8f27 f63d 14b9 3f3d
000000e0: 2fe2 b83d e849 553d 5f84 9dbd 0a87 023d
000000f0: 3222 773d d3fb f33c 3d0f 17bd 486c 19bd
00000100: c2b4 c43d 5887 0d3e d3c4 c23d d3e3 d8bd
00000110: bae4 48bc 7a8b 713d dd3f ccbc d076 b2bd
00000120: f6c7 f43d 9882 b9bc 924b 19bd d740 66bd
00000130: 410a 76bd cacb 32bc 8989 fcbb cdcf 11be
00000140: 1bb6 7cbc 76c9 0c3e d04a 963d acdd b23d
00000150: eaf9 993c b3fe fd3b faf8 163d 0750 843d
00000160: 579f 19bc 6b9a 07bd 3ad2 20bd b5bb 3ebd
00000170: 5638 bcbd 8a1c 203e e3cf 2c3e 5a5e d13d
00000180: 5bee 833d 9b5c 78bd 2ac4 bcbd 4e01 723d
00000190: fee7 313d 2509 b63d 4387 b23d 810e d2bd
000001a0: f62e 26bd 8183 7ebd 3e24 18bd a2fb 47bd
000001b0: 55c2 23be 8458 dd3d 8961 433d f83b 0fbd
000001c0: 7663 4d3d 1f13 873d 0536 aabb 38ca 58bd
000001d0: d4c3 f2bc 8660 50bc 5975 fd3c 47c9 703d
000001e0: 2f84 b1bd 9906 5f3d 0809 af3b 88f0 39bd
000001f0: fbd4 823d 9ef6 b239 2c8a 133d 66d5 fdbd
00000200: 5a67 7a3c 667f 44bd eb83 963d 7b04 b53c
00000210: dd74 58bd 0346 e43d 6333 2d3d b808 903d
00000220: de23 883c db23 f03d 3ef8 e4bd c608 9bbd
00000230: 62eb 6ebc a756 cc3d 813d 993d 957f a73c
00000240: f08a 26bd e029 b4bd 49e8 4c3d 4b5d 123e
00000250: a11a a3ba 38d8 87bd bbf7 88bd 952a 7d3b
00000260: 4b50 003e ce75 08bd de7f 76bd 9733 eebd
00000270: 688e 8fbd f1a3 0bbc 2b19 b5bc e5f0 92bd
00000280: 3c3d 02bd 4626 b63d b1b5 a7bd 4ea1 e8bd
00000290: 9cac 2cbe 02e9 b6bd c2ac 053d 9f6a 903c
000002a0: d7bd 4f3d 3248 98bd 931d 363e d31c aa3d
000002b0: 4415 e6bd d7f8 89bd 3bca e3bd 68fc 9f3d
000002c0: 24c5 d83d 7814 ee3d 4390 20bd ab67 8fbd
000002d0: 3ecb 0fbd c8ca 37bd 9a05 e53d f06c 85bd
000002e0: 8d6d 9dbd 10ec febc 2fd9 bf3d 9b73 02be
000002f0: 08d5 d53d e402 283d 24a9 823c a5ac c3bd
00000300: 1cd1 433c 9363 273d f0a9 053d 5824 9cbd
00000310: 71ea 483c cf09 b0bc 7a98 193d 3634 103d
00000320: d75b 86bc b010 adbd 4de3 85bd fdb4 db3d
00000330: fcfe 903d a865 b7bd b2f9 19bc 2d25 11be
00000340: 100c 06bd 29f6 04bd 9fc4 fbbd 1343 85bd
00000350: ba3e afbd 9edc 053c 9460 213d 4d3c 77bd
00000360: fa71 023e 86c3 423d cc0f 8abd a9b7 01bd
00000370: 7f02 d8bd 6ff5 49bd 56f1 3dbd d35b db3d
00000380: d6fb a1bc 3698 eb3c 4b28 593d 9f09 75bd
00000390: d2af d7bd 619a 9e3d 0143 f3bc a7a0 c5bc
000003a0: 60e5 86bd 674a 9fbd 81ad dc3d 0660 1d3d
000003b0: 27ff 0a3d 8252 de3b 040a 463d 86e5 533d
000003c0: e364 c73d 0390 2ebd 5565 a0bd 3d09 593d
000003d0: a914 abbd bf9e a3bd 0ffc 24bd e611 45bd
000003e0: 4d09 373d 01c6 eebd 086d 993d 7c85 2e3d
000003f0: 23d8 68bd ed57 ff3b b6ef ed3d 3473 75bd
0.03962335 0.082495846 0.100232475 -0.088971615 -0.09677136 -0.05238915 0.07602374 0.06025991
-0.102384575 0.06469356 0.029446779 0.0340677 -0.088634335 0.098850004 0.035648376 -0.10588816
0.11169731 -0.06560355 0.017729267 -0.01285514 -0.052603755 0.034057558 0.021991296 0.14392519
0.011500675 0.055963438 0.05256369 -0.062101737 0.08309968 0.0988873 -0.048373595 0.07749032
0.023309207 -0.014933646 -0.03301286 0.003711753 -0.0744975 0.059479915 0.09748597 0.070771314
-0.115510866 -0.14915511 0.1624386 -0.06255615 -0.1184923 0.08334183 0.0002925623 0.07132674
-0.12379015 -0.08859892 -0.10983155 -0.041110102 0.03646925 0.016189745 0.12019264 0.046807364
0.09027516 0.052072436 -0.076912634 0.031867065 0.060335346 0.029783165 -0.036879767 -0.03745678
0.09604789 0.13821161 0.095101975 -0.10590329 -0.012261564 0.058970906 -0.024932796 -0.08714068
0.11952202 -0.02264528 -0.037425585 -0.05621418 -0.060068373 -0.010912845 -0.007706825 -0.14239426
-0.015424277 0.13748726 0.07338488 0.08733687 0.018795926 0.00775131 0.036858536 0.064605765
-0.0093763685 -0.03310625 -0.039262988 -0.04656573 -0.09190433 0.15635887 0.16876177 0.10223074
0.06441947 -0.06063519 -0.09217103 0.059083275 0.043434136 0.08888463 0.087172054 -0.10256673
-0.04057213 -0.06213713 -0.03714394 -0.04882396 -0.159921 0.10807899 0.04770044 -0.0349693
0.05014368 0.06595444 -0.005194428 -0.052927226 -0.029634394 -0.0127183255 0.030939745 0.058785703
-0.0866779 0.05444965 0.005341653 -0.045395404 0.06388279 0.0003413455 0.036020443 -0.12394218
0.01528343 -0.04797306 0.0734938 0.022096863 -0.052845825 0.11146166 0.042285334 0.07032913
0.016618665 0.11725589 -0.11180161 -0.07570033 -0.014582487 0.09977465 0.07482434 0.020446578
-0.040659845 -0.087970495 0.050026212 0.14293401 -0.0012443849 -0.06633037 -0.06687876 0.0038630117
0.1253063 -0.033315472 -0.060180537 -0.11630934 -0.07009584 -0.008522973 -0.022106728 -0.07174853
-0.03179668 0.08894019 -0.08188952 -0.113588914 -0.1686272 -0.089311615 0.032635458 0.017628966
0.050718155 -0.07435645 0.17784719 0.08306279 -0.11234525 -0.067369156 -0.11122557 0.078118145
0.105844766 0.11624998 -0.03920008 -0.07002195 -0.035105936 -0.04487112 0.11182709 -0.06514919
-0.07686911 -0.031118423 0.09367596 -0.12739412 0.10441023 0.04101838 0.015949793 -0.09554414
0.011951711 0.040866446 0.03263277 -0.076241195 0.012262926 -0.021489052 0.03749893 0.035206042
-0.016401215 -0.084504485 -0.06537495 0.1072788 0.070798844 -0.08954936 -0.009397911 -0.14174338
-0.032726347 -0.03246132 -0.12293362 -0.06506934 -0.08556886 0.008170275 0.039398745 -0.06036024
0.12738791 0.047549747 -0.06741294 -0.031669293 -0.10547351 -0.04930633 -0.046372734 0.107108735
-0.019773405 0.028759103 0.053016942 -0.05982363 -0.10531582 0.07744289 -0.029695036 -0.024124457
-0.065867186 -0.07777863 0.10775281 0.038421653 0.03393474 0.006784738 0.048349395 0.051732562
0.097360395 -0.04261781 -0.078318276 0.052987326 -0.0835355 -0.07989263 -0.040279444 -0.048112772
0.044686604 -0.1165886 0.07491499 0.04260777 -0.05684675 0.007792464 0.11617987 -0.05992432

rnn.bias_ih_l1 f4 [256]
00000000: 8b65 893d b777 32bd 0fa2 813d d98c a1bd
00000010: 1c93 d73d 42f4 d93d b906 e3bc fe84 a6bd
00000020: 56bc da3d 2ec3 293e 3c1c 33bd 4242 f93d
00000030: 7461 15bc 5512 983c 4f93 1b3d cb94 813e
00000040: de4e 233e a994 f4bc 01cd 903d 3eb1 0fbd
00000050: 31ca bebc 65ae c93d 37f7 db3d 31ca 88bd
00000060: a641 e83d e929 143e 0daa f8bc 92f9 ee3d
00000070: 8da1 d73d a423 0d3d d7e8 103e 5934 ad3d
00000080: 1f6c cd3d 2bd8 9f3c bceb c03c 5964 483c
00000090: 77cb d7bc 930b 0c3e 575e ae3c a941 14bd
000000a0: e1b1 4f3d 3ae9 ec3d 0fe0 183d 846a 2a3d
000000b0: ad81 2b3d 4609 82bd 4975 b33c 9a58 023d
000000c0: 7f85 1a3e 45af 223e d888 103e d5a2 333c
000000d0: ef18 3f3d 894d 993d b003 ed3d 9f9e e03d
000000e0: 9fe6 c2bb f211 0f3e 6f8a 0d3e 50aa 1c3e
000000f0: 5fff 623d 8d93 833d 6072 f13d ffd5 e4bb
00000100: 0175 3dbc ff8a 853d ff2b cdbb 0bc9 563d
00000110: 7069 2abd 1cd8 cdbd 4566 84bd ceb3 04be
00000120: f293 a13d 96da 633c e960 eabc 52ff 3f3d
00000130: 4a80 e53a 1f0d 3d3d 7776 21be 0ce7 26be
00000140: 60af 53bd 5969 2ebd 64f8 113d 8800 eabc
00000150: 3116 063b 5d6f b8bd 3cba c83d fac6 c03d
00000160: d520 fcbc 593c 00be 2b6a 02be 8c9f 44bd
00000170: 5b02 733d 2390 8ebd b858 89bd 867a d3bd
00000180: 22b5 e63c 5928 1e3d ffa6 2bbd 3991 b3bd
00000190: 3649 cdbc 823e 093d 33f8 e8bd 623b 19bc
000001a0: 76a6 20bc 7e85 7e3d 4cdd 34be 7b1c a4bd
000001b0: bcef 8cbd c352 7b3d b279 37be a6f8 4a3d
000001c0: 3aa8 c83d afea bdbd ba22 0dbd f827 85bd
000001d0: 3a4b c9bd 8eb0 ac3d 44a3 23bd af41 e8bd
000001e0: 3105 a63c 6f3c aa3c e6e1 8c3d f6b5 2cbe
000001f0: e9ce a83b cb93 ce3d d917 5b3d 3f8c 48bc
00000200: e08d 953d 5abf 10be 620e 01be 8d41 8abd
00000210: 0821 253e f5c4 98bd 0586 ff3c 1429 a03b
00000220: c9a6 b5bc aeed 0cbe 4491 193e b2e4 763d
00000230: 4f15 90bd 41b7 0abd 4cac b53d bcc7 c43b
00000240: 4229 9cbd 3593 333d cd3d 93bd e4c2 633d
00000250: 4718 d83d 78fa 7d3d dba2 923d ba7a 963d
00000260: 482c 9cbc 4ce3 123d 81c1 393d e383 0cbd
00000270: 0168 15be 5c9b 7cbd b664 813d 2a27 4ebd
00000280: 8869 42bd 1e13 08be 1692 05be bc2d 0c3e
00000290: d1fa 943d bac9 c23c e9f0 95bd 59fc 143e
000002a0: dc14 003e 9138 213c 8319 6d3c 5a14 fa3d
000002b0: 47db f1bc 3e11 fcba 86f8 9b3d 9714 953d
000002c0: bfe9 96ba 46c9 12be 1431 e93d c651 59bd
000002d0: 9155 a63c a931 ca3d a188 e93d a87d c2bb
000002e0: d171 b9bd ad3d a73b 7eae 0e3c da35 2ebd
000002f0: ac11 92bd bae1 fbbb 4c13 c93b 81dd 46bd
00000300: d9bc af3d 38b4 86bd d24d 7a3d 45e6 213e
00000310: 19fb 8ebd 07b3 d03d 4874 003d aa28 7fbd
00000320: 40cc 3ebc 94e4 1d3e 7f80 053e 9f0d 303c
00000330: 2e53 863d 8170 94bd c102 cf3d ff30 ec3d
00000340: 2d0e 8fbc 6c7f 0dbd 84a4 05be 9cf6 2c3d
00000350: 4438 64bc 3045 093c 2ec8 a13d 8d85 803d
00000360: bf54 16bd 8d48 213e 5e17 853d 42c0 753d
00000370: 37cb e03b d834 eebb c2bf 183c 8844 34bd
00000380: 5c6a fc3d eb87 95bd 947c a93c 9b10 69bd
00000390: 6949 da3d c74d bb3d 0e28 17bd cfb5 0a3e
000003a0: 4e8c 56bd 994e 73bd 9d5c f63c 5cfe 2b3e
000003b0: 0ede 333c 1d6b f63d 353a 2a3d c8ec b9bd
000003c0: 23e1 c43d 3ba8 bc3d a2a5 3e3e d378 173c
000003d0: 86bb e13d e8d5 603b 2cdb 8bbd 416c af3d
000003e0: 869e 61bd c7d6 123e f0d4 d73d ba27 3b3e
000003f0: b83c 50ba cb5b a23d 3b3b e13c dc2f 123e
0.06708821 -0.0435712 0.06329738 -0.07888193 0.10526106 0.106422916 -0.027713167 -0.08130835
0.106804535 0.16578361 -0.0437281 0.12170841 -0.009117473 0.018563429 0.03798228 0.25308833
0.15948054 -0.029856043 0.070703514 -0.03508114 -0.023289772 0.09847716 0.10740512 -0.0667919
0.113406464 0.14469112 -0.030354524 0.116686955 0.1052886 0.034457818 0.14151321 0.0845725
0.10030388 0.019512257 0.023549907 0.012230956 -0.026342137 0.1367629 0.02128522 -0.03619543
0.050706748 0.11567922 0.037323054 0.041605487 0.041871715 -0.06349425 0.021906512 0.03182278
0.15089987 0.15887173 0.14114702 0.010964115 0.046654638 0.07485492 0.11572969 0.109677546
-0.0059479023 0.1397169 0.1382234 0.15299344 0.055419322 0.064246275 0.117893934 -0.006983518
-0.01156354 0.06520652 -0.0062613483 0.052437823 -0.04160446 -0.10050985 -0.06464819 -0.12959215
0.078895465 0.013907095 -0.028610663 0.04687435 0.0017509547 0.04615509 -0.15767847 -0.16299075
-0.051680923 -0.042580936 0.035637274 -0.028564706 0.0020460004 -0.09005616 0.098011464 0.09412952
-0.030777374 -0.12523021 -0.12735812 -0.04800372 0.05932842 -0.06961086 -0.06706375 -0.10326104
0.028162543 0.038612697 -0.041907307 -0.087679334 -0.025059324 0.033506878 -0.11375465 -0.009352537
-0.009805312 0.062139027 -0.17662543 -0.08013245 -0.06881663 0.061358225 -0.17917517 0.049553536
0.09797712 -0.09273278 -0.034456946 -0.06501764 -0.098288015 0.08432113 -0.039950624 -0.11340653
0.020266147 0.02078077 0.06879024 -0.16866288 0.0051516187 0.10086783 0.05348954 -0.0122404685
0.07302451 -0.14135495 -0.12603143 -0.06750784 0.16125882 -0.074594416 0.031191835 0.0048877094
-0.022174256 -0.13762543 0.1499682 0.060276695 -0.07035314 -0.03386617 0.08870754 0.0060052555
-0.07625057 0.04384156 -0.07189522 0.055605784 0.105515055 0.062006444 0.071599685 0.07347627
-0.019064084 0.0358613 0.045350555 -0.034305464 -0.14590456 -0.0616716 0.06318037 -0.05033032
-0.047463924 -0.13288543 -0.13044009 0.13689321 0.07274402 0.023777831 -0.073213406 0.14549388
0.12507957 0.009840147 0.0144714145 0.12210913 -0.029523505 -0.0019231213 0.076157615 0.07279318
-0.0011513754 -0.14334592 0.11386314 -0.0530565 0.020304473 0.09872753 0.11403013 -0.0059353895
-0.09054912 0.005103788 0.008708594 -0.042531826 -0.07132277 -0.007686821 0.0061363336 -0.048551086
0.08580942 -0.06577343 0.06110937 0.15810497 -0.06981487 0.10190397 0.031360894 -0.06229464
-0.011645377 0.15419227 0.13037299 0.010745435 0.06558834 -0.07248021 0.10107947 0.11532783
-0.017462814 -0.034545347 -0.13051039 0.042227373 -0.01392943 0.008378312 0.07899509 0.06275473
-0.036701914 0.15750332 0.064985976 0.059997804 0.0068601626 -0.007269483 0.009323062 -0.04401067
0.12324974 -0.07301315 0.020689286 -0.0569006 0.10658533 0.09145694 -0.036903434 0.13545917
-0.0523799 -0.05940113 0.030073458 0.16796249 0.010978235 0.12032149 0.041559417 -0.090783656
0.09613254 0.09211775 0.18617871 0.009245115 0.110220954 0.0034307186 -0.06828913 0.0856557
-0.05508282 0.14339744 0.105386615 0.18276873 -0.0007943618 0.07927664 0.027494064 0.1427607

rnn.bias_hh_l1 f4 [256]
00000000: afbd 85bd 9bb9 763c 65dd 6cbd 5740 653c
00000010: 7266 573d 20cb ef3a 9056 123c 3b3d 293d
00000020: 34b1 48bd 0bb1 c73d 6d2d 0f3c 7709 133e
00000030: cee5 403d 113d b43d fb99 8ebd ab69 4a3e
00000040: dd13 243d 8e9e 9cbd 4694 6abd f55c 9e3d
00000050: f40a d03d e470 8d3d e2f6 923d acac ffbd
00000060: dd94 a0bc 9e92 073d fc1f c93d b0a8 733b
00000070: 1deb 823c 2070 9fbc 9014 f83d c2b0 0cbd
00000080: c509 073c 979c a13d 0f58 cabc f297 8abd
00000090: 179a 433c bae7 933d bf38 463d 2b35 533d
000000a0: ca5d 71bd 2e96 85bc 5e39 373c 6c53 c33c
000000b0: 1884 cc3d 30b2 87bd 3bef 8dbd 8a1d 443d
000000c0: 57e3 943d 1cbe 463d 0261 91bc ddf0 d73d
000000d0: 8712 35bc a832 c13c af2a 35bc 039d fe3d
000000e0: 61e2 1e3d 241e 8ebc 51da 0b3d 71d0 193d
000000f0: 801b d33b 88d1 0a3d dc8c 463d 1a81 b63d
00000100: 7b79 1d3d 9f5c debd b5da a63c d523 b2bd
00000110: b9c7 14bd 2eb4 f33c 9a3b 733d 0b4d 06bd
00000120: 506a 9e3d d915 66bb d4c4 e4bd 613a bbbb
00000130: ece4 743c dd67 0ebe 5330 3b3d b08e ffbd
00000140: d4e5 c13d 07aa 213c 98f8 0dbd e0dd 64bd
00000150: 8023 9d3d d5f6 133c 84fd 1dbd fdef 04be
00000160: 9e4b 21be d73f b33d b747 c33d cf1e c83b
00000170: 258a 0a3d 8d11 59bd e33a 29be 2fbb 58bd
00000180: f368 3f3d e66e c8bd cb5c 22ba dfc3 16bd
00000190: 66e1 1a3d 6850 903d f48e 163c f840 8bbc
000001a0: 56f6 9f3c 9f4e ac3d 9b7d 55be 8d0b a43d
000001b0: c946 afbc ce4a d9bd 836f 2fbd ba13 aa3d
000001c0: f5f0 e33d 372e 7fbd 301c acbd b03b f5bd
000001d0: 2eea acbd 3bac 613d f270 c23d f997 31bc
000001e0: b3ae 4cbc 4614 6b3d 5748 c9bd 109d 66bc
000001f0: 2a7e 863d ca41 57bc f651 5bbc c7b0 ecbd
00000200: eb2b a53c e4dc 813d 24ca 97bd 394b ccbd
00000210: 3db4 ad3d 93a3 58bd 8261 eb3c 5215 863d
00000220: 295e 1bbe cc95 463c 4c64 963c 3e7e cb3d
00000230: 8595 113e a78a 9bbc 5147 f43c d154 e83d
00000240: 0a65 0f3e db87 313b 8969 55bd 62f0 be3c
00000250: 5f8e 8e3c 97e1 23be f66c bc3c ac48 8fbd
00000260: 1810 60bd 307d 953d 0aee a73d 2ef2 8a3d
00000270: b7fc ae3d ca4e 243d 887f 71bd ba75 60bd
00000280: 0c59 ffbd 9ed3 06be 34aa c6bd ad7e dfbb
00000290: 84fd d23b 3b64 d73d c14e 593b 54fe e63d
000002a0: c2da 933d 6bea fc3b d018 05be 5abc 77bd
000002b0: 310f db3d bdd1 6f3d 51d4 3a3d f742 a03d
000002c0: 7234 113e b185 133d 906e 09bd 2a33 7ebd
000002d0: 05f4 1c3c b998 bd3d b50b e83c 37ba 17bd
000002e0: ad4c d0bd bcb7 ab3d 06dd b03d 0698 1c3e
000002f0: db9d 62bd e57f be3d 3693 c3bd fab8 da3d
00000300: abf2 94bd bd2a 153e 7fa3 f93d 849d 6d3d
00000310: af97 26bd 2223 14bd 37e0 a73c d419 17bd
00000320: 0256 bdbc 08e1 01bd 7119 8abd 2e22 cc3d
00000330: 77fd a8bc 5f43 efbd a3be be3d 6edd 873e
00000340: 7dbb 303e a5b3 c93b a4e0 a7bd 2130 cabd
00000350: 748e acbd 56b6 293e afc3 d03d 1427 a0bd
00000360: 01ee 8d3d ca72 5a3c 8cfd 063e 52ea 0cbd
00000370: 87f0 2d3e 33cb cf3d 90cd b23d f64d 213e
00000380: e8de b13d e7b9 29bd 62aa 52bd ea30 333e
00000390: d434 3b3c 15a0 31bc 4ac6 553b 1592 27bc
000003a0: 7e72 003e 2a61 293d e8f4 283e d42e 8c3c
000003b0: 17a3 73bd c0b1 b33d 25b4 b93d a033 ad3d
000003c0: a62a aabb 3c9b 163e 5dc3 31bd 50fa b13d
000003d0: e4b0 8cbd 92aa acbd 6125 6f3d 46fb f43d
000003e0: 6d7b 073e d42b 273c 2cda ea3d 37e9 9b3d
000003f0: 93a2 e13c 7f8d 6c3d f4ff 323c 7e57 373d
-0.0653032 0.0150589 -0.057828326 0.013992391 0.052587934 0.0018294789 0.008931771 0.04131816
-0.04899712 0.09750565 0.008738858 0.1435908 0.04709416 0.0880071 -0.06962963 0.19766872
0.040058006 -0.076474294 -0.05727031 0.07732574 0.10158339 0.06906298 0.071759954 -0.124841064
-0.019602234 0.03309881 0.09820554 0.0037179403 0.015981251 -0.019462645 0.12113297 -0.034348257
0.008242075 0.07891195 -0.024700193 -0.067672625 0.011938593 0.07221933 0.04839396 0.051564377
-0.058927335 -0.016306963 0.011183111 0.02384349 0.099861324 -0.066257834 -0.06930395 0.047879733
0.07269924 0.048521146 -0.017746452 0.10543988 -0.011051781 0.023583725 -0.01105754 0.12432291
0.03879011 -0.017348357 0.03414375 0.0375523 0.0064424872 0.03389123 0.048474178 0.08911343
0.03844593 -0.1085751 0.02036796 -0.08698241 -0.036323283 0.029749002 0.059383012 -0.032788318
0.07735121 -0.0035108237 -0.111703545 -0.0057137464 0.014947157 -0.13906808 0.045700382 -0.12478387
0.09467664 0.009867198 -0.034660906 -0.05587566 0.07672787 0.009031017 -0.03857185 -0.12982173
-0.15751502 0.08752411 0.09535163 0.0061071883 0.03382315 -0.052995253 -0.1652637 -0.052912887
0.046730947 -0.09786777 -0.0006193637 -0.03680789 0.037812613 0.07046586 0.009189356 -0.016998753
0.019526642 0.08413433 -0.20848696 0.08010016 -0.021396058 -0.10609971 -0.042830955 0.08304544
0.11129943 -0.062299933 -0.08403814 -0.11974275 -0.08443104 0.055095892 0.09494199 -0.010839456
-0.012492823 0.05739238 -0.09828251 -0.014075533 0.06567033 -0.013138244 -0.01338624 -0.11557155
0.020162543 0.0634096 -0.07411602 -0.09975285 0.08481643 -0.05289037 0.028733019 0.06547035
-0.15172638 0.012120675 0.018358372 0.09936188 0.14217193 -0.018987013 0.029819163 0.113443024
0.14003387 0.0027089033 -0.0521026 0.023307983 0.017401872 -0.16004024 0.023001175 -0.06996283
-0.05470285 0.07299268 0.08199699 0.06784473 0.08544295 0.0401142 -0.058959514 -0.054799773
-0.12468156 -0.13166663 -0.097004324 -0.006820521 0.006438913 0.10517164 0.0033158513 0.11278978
0.07219459 0.0077183745 -0.12997746 -0.06048236 0.10696257 0.05854963 0.045612637 0.078252725
0.14180163 0.03601617 -0.033552706 -0.062060513 0.009579663 0.09257645 0.028325895 -0.037042823
-0.10170875 0.08384654 0.08635907 0.15292367 -0.055326324 0.09301738 -0.09549563 0.10679813
-0.07272848 0.14567085 0.121893875 0.058011547 -0.040672 -0.036166318 0.020492656 -0.036889866
-0.0231123 -0.031708747 -0.06743134 0.09967457 -0.020628674 -0.11682772 0.09313705 0.26536125
0.17259021 0.0061554485 -0.08197144 -0.09872461 -0.08425608 0.16573462 0.10193574 -0.078199536
0.06930161 0.013333032 0.13182658 -0.034403153 0.16986285 0.10146179 0.08730614 0.15752396
0.08685094 -0.041437056 -0.05143202 0.17499128 0.011426169 -0.010841389 0.003261941 -0.0102277
0.12543675 0.04135243 0.16499674 0.017112173 -0.059481706 0.087741375 0.09067563 0.08457112
-0.0051930724 0.14707655 -0.043399204 0.086903214 -0.06869677 -0.08430971 0.058385257 0.11961989
0.13230677 0.0102033205 0.11467394 0.076128416 0.027543342 0.05775213 0.010925282 0.044761173
