600519.SS_stock_model.pth (torch, 205359 bytes, 9 tensors)

rnn.weight_ih_l0 f4 [256, 1]
00000000: 431c 42bc 0bf5 833d d033 6d3e 3156 003e
00000010: ea96 783e e325 8f3e cc14 843d 623a 573e
00000020: 0182 dd3c 37f8 3a3e a200 66bc 2eff 463e
00000030: 3ca9 dd3d 5808 003e 39ef 923d b47c af3d
00000040: 3fbe 1e3e eb40 203c 37aa 803e 35a2 5d3e
00000050: 4990 833d f394 f23d f28c a73d ec55 8a3d
00000060: 333c 6c3e c22e 943d 2ed0 823e 55ac 7e3e
00000070: aea3 e4bd e586 213e 8b20 693e 70d6 ec3d
00000080: 971d 163e 2800 db3d 4b70 4a3d ffce 1a3e
00000090: b788 aa3d d5a8 733e c170 113d e320 283e
000000a0: fda0 063e d363 ed39 faff 9bbc fc37 f93c
000000b0: 62cd 6e3e a5d7 ca3d de44 9e3d 62f4 ef3d
000000c0: b5d6 a53d 5579 413e b009 e13d b23d 653e
000000d0: 38f8 a9bd 9996 d23d 2d0d 7e3d c351 f33c
000000e0: 78b7 1c3d dcbc 8c3e 996c 003d 53ed 2d3e
000000f0: aebf 0c3e 5520 703d 8662 e83c be9a 313e
00000100: b788 84bd 4528 513c 7b53 e83d 1b52 f4bd
00000110: 282e 143e 26ba 97bc 1342 93bb 80fa fd3d
00000120: 74d7 0c3e 2cb2 473e a2a9 393c 772f 52bb
00000130: 549f 88bc a49b 053e 704b 903d 66fa 443e
00000140: c778 c6bd 9931 333e eb8f 1b3e 6533 533e
00000150: 7289 603d cde7 0b3e dece e3bc 83e5 a83d
00000160: 02fa 8a3b 5aa7 cd3d 1cb5 333e 2f93 d43d
00000170: 9392 10bd 2247 e43d 1bab 223e 39a8 23bd
00000180: d3bb 43bd e419 8f3d 9c2c 043e 0843 eabc
00000190: bd04 183e ba15 ed3d 4cf5 503e deb8 543e
000001a0: f69f c6bc fe38 e63d 3bc0 233c 9e6f f2bd
000001b0: 8bcb c73c 59f8 083e bfe7 f13d a74c de3d
000001c0: 0d3d 0b3e e5e5 59bb 2885 343d 873d fcbb
000001d0: 2981 13be 1fb4 913d 6e19 693d fc74 1a3e
000001e0: a012 753d c5e6 513d 770d 02be f0fe 383e
000001f0: 172a a63d 0e01 083c 34e3 183e 885d 823d
00000200: 95fb f2bc a414 02be d978 093e e152 273e
00000210: dbc6 933d 6ace 40be 4638 dfbd a545 f9bd
00000220: 3620 033e c7a1 3a3e 4f53 1d3e 5c2c 57be
00000230: f09f 31be 7da6 613e a8b4 653e 0233 8d3d
00000240: f506 8f3d 6590 95bc 6bdf 7e3e 7580 803e
00000250: 3405 58be 83f6 dabd c87e 02be 2975 ce3c
00000260: e08a 803e b1bd 2abd 5c0e 23be be80 5f3e
00000270: 69f4 263e 86b2 5b3d 39b0 283e 49af ffbd
00000280: 8216 28bd 6bcf 0fbd 9988 87bc 1ac6 59be
00000290: 3be9 123e 2924 283e 7b3d 483e 0314 36be
000002a0: c410 f8bc d0ac 743d 4ade bebd c37d 8f3c
000002b0: e939 d73d 5e6e 613e bdc4 693d 51ad 61bc
000002c0: 35ad 92bd 48d7 6c3e 4ab0 d83d bf17 1b3e
000002d0: 0ee6 fabd 7cdc 463d a1cf 863d f0a3 2ebe
000002e0: dade 473d 190d 7dbe edbf ab3d 8763 5f3c
000002f0: 9bb7 47be 1b52 293d b31a 0d3e 7b5d 44be
00000300: 47da 063d 4051 5d3e 4716 d13c 057f 0b3e
00000310: 3d14 4e3e c66c e03d 78f2 a33d 26b9 3a39
00000320: c5de b93d af3d ad3e b017 e43c 8d46 343e
00000330: c026 fc3c aa90 8d3e ab28 c63d 4a0a 823d
00000340: 48a4 c83c be76 193e 714c 933e a736 833e
00000350: 0f29 483d a840 5b3e 403b 0d3d 4b46 103e
00000360: 2249 a93d 2a23 f63d a5a7 7a3e 1ab2 863d
00000370: 4e86 0cbe f3cf 113e 14c3 913e 621c 203d
00000380: 39ec 453e 0027 323e b0f5 473e b68d 403e
00000390: c6c8 833d f5ff 893e 1cff 703e 02c4 283e
000003a0: b439 903d e4de bd3d 1395 803d 5469 b33d
000003b0: ccff 1f3e ad87 773e f07e 763e 5968 443e
000003c0: f6b5 353e bc25 5d3e 9ee6 983d 53fe 823e
000003d0: 87a7 e6bd 062d c5bc 8e29 1ebc 04da c53d
000003e0: c742 f83c b621 543e c945 5c3d f8e7 14bb
000003f0: beeb 343e 0a09 533e da5d 4b3e afcb 693e
-0.011847558 0.064432226 0.23164296 0.1253288 0.24276319 0.27958593 0.06449279 0.21018365
0.02703953 0.18258749 -0.014038237 0.19433281 0.108232945 0.12503183 0.07174534 0.08568707
0.1550226 0.009781103 0.25129864 0.21643908 0.064240046 0.11844816 0.0818118 0.067546695
0.23069839 0.07235481 0.25549453 0.24870427 -0.11164032 0.15774114 0.2276632 0.11564338
0.14659725 0.10693389 0.049423497 0.15118025 0.083268575 0.23794873 0.03550792 0.16418795
0.1314735 0.00045278537 -0.019042958 0.030422203 0.23320535 0.09904412 0.07727979 0.11716534
0.08097593 0.18893941 0.10988176 0.22386816 -0.08299297 0.102826305 0.062024284 0.029702073
0.038260907 0.27487838 0.031353567 0.16985063 0.13744995 0.058624584 0.028367292 0.17344186
-0.06471389 0.012765949 0.11344048 -0.11929723 0.14470732 -0.01852138 -0.0044939606 0.12401295
0.13754064 0.19501561 0.0113319475 -0.0032071748 -0.016677536 0.13047653 0.070456386 0.19236144
-0.09691005 0.17499389 0.15191619 0.20625074 0.054818578 0.13662644 -0.027808603 0.08246901
0.004241229 0.100416854 0.17549556 0.103796355 -0.035296034 0.1114638 0.15885584 -0.03995535
-0.047786545 0.0698736 0.12907642 -0.028596416 0.14845558 0.1157641 0.20406073 0.20773646
-0.024246197 0.11241339 0.009994562 -0.118376955 0.024389049 0.13375987 0.1181178 0.10854464
0.13597508 -0.00332486 0.0440723 -0.0076977643 -0.1440474 0.071144335 0.056909017 0.15083688
0.059832215 0.05124547 -0.12700449 0.18066001 0.08113497 0.008301033 0.14930421 0.06365496
-0.02966098 -0.12703186 0.13425006 0.1634021 0.07215663 -0.1882874 -0.10899405 -0.12171487
0.12805256 0.18225776 0.15363811 -0.21013016 -0.17346168 0.22036166 0.22432196 0.068944946
0.06983749 -0.01825733 0.24889915 0.25098005 -0.21095735 -0.1069155 -0.12743676 0.02520235
0.25105953 -0.04168481 -0.15923446 0.21826455 0.16304173 0.05363705 0.16473474 -0.12484605
-0.04103709 -0.03510992 -0.016544627 -0.21266976 0.14346783 0.16420044 0.19554703 -0.17781071
-0.030281432 0.05973512 -0.09319742 0.017516023 0.10509092 0.22014758 0.05707239 -0.013774232
-0.07161943 0.23128998 0.105804995 0.15145777 -0.12250911 0.048550114 0.06582571 -0.17054725
0.048796512 -0.24712028 0.08386216 0.013634569 -0.19503634 0.041338068 0.13779716 -0.19176285
0.03292301 0.21613026 0.025523318 0.13622673 0.20124908 0.10958247 0.080052316 0.00017807315
0.09075693 0.33836123 0.027843326 0.17605038 0.030780196 0.27649432 0.096757255 0.06349619
0.024492398 0.14986703 0.28769258 0.25627634 0.04886728 0.21411383 0.034480333 0.14089315
0.08265902 0.12018426 0.24478014 0.06576939 -0.13723108 0.14239483 0.28469145 0.039089568
0.19328393 0.1739769 0.19527316 0.18804058 0.06434779 0.26953092 0.23534817 0.16481021
0.07042256 0.09271029 0.06278434 0.08760324 0.15624923 0.2417285 0.2407186 0.1918043
0.17745194 0.21596426 0.07465862 0.2558466 -0.11262422 -0.02406932 -0.009653462 0.09660724
0.03030528 0.20715985 0.05377749 -0.0022721272 0.17668054 0.20608917 0.1986002 0.22831605

rnn.weight_hh_l0 f4 [256, 64]
00000000: 2960 9fbb 0942 fa3d 9c4d c93c cb50 603d
00000010: 5e42 a8bc b3c3 193e 3280 1a3e 6117 133e
00000020: cd9e 3bbd 8f2f 0a3d 53b7 dbbc e655 c03d
00000030: cd72 c9bb 2b03 fb3d 93e9 023d ea1a c3bc
00000040: d6d6 aa3c 214f c23d aec3 373e 9564 fe3d
00000050: 12a6 033e 885c fcbc 1971 ac3d 1e1a 89bc
00000060: 5407 a6bd b69c 483c f632 d4bc b2a7 2b3d
00000070: b514 0d3e cf26 eb3d 24a2 7f3d 0dec 443c
00000080: f354 f53d 35fa 693b 9f82 65bd 1776 463d
00000090: 433f a03b 2f10 a8bd aa10 843d 0f9c fcbd
000000a0: 664b 87bd e349 973c 37d7 82bd 88a1 19bd
000000b0: fcf7 bcbd d780 0fbd b1f5 c53c 5f28 d93c
000000c0: 719e c23a 3686 a33c 887a cf3d f0a4 c1bd
000000d0: 6cf4 263b f6f7 1fbe fb84 553c ebad 053e
000000e0: 8d20 ac3d 578f 00bd 0a68 133d 25d1 b6bc
000000f0: 5855 39bb a5ae e3bd 2bf8 0bbe a3b6 abbd
00000100: 98e8 683d 30c6 3b3c daca b33d 8493 933d
00000110: 284a d8bd 7da8 aebb b436 f03d 444c 833c
00000120: 7341 af3d de74 093e 938d 3dbd 8e43 82bc
00000130: 9e90 90bd 892e 0c3c 0064 ab3c da3e 343d
00000140: 9c86 dd3d 1f0b 013e 792c 783c a59c 0abd
00000150: d656 a03d 84ac a6bd dab0 ac3d 015f 4dbb
00000160: df28 dc3d cec8 79bd c2db 553d c67f c7bd
00000170: 42c0 01bc 8c1d 8dbd f2a2 943d 38cc d2bd
00000180: 5bda 9e3c 962a 00bc 1f3c 9b3d 3917 7fbd
00000190: f46e acbd af92 01bc 01c8 e23d a5e7 56be
000001a0: 4ccf bbbd 164f f0bd b259 febd d392 09be
000001b0: a35b 72bd a310 963d 59a7 00be c985 ecbc
000001c0: bae3 9c3c 47f3 88bc b709 aabc bb2f b9bd
000001d0: e60d 8e3d d30e a6bd 2d1c acbd 1c63 fbbd
000001e0: 9bfb 1c3d ba91 88bd 01db ad3c 805f b0bd
000001f0: 29fc 3bbd 9075 343d c87c edbc bf23 f3bd
00000200: cb7d d1bd f801 89ba 0a0e ef3d 17cd 5abd
00000210: 6edb 60bc d517 433d db72 e53d e8dd 11bd
00000220: 10a6 b4bd 7556 4d3d 1308 8b3d dba7 a3bc
00000230: 7915 abbc c258 9c3d 8d3d d03c c1cb 7cbd
00000240: 472f f43d 7e78 edbc 2460 6f3e 3da8 e93d
00000250: 007c 74bd 7cff 23bd 7173 96bd 5a6a a5bd
00000260: e62e 763d f342 8e3c e3c3 51bd 26e1 40bd
00000270: 1c19 403d 3dc5 ccbb 26d2 08bd 4d6e a9bb
00000280: 4168 e43d a324 593d d6a5 b3bd 979a b13b
00000290: e01d 18bd 48e7 fa3d 47dd 863d 4c62 16be
000002a0: 7b4c 083e 046d ca3c 87c6 1abe 3ade 303d
000002b0: 43d9 bcbd cc7b bf3d 0c4a 10be 8f68 493d
000002c0: 9809 a8bd 7f68 a73c b102 af3d cb8f 2cbd
000002d0: f046 54bd 5b29 f7bd 7703 993d 25fc 92bd
000002e0: 380c f63d 3ff8 643d 0a20 d73d 02a2 923d
000002f0: 4c52 dbbd e71e 0bbe 9148 e3bd f0a3 403d
00000300: 9f56 af3d 0e25 1dbe aac2 29bc a238 33bb
00000310: 13fb 853d 4fb5 f33c 44ab ed3c 6ce2 633b
00000320: 77b2 b83d 6233 0d3e a502 b03d d4d9 7a3c
00000330: 3cdf 16bd e8c7 c83d a147 093d a9f6 6abd
00000340: 1d0b 9e3a d6e0 01be c8ad 1f3e ff61 483e
00000350: 67d2 d4bd 24a4 283d 8588 9f3c 42bc 8f3d
00000360: e649 ed3d 8b78 673c 4083 613c 995b e63d
00000370: 20e7 513c db12 933d db43 d83d 36fa 9dbd
00000380: 116f bebc 2e86 4abc e74b 29be 6297 4a3d
00000390: 02d5 96bd cd9d 003e 11a1 bebc 2787 4a3d
000003a0: ecda c0bc 72c3 8dbd 8e37 f83d 71d3 043e
000003b0: 53ad e83d 245c 2f3e b969 5cbd 7205 3b3c
000003c0: 42e7 86bd 3a38 d23c 09e1 773d cd54 833c
000003d0: 0579 a83d 4cfd cb3d a4e4 fe3c 60f5 0f3d
000003e0: b6a8 1d3c adbf 8fbd 6a19 94bd 73f8 39bd
000003f0: 44ab a8bc bf5d d33b aa02 c63d 9e43 5fbd
-0.004863758 0.122196265 0.02457314 0.05476455 -0.020539459 0.1501606 0.15087965 0.14364387
-0.04580574 0.03373676 -0.026820814 0.09391384 -0.0061477185 0.122564636 0.031961035 -0.023816545
0.020854395 0.09487749 0.1794574 0.12421528 0.1285632 -0.030805841 0.08420009 -0.016736086
-0.081068665 0.012244394 -0.025903206 0.041907974 0.1377743 0.114820115 0.06241049 0.0120191695
0.119790934 0.0035702114 -0.056032773 0.048452463 0.004890354 -0.08206212 0.06448491 -0.12334453
-0.06606178 0.01846785 -0.06388705 -0.037507564 -0.09226987 -0.03503498 0.024165006 0.026508508
0.0014848245 0.019961458 0.10130793 -0.094552875 0.0025475277 -0.15621933 0.013032193 0.13054626
0.08404646 -0.0313867 0.03598789 -0.022316525 -0.0028279629 -0.11117295 -0.13668887 -0.083844446
0.056862444 0.011460826 0.08778925 0.07205871 -0.10561019 -0.005330144 0.11729184 0.016027577
0.08557405 0.13423488 -0.046277594 -0.015901353 -0.070588335 0.008556017 0.020921707 0.044005252
0.1081669 0.12601899 0.015147322 -0.033840794 0.07829063 -0.081383735 0.08432169 -0.0031337144
0.10749983 -0.060982518 0.05221153 -0.09741168 -0.007919373 -0.06890401 0.07257642 -0.10292858
0.01939123 -0.007822653 0.075798266 -0.062278006 -0.084196 -0.007908507 0.11073304 -0.20986803
-0.09170398 -0.117338344 -0.12419452 -0.13434915 -0.059169423 0.07327392 -0.12563838 -0.028872387
0.019151557 -0.016717566 -0.020756586 -0.09042307 0.06936245 -0.08108296 -0.084038116 -0.12274763
0.038325887 -0.0666842 0.021222593 -0.08611965 -0.045894776 0.04405743 -0.028990164 -0.118720524
-0.10229071 -0.0010452857 0.116725996 -0.053418245 -0.013724191 0.04763015 0.112035476 -0.035612017
-0.088207364 0.05013128 0.067886494 -0.0199775 -0.020884262 0.07634117 0.025419975 -0.061717752
0.1192308 -0.02898812 0.23376518 0.11409042 -0.059688568 -0.04003857 -0.073462375 -0.080769256
0.06010332 0.017365908 -0.051212203 -0.04708972 0.046898946 -0.0062490986 -0.03340354 -0.0051706196
0.11152697 0.053013455 -0.08771865 0.00542004 -0.037137866 0.12251145 0.06585174 -0.14685935
0.13310425 0.024710186 -0.15114795 0.04318068 -0.09221127 0.09349784 -0.14090747 0.04917198
-0.08204955 0.02043557 0.08545435 -0.04212932 -0.051825464 -0.12068435 0.07471364 -0.07176999
0.12014049 0.05590081 0.10504158 0.07159807 -0.10709056 -0.13586007 -0.11097825 0.047031343
0.085614435 -0.15346166 -0.010361353 -0.0027346988 0.06542029 0.02974954 0.02901233 0.003477241
0.090184145 0.13789132 0.085942544 0.015310723 -0.036833987 0.09803754 0.033515576 -0.05736414
0.0012057755 -0.12683424 0.15593636 0.19568633 -0.103916936 0.04117216 0.019474277 0.07018329
0.11586361 0.014127861 0.013764203 0.112479396 0.012811452 0.07181331 0.105598174 -0.077137396
-0.02324632 -0.0123610925 -0.1653286 0.049460776 -0.07364847 0.12560196 -0.023270162 0.049445298
-0.02354189 -0.06922044 0.12119971 0.12971283 0.11361184 0.17124993 -0.053811762 0.0114148725
-0.06587078 0.025661577 0.060517345 0.016031647 0.08226208 0.09960422 0.031114884 0.035146117
0.009622743 -0.07018981 -0.0723141 -0.045402955 -0.020589478 0.0064503844 0.09668477 -0.054507844

rnn.bias_ih_l0 f4 [256]
00000000: 39c8 243d 3df6 003e 0acf 48bd dbac b63d
00000010: aa98 483d 533f e23d caa4 ad3c 3cd2 393d
00000020: 26d4 293e acdf 463e 2274 af3c 118a 5abd
00000030: 8919 9c3d fdaa 063e 5737 b63d 6cc9 ec3d
00000040: ad90 263e 1228 683c 19fa 3b3e d790 963d
00000050: cd5d 07bc 766a 73bd 1b11 213e edcc 78bd
00000060: 4fa6 543e 1277 85bd e89f 9f3b ce33 d63d
00000070: bc42 393e dd77 a73c d743 0a3e 5321 35bd
00000080: feea 603d 4cf0 0d3d 91c6 583d a474 773d
00000090: d73f c8bc 82cb 9d3d 6c7e 033e 19fb c93d
000000a0: 801f 123e 6194 193e fe96 553d e23e 2d3e
000000b0: d586 ca3d 3d30 cb3d 9c34 0f3e 0d79 d53d
000000c0: 5f81 c83d dba6 0c3e 4d28 143d 7c33 c9bc
000000d0: e392 f53d 536d b5bd 0444 013e 1c58 743d
000000e0: 302d 133e 84c3 1f3e 787f 55bd 7b6e 6c3d
000000f0: b2d4 d73d cc1c 163c bfbe 1b3e f14c 1b3d
00000100: 2f08 9e3d cb7d 713d cea8 bcbd f309 2c3c
00000110: c369 44bd a80f 113d 540d 7c3b ae92 12bc
00000120: bf7b cd3d 225f 283d bd00 d4bd e2ea 0fbd
00000130: 2e20 95bc a914 0f3e 9bff c9bd c7e2 febd
00000140: 2e7d 04bc 0377 a33d 1bbf 133e 7fc7 0bbd
00000150: a0cc 5bbd c8d3 94bd 9fab f8bd 93f3 bfbd
00000160: 7be8 ddbc 05e9 f23c aff1 79bd 0624 a03d
00000170: 5f89 dc3d db17 b43d 126c c33d 4d81 05be
00000180: 8771 ec3c 5710 a5bc b3c9 14be beac 633d
00000190: 5239 27be 5c8f 563d 6c60 753c 7cd2 6a3d
000001a0: a542 5abd 5330 2ebd 196a 95bd 31b2 e5bc
000001b0: 397b df3c 33d3 d6bd 3cd2 b2bd 986b c73d
000001c0: d75c 1dbe 0ca9 b53a e6b8 283d b241 c8bd
000001d0: 221c 0a3d 438d 433d ac83 1dbc 9917 db3c
000001e0: b7f9 01be b94c 4abd 478a 233d b040 81bd
000001f0: 7b2a 85bd fc57 dbbd f73a 51bd 4143 d73d
00000200: a43b e23d 9201 f1bd 3bd3 fb3d dc48 9abd
00000210: d2cb 153e 5adf cbbd ae66 85bd 4026 9bbd
00000220: c121 913d a9b6 c43d 4452 cd3d f7c5 e5bd
00000230: 3b9b 49bc cd60 f83c 12c5 403d a41e 223e
00000240: 76fe 70bd e72b 743c b26e 8fbc 8dc8 eabc
00000250: fff8 93bd 3792 a5bd 3287 823d 03f2 17be
00000260: 5ad4 823b bae0 9abd 6309 52bd 98c9 133e
00000270: 9948 1cbe 4220 95bc 00a7 293d 6190 ecbb
00000280: f0b9 16be ceb8 0ebe c9ea 683b 4255 48bd
00000290: 2974 2f3d 4dc8 723d d52a b43d b379 96bd
000002a0: a67a cbbd b043 e93d 2de4 8e3c e032 183e
000002b0: 2cbd 013e 445d 143e 1f67 053e 7774 babd
000002c0: e996 aabb 77d3 c33d bac6 49bc 2c35 903d
000002d0: 96e5 d33c 07c5 e43d 6709 003e a03e bbbd
000002e0: e729 1cbe a432 d53c 3e5f 05be b8e8 fb3d
000002f0: ba21 413d 8d5c 253d ce0c c53d eb87 ca3c
00000300: 7f93 f83d b12c 8ebd 83e1 8f3c 4445 273e
00000310: 0ec9 093d d241 1b3e 7258 b93d 215a 28bd
00000320: 9a32 4bbd 7b25 1c3e bb2e fd3d 6b7b d03c
00000330: f92b 43bd 3c3f 183e 7a5a 85bc ff43 2fbd
00000340: 4482 293e ef3e 9fbd 8849 9e3e a9b1 123e
00000350: 868c 123e df01 0c3e a665 223e 3b94 7bbd
00000360: ea3c fa3d 5eb0 13bd f729 103e 3d5e 6b3b
00000370: 2b06 e53c f296 573d 1bce 163e 1461 02bd
00000380: 6ff2 acbd 7de2 0abd 4108 0c3e 899d 5ebd
00000390: 3ac1 91bd 3501 da3c 944c 023e 476c bd3d
000003a0: 1890 06bc a1cb 6a3d 1437 26bd faf2 683d
000003b0: 78ec 61bd 7297 2b3e 6a99 8c3d f905 903d
000003c0: 02e2 983d 01a9 673d 945b 163e 257e a3bc
000003d0: 69aa 3abd d92f 8d3d 4613 9d3d e0b5 5e3d
000003e0: dc4c c73c b362 ee3d 8161 1d3e 92e0 1fbd
000003f0: db88 663c 2591 003e 222f d13d 31fe 203c
0.04023001 0.12593932 -0.049025573 0.08919688 0.048973717 0.110472344 0.021196742 0.04536651
0.16584834 0.19421262 0.021417681 -0.053354327 0.07622058 0.13151164 0.08897274 0.11561856
0.16266127 0.01416971 0.18357123 0.07351845 -0.00826211 -0.0594277 0.15729181 -0.060742307
0.20766567 -0.065168515 0.004871357 0.104591 0.18091863 0.020442897 0.13502441 -0.044221234
0.054911606 0.034652993 0.052923743 0.06041397 -0.024444504 0.07704832 0.12841195 0.09862346
0.14269829 0.14998008 0.05214595 0.16918519 0.098889984 0.0992131 0.13984913 0.10423479
0.097903006 0.13735525 0.036171246 -0.024560682 0.11990907 -0.088587426 0.12623602 0.05965434
0.14372706 0.15601927 -0.052123517 0.05772255 0.10538615 0.009162139 0.15209483 0.037915174
0.07716405 0.058957856 -0.092118844 0.010500419 -0.047952425 0.03541532 0.0038460093 -0.008946104
0.10033368 0.04110635 -0.10351703 -0.03513611 -0.018203821 0.13972725 -0.09863206 -0.12445598
-0.008086486 0.07981684 0.1442837 -0.0341258 -0.053661942 -0.072669566 -0.12142109 -0.0937263
-0.027088394 0.029652128 -0.061021503 0.07819371 0.10768389 0.087936126 0.09542097 -0.13037606
0.028862728 -0.020149393 -0.14530067 0.05558466 -0.1633046 0.052382812 0.014976602 0.05732964
-0.053286213 -0.042526554 -0.07295627 -0.02803907 0.027280437 -0.10489502 -0.08731505 0.09737319
-0.15367447 0.0013859584 0.041191958 -0.097781554 0.033718236 0.04774214 -0.009613913 0.02674465
-0.12692915 -0.049389575 0.039926793 -0.06311166 -0.06502243 -0.10710141 -0.051081624 0.105108745
0.11046532 -0.11767878 0.122961484 -0.07533428 0.14628533 -0.0995471 -0.06513725 -0.07575655
0.07086516 0.09605152 0.100254565 -0.112193994 -0.012305076 0.030319596 0.04706294 0.15832001
-0.058836423 0.014903045 -0.017508838 -0.028660083 -0.072252266 -0.08084529 0.06373443 -0.14838414
0.0039925994 -0.075623944 -0.051278483 0.1443237 -0.15262069 -0.018203858 0.04141903 -0.0072193597
-0.14719367 -0.13937685 0.0035540333 -0.048909433 0.04283539 0.059273053 0.08797232 -0.07347431
-0.09935503 0.113898635 0.017442787 0.14863157 0.1266982 0.14488703 0.13027619 -0.09104245
-0.005205978 0.09561818 -0.0123154465 0.07041392 0.025866311 0.111703925 0.12503587 -0.09142804
-0.1525036 0.026025124 -0.13024613 0.12300247 0.047151305 0.040371466 0.09621583 0.024723014
0.12137508 -0.06942118 0.017563587 0.16335016 0.033639006 0.15161827 0.09050073 -0.04110158
-0.049608804 0.15248673 0.12362429 0.025449475 -0.047649357 0.14867872 -0.016278494 -0.042789456
0.16553599 -0.077756755 0.30915475 0.14325584 0.14311418 0.13672589 0.15859088 -0.06142066
0.1221865 -0.03605687 0.14078508 0.0035914325 0.027957043 0.052634187 0.1472706 -0.031830862
-0.08444678 -0.033907402 0.13675024 -0.054349456 -0.07116933 0.026611904 0.12724525 0.09249168
-0.008213066 0.057323102 -0.04057987 0.056872346 -0.055157155 0.1675699 0.06865199 0.07032389
0.074649826 0.05655766 0.14683372 -0.019957611 -0.045572672 0.06893892 0.07669692 0.05437267
0.024328642 0.11639919 0.15369226 -0.039032526 0.014070715 0.12555368 0.10214068 0.009826229

rnn.bias_hh_l0 f4 [256]
00000000: e92a 38bd a8cf 9ebd d423 98bd b9e1 f63d
00000010: d9db 473e 72dd 32bc 2cc0 c3bd c459 7b3d
00000020: 7a49 143d cc75 4e3e d33d babc ee28 783d
00000030: 8604 1abd b0db 753e 0318 ac3c df6f e73c
00000040: a405 8d3d b0af afbd d2ab 1e3e f478 433d
00000050: cc06 89bd c3b5 ce3c a019 3c3e 293d 2bbd
00000060: 5eea 1a3c 09cd 093e 1279 013e ce8d 253e
00000070: 2aa9 08bd 6510 8abd a66b 073d 9a44 953c
00000080: 7788 c53d 675c 943d 3f00 b6bd 59e6 69bd
00000090: 54f7 953c 7654 923d af39 d73d c518 883e
000000a0: bc68 cabd 9be0 82bc 299d e23d cd88 513e
000000b0: 9db6 e03d a0a7 4ebd 7374 7e3d e68a 173e
000000c0: 0929 183e ab54 943d 76f9 bbbc 27ae a23d
000000d0: 5608 893c 6764 7bbd 6108 6a3c 0721 243d
000000e0: bf3e fb3d fcda f83c da9d 983d b120 b13d
000000f0: f75d 003e 9f31 e33c 3abb e43d a735 9fbc
00000100: da39 c1bd 6d68 1dbd dd58 953d 14f2 05be
00000110: cc79 fabd d66f 9e3d ad28 473a 55b4 61bd
00000120: 3ac0 983d edad 493e 733c 0f3a fa90 cbbd
00000130: a9d2 a3bd b1df 993a 336d f5bd 1100 733d
00000140: 4887 bcbd 7dd6 03bd 1954 d53d ab9f 183d
00000150: b610 89bd 6805 683c f97a bcbd 4d7b 8dbd
00000160: 56e4 aabd 741a 99bd 4da0 183d 0094 9e3d
00000170: a55d 813d acbf 1cbe b83a c739 4c00 c53b
00000180: 3e72 ab3d 402d d53d 6040 7d3d 1b4d cfbd
00000190: 087e 213d 2668 fa3b cc25 0dbe 8b43 1f3e
000001a0: 905e 71bd 18b3 dabc b145 cfbd 4058 02be
000001b0: 4816 e0bc 615f ac3a 4dbd 18be 78a8 4abc
000001c0: ed6c 213d c63b e33d e266 073d 6602 e7bd
000001d0: 4207 da3d 5d9a d33d f5bc 5a3d 772e 0b3d
000001e0: 6fca 543d 5bc6 acbb 9bca 043d d1c6 a4bd
000001f0: e942 b6bd 76bc 76bb 87a7 60bc 1d87 c5bd
00000200: ddca 0f3e 7da2 783c 8754 bf3d be2e 99bd
00000210: 9412 633d 3609 bd3a 0f4c 7cbd 699b 1cbc
00000220: 9f41 1a3e 593f d8bd c8d7 883d 6fac 67bd
00000230: 50a6 07be 82c8 95bc 1a50 aa3c e9df 80ba
00000240: d094 14be 6c43 09be 7dde 05bc 8f71 ba3c
00000250: 7151 94bd 13d7 7bbd da1b f1bd 6881 09be
00000260: 33fe 213d 8a73 23bd d0cd c33a dc19 bebd
00000270: 1e5e c8bc f038 15be 218f 813c cce8 ec3d
00000280: 7e06 19be 03c6 e4bd 8287 09be f0e1 0abe
00000290: 6ba3 813d ee56 3ab9 4924 f33c 7185 c83d
000002a0: 7697 bfbc 1e7f e83d 5ccf 9d3d bc05 653b
000002b0: f4c9 d73d e8b6 1a3d 1417 ef3d d535 cebd
000002c0: 3ee5 debd 59e8 983d 9bd4 4b3d 94b3 46ba
000002d0: e5bb 553d d53b cb3d b152 27bd 7791 76bd
000002e0: 8481 2fbd 44eb 8fbd 74e8 1abd 65dc 5e3d
000002f0: cd32 1bbe 8eb6 b93d dc69 783d df53 87bd
00000300: 093c 2a3d 277e e63d 2e1a b2bb cb46 3a3e
00000310: 52ac 833c 23f6 ba3d ec56 e13b e986 84bd
00000320: 44f8 12bd d99b 3b3e 9b7d a83d e498 1bba
00000330: 325a bfbc ff27 ba3d dca0 933b df71 f93d
00000340: ac4b aa3b 5764 d33d 0100 a03e 2b38 1f3e
00000350: 4089 7ebd 4995 923d f1b4 cebc 650a 0f3e
00000360: 8396 7c3d 96a1 083e 072a 673d dea7 853d
00000370: 09ec 1d3e 3bf3 a63d bd92 8b3d 7a9b 143e
00000380: f0a0 973d 58f1 11bd 4b4b dc3d d7fb d1bc
00000390: 4aa7 b8bd cd8f 073e 8136 6e3d e0aa 3a3e
000003a0: fa40 82bd 21ae ad3d c4b3 e93c 4f22 0b3e
000003b0: 825d 17bd b4f7 ecbb 62f1 c63c 61c6 6b3d
000003c0: 2558 183e 2508 c33d 8cc0 3c3d b23d 043e
000003d0: 3d62 703d 3efd 5e3d bdc0 5b3d 5c59 0f3e
000003e0: f2ba b83d 6f5f c0ba bc50 883d eb09 923d
000003f0: d041 f03d 1b07 9b3d 20aa 79bc 7064 913c
-0.044962797 -0.07754451 -0.07428709 0.12054772 0.19517459 -0.0109170545 -0.09558138 0.061364904
0.036202885 0.20162123 -0.022734558 0.06058591 -0.03760197 0.24009585 0.021007543 0.028251586
0.068858415 -0.085784316 0.15495232 0.04772277 -0.066907495 0.025233155 0.1836915 -0.041806374
0.009455292 0.13457121 0.12643841 0.16167375 -0.033364452 -0.06741408 0.033061646 0.018221188
0.09645169 0.07244187 -0.08886766 -0.057104442 0.018306412 0.07145016 0.10509049 0.26581398
-0.09883258 -0.01597624 0.11065132 0.20462342 0.10972331 -0.05045283 0.062122773 0.1479908
0.14859404 0.07242712 -0.0229461 0.07943373 0.016727608 -0.061375048 0.014284224 0.04007056
0.12267827 0.030377857 0.07451983 0.086488135 0.12535845 0.027733622 0.11168523 -0.019434763
-0.094348624 -0.038429666 0.0729234 -0.13080627 -0.12230262 0.07736175 0.0007597309 -0.05510362
0.07458539 0.19695254 0.0005464025 -0.099397615 -0.079991646 0.0011739639 -0.11983719 0.059326235
-0.0920549 -0.032186974 0.10416431 0.037261646 -0.066926405 0.014161445 -0.09203143 -0.069082834
-0.08344333 -0.07475749 0.03726225 0.077430725 0.063166894 -0.15307492 0.00037999987 0.0060119983
0.08371399 0.104090214 0.06182897 -0.101221286 0.039426833 0.00764181 -0.1378395 0.1555311
-0.058928072 -0.026696727 -0.101207145 -0.12728977 -0.027354375 0.0013150984 -0.14915963 -0.012369268
0.03941052 0.11095385 0.0330571 -0.11279754 0.106459156 0.10332177 0.05340286 0.03397986
0.05195087 -0.0052726693 0.032419782 -0.08045734 -0.08899481 -0.0037648953 -0.013711817 -0.096449114
0.1404223 0.015175459 0.09342294 -0.074796185 0.05543764 0.0014422301 -0.061595973 -0.009558537
0.15064095 -0.105589576 0.06681782 -0.05656093 -0.13247037 -0.018284086 0.020790149 -0.0009832355
-0.14509892 -0.13404626 -0.008170721 0.022759227 -0.07242096 -0.061484408 -0.117728904 -0.13428271
0.039549064 -0.03990511 0.0014938656 -0.09282276 -0.024458941 -0.14572501 0.01581532 0.1156784
-0.14943883 -0.1117058 -0.13430598 -0.13562751 0.06329998 -0.00017770726 0.029680388 0.09791077
-0.023387652 0.11352371 0.07705566 0.0034946045 0.105365664 0.03777209 0.11674324 -0.100688614
-0.10883568 0.07466192 0.049763303 -0.000757986 0.052181143 0.099235214 -0.040850345 -0.06019732
-0.042848125 -0.07027295 -0.03781934 0.054409403 -0.15156098 0.09068023 0.06064783 -0.06607794
0.04156116 0.112545304 -0.00543525 0.18191068 0.01607338 0.09128978 0.006876817 -0.064710446
-0.035881296 0.1832117 0.08227082 -0.0005935563 -0.023358438 0.0908966 0.00450526 0.12179922
0.005197009 0.10321873 0.31250003 0.1554877 -0.06214261 0.0715738 -0.025232764 0.13968809
0.061666977 0.1334289 0.056436565 0.06526159 0.15422072 0.08151861 0.068150975 0.14512435
0.07403743 -0.035630554 0.107565485 -0.025632782 -0.09016283 0.1323845 0.058157448 0.18229246
-0.063600495 0.08480478 0.028528102 0.13587306 -0.03695441 -0.007231677 0.024285022 0.057562236
0.14877374 0.09523038 0.046082065 0.1291416 0.058687437 0.05444073 0.053650606 0.13998932
0.09020032 -0.0014676879 0.06656024 0.07130798 0.11731303 0.07569715 -0.015238315 0.017748088

rnn.weight_ih_l1 f4 [256, 64]
00000000: 75c4 72bd 0aca 963c cec4 053e bc43 5ebd
00000010: c5a3 143e 661d 8e3d b22c f9bd f4db b83d
00000020: 983c 093e 4182 4c3e 6b8e c3bd a110 ddbd
00000030: 429d a3bb 3882 0bbc f823 39bb af3f 213e
00000040: 48bd 90bd c6a9 a43d 7474 5d3e 0853 373e
00000050: 009c 66ba 263d cabd cefe 07be 51c8 b43d
00000060: 7fe5 233e 7854 1bbc f158 f0bd 0b4b 9e3d
00000070: 2d20 06be ed81 b6bd 6d13 9a3d eeaa 803d
00000080: 1c7f d9bd 5b66 563c e541 f8bd d25f 9b3d
00000090: 8d1f 0d3d c7be 113e 6872 ad3d d002 a4bd
000000a0: f65c a1bc d34f 3f3b 888c a13d bb36 6b3c
000000b0: 3678 e1bc 6068 dcba b5cf bcbd cce7 f9bd
000000c0: 6afe 1abd 8780 2f3d ea26 173c e504 363e
000000d0: b25d 6ebd 804f 83bd 2f95 c73d 1bc3 5cbd
000000e0: fd1e ff3c 7ba7 40be e0cc 263c a28b 0d3e
000000f0: e7b3 7c3c 0ed7 de3d 04a6 28bd 5ecd c33d
00000100: 95bb c53d 6d7d 2b3d 6241 ee3d 4873 fb3d
00000110: cf01 8abd 4c06 a1bd 2754 933d 6e7a 13bd
00000120: 07a8 793d 7014 1a3e 647f d23d 3e64 13be
00000130: a63d 7c3d 1c9f 5c3e fce1 bcbb 8dbd aa3d
00000140: 0f29 ffbc 7338 4ebd ed8c 043e 4bea 34bc
00000150: c281 6fbb 9358 21bd e5e9 efbd f216 3a3d
00000160: 8e55 1f3e 9825 96bc b4ff adbc 3162 f03d
00000170: 73f1 95bd 7d4e cf3d 45da 573e 1cf2 4dbc
00000180: d575 923d 8894 bfbd 2daa 8abd d825 0d3d
00000190: db71 6f3d 2045 273e 538c 26bd 83ed 71bd
000001a0: 971d 823d 4d02 8c3d 0b53 d53c ca4d af3c
000001b0: b40b 75bd 1739 b63d d800 d43a 47d7 423d
000001c0: c640 91bd cacb 1a3e 8121 ab3d 57a7 a33c
000001d0: 7903 89bd b909 073e 43df 263b c495 9c3c
000001e0: 2ee6 633d a211 283b dd92 a93d 4e04 f23d
000001f0: 115c 81bd cbe1 61bc 0df0 5fbd 6271 05be
00000200: 4156 1ebd 1cd9 cb3d 3c09 8d3d 3481 8e3d
00000210: 3186 813d 88dd 173d fae2 91bd 38b6 cabd
00000220: 1723 87bd 9655 003e 9fcf ffbc fc6b b5bd
00000230: d842 743d cc1a 2ebd 8fbc adbd f536 5e3d
00000240: 8356 e13d 6cba 743c 9fea ad3d a9e9 ba3d
00000250: a8a1 343d 4c15 20bb d4c2 803c de22 ff3d
00000260: 0c7e 39bd ad45 7a3d e065 233d 338b b43c
00000270: 1b86 48bd a5f5 c43c 54a6 ed3d 5cb0 ca3c
00000280: aabd af3c fe83 b43d 4c17 3bbd 7c0f babd
00000290: 2321 db3d 26a8 563d 0ffa adbd e332 39bd
000002a0: f609 debd 1e9e d6bc 69b0 563d 9b0d 88bd
000002b0: 71ad bc3d 05a0 83bd 72b0 f7bd e1bf 7dbd
000002c0: e7b5 c13d 5004 e83c fbf4 18bd 124b 113e
000002d0: 3ccf 683c c518 b7bc 0fd6 c1bd fbce ddbd
000002e0: 5faf b13c 1373 afbc 7c9d 023d a420 9bbd
000002f0: 2752 09bd cee2 f53c 33aa 893d 9068 8c3d
00000300: bb6a 9ebd adea 9ebd a575 543c 59ec 133d
00000310: cd3e 323c 3049 f6bd 7252 d8bd 4e55 9dbd
00000320: 066d 09bd 4c3c 2c3e 8944 713d a24d 3b3d
00000330: a378 55bd d74b 9f3d 6824 123c d9c7 e03b
00000340: e324 37bc f3c0 373c 9f4a 8c3e 7ca8 be3d
00000350: 5fa6 03be 8c24 923c bb68 c1bd ab53 c83c
00000360: f58a 9a3d c364 a23d f516 5abd 6e3b 5cb9
00000370: b84a 0c3e 4200 78bd 9598 2c3e 9b6f 07bc
00000380: 0946 fd3c 34a0 963d 7076 88bd eb83 05be
00000390: 286b 57bd ed57 71bc a44a d13d 7e86 3ebe
000003a0: 7441 793d 320a f2bc b1ba 87bc 5605 2ebd
000003b0: 4e37 0c3e 3a46 3ebd 2659 f1bc 378c 0fbe
000003c0: 37cc 75bd bab3 513d 7599 6f3d 0a95 c23d
000003d0: 8ee3 d2bd f33f babd 3e94 083e c46f 43bd
000003e0: 2da8 c63c 2f0b 15be df1b 8b3d 8f35 d23d
000003f0: 31c2 26be 8609 d33d 6377 04bd ae8d 09be
-0.059269387 0.018406887 0.13063356 -0.054263815 0.14515598 0.06939201 -0.12166728 0.09026328
0.13402021 0.19971563 -0.095486484 -0.10794187 -0.004993112 -0.008514933 -0.0028250199 0.1574695
-0.070673525 0.08040194 0.21626455 0.17902768 -0.00087970495 -0.098749444 -0.13280794 0.0882727
0.16005515 -0.009480588 -0.11735714 0.07729157 -0.13098212 -0.089115 0.075232364 0.06282602
-0.10619947 0.013085927 -0.121219434 0.07586636 0.034453917 0.14232932 0.08469087 -0.08008349
-0.019697648 0.0029191866 0.07888132 0.0143563105 -0.027523141 -0.0016815774 -0.092193045 -0.12202415
-0.037840284 0.042847183 0.009225586 0.17775305 -0.058194824 -0.06411648 0.097452514 -0.053897005
0.031142706 -0.18813889 0.010180682 0.13822797 0.015423751 0.10880862 -0.04117395 0.09560655
0.09654919 0.041867662 0.116335645 0.122778475 -0.06738626 -0.07862529 0.07193785 -0.03600543
0.06095126 0.15046859 0.10278204 -0.14393708 0.06158223 0.2154507 -0.005764244 0.08336935
-0.031147508 -0.050346803 0.12944384 -0.011042188 -0.0036545848 -0.03939111 -0.11714534 0.04543204
0.1555998 -0.018328473 -0.021240093 0.117374785 -0.073214434 0.10122392 0.21079357 -0.01256993
0.07151381 -0.09354502 -0.0677074 0.03445992 0.05845819 0.16334963 -0.040661167 -0.0590644
0.063533 0.06836376 0.026040575 0.021399397 -0.059825614 0.08897608 0.0016174568 0.047568586
-0.07092433 0.15116802 0.08356 0.019977255 -0.066901155 0.13187303 0.0025462664 0.019114383
0.05563944 0.0025645276 0.08279965 0.11817227 -0.063163884 -0.013786743 -0.05467229 -0.13031533
-0.038656477 0.0995352 0.06886527 0.06958237 0.06324423 0.037076503 -0.071233705 -0.09898037
-0.0659849 0.12532648 -0.031226931 -0.08858487 0.05963406 -0.042506024 -0.0848323 0.05425163
0.11002829 0.014937025 0.08492016 0.091265984 0.04409948 -0.0024426756 0.015717901 0.12457822
-0.045286223 0.061101604 0.039892077 0.022039032 -0.048956018 0.024042914 0.1160399 0.024742298
0.021452744 0.08814238 -0.045676515 -0.09084985 0.1069968 0.052406453 -0.084949605 -0.045214545
-0.10841744 -0.026198443 0.05241433 -0.0664322 0.09212769 -0.06427006 -0.12094201 -0.061950568
0.09458523 0.028322369 -0.037343007 0.14188793 0.014209565 -0.022350678 -0.094646566 -0.10830494
0.021690069 -0.021417176 0.03188847 -0.07574585 -0.033525612 0.030015375 0.06721916 0.06855881
-0.07735201 -0.077596046 0.012967502 0.03611407 0.010879231 -0.12025678 -0.105626 -0.07682286
-0.03355124 0.16819876 0.05890325 0.045728333 -0.052117 0.07778137 0.008919813 0.006859761
-0.011178228 0.011215436 0.2740068 0.093094796 -0.12856434 0.017839693 -0.09443804 0.024453958
0.07546035 0.07929375 -0.05324455 -0.00021002974 0.13700378 -0.06054712 0.1685508 -0.008266355
0.030917184 0.07354775 -0.06663215 -0.13038604 -0.052592427 -0.014730436 0.10219315 -0.18605992
0.060853437 -0.029545877 -0.016568514 -0.042485557 0.13692972 -0.046453692 -0.029461455 -0.14018331
-0.060009208 0.05119679 0.058495957 0.09501083 -0.10297309 -0.090942286 0.133378 -0.04771401
0.024250114 -0.14555047 0.06792425 0.10264122 -0.16285016 0.10304551 -0.03234042 -0.13432953

rnn.weight_hh_l1 f4 [256, 64]
00000000: 33f9 503d ae95 19bd eeef 34bd 364c f33d
00000010: cb81 afbd 54c0 0e3e 1abb a5bd 320c 41b9
00000020: 4edc 513c a5d4 4fbd cf44 ca3c 50b1 5dbc
00000030: 2266 2b3b a34d 823d cf92 9f3d 1e05 e33b
00000040: 63ed f0bd 8931 353b 8266 df3d 76bf afbd
00000050: 4566 6f3c c164 dc3d 6378 e03d e2b0 9dbd
00000060: 0a38 9fbd eee6 c1bd 94df dabc 5bdc 0ebe
00000070: d6e8 a0bc 7bf7 af3d 8a5f 903d 23bd febd
00000080: 36b1 bb3d b7b0 f63d 47c2 04be 506b a03d
00000090: 40c6 dbbb f279 913c 724a d33d f589 33be
000000a0: 7c52 9d3d e393 bc3d 9f7e 5a3b 641e e03b
000000b0: 214b 2fbd 8a4e d7bd 9df9 2cbd ce70 cfbd
000000c0: 16bd 073e db28 30bd f21a 333d 6915 edbd
000000d0: b063 6c3d b93d 91bd 8e56 99bd d5c3 a43d
000000e0: 0f31 02be 825d 843d a922 78bd 5e48 b43c
000000f0: 75af 28bd 44d2 83bd 2885 b4bd e635 bdbd
00000100: 2f51 fa3d c75b a7bd 56da d33d b18b 75bd
00000110: 202e 2abd 8811 933d 795d 883d c226 e13d
00000120: ac8d 853d b1d8 163e 4e96 85bd dd75 013d
00000130: f169 973d 2a65 c1bd 7fe6 053e 0492 143d
00000140: f400 02bd 97b6 493d ade5 803d 2f7d e33c
00000150: b3d0 c43c 66de 3ebc c005 2bbd 2df7 fdbd
00000160: 5c87 9d3d b598 21bb 9cf3 f6bc 6985 6dbd
00000170: a6c8 7e3d 73b3 4bbc ae94 9d3d 4c9d 973c
00000180: 7624 df3d a787 afba 54c7 0d3c b724 febd
00000190: 821f b83d 8c56 35bd fb49 443c 214a e83d
000001a0: fcc4 f2bc 438b dd3d 1a1e 9f3d f0f9 623d
000001b0: 25d9 bcba eb2b 94bd b0c1 f83d b090 f43d
000001c0: d102 84bc b998 723d a207 5f3d e07f d33d
000001d0: b932 aebc 2239 a13d 2426 f33d 47e4 6fbd
000001e0: b133 f1bc b462 17bd fa1a bb3d 8bf7 18bc
000001f0: 7532 143d f264 8f3d 5476 9a3d f87c edbd
00000200: 4d45 8d3d 4373 f83d 8955 cc3d c054 c9bd
00000210: 57fc ebbc 2571 34bd b219 5fbc aecf 8d3d
00000220: bacd 69bd b82e 63bb 309f c93d f6be df3d
00000230: d609 32be 6a82 df3d 5e20 55bd 7bfc d43d
00000240: c8e0 e1bd e84e 183e 6a54 293e 6290 3b3d
00000250: b2a2 dbbd 7fa6 1f3d 70e4 fcbd 597e 813d
00000260: c7ff 5cbd e4b8 04be 7426 1a3e 7cac bdbd
00000270: 6560 cbbd 2e40 bfbd 582e bcbd dafc ad3d
00000280: 0c43 5b3d ca3f a3bd 5783 e9bc c5e9 d03d
00000290: d921 39bc 7953 a63d 1f01 cdbd ff48 22be
000002a0: 0f0e 7cbd a49c c0bd ef91 4bbc f653 253c
000002b0: fd1c 83bd e5bd b0bd 8942 193c d09e fe3d
000002c0: 082d b63d d3bb 79bd c4f4 823d 83f6 d8bd
000002d0: 94d0 9e3d f573 9ebd 5774 e4bd 36b1 a3bd
000002e0: e40c fbbc 8419 293d dbc9 0abe 8ba1 243d
000002f0: 9dda 903d e647 adbd 53ad f33d ba83 64bd
00000300: e657 2a3d 9ee3 6ebd 008e 1ebd a49e 1b3d
00000310: 1fc7 c1bc 2d23 a13c 8632 7f3d b9c8 acbc
00000320: 1b27 bc3d 3b32 a5bc d207 0d3c f144 b4bd
00000330: 6280 073e 58ff 04bd 847d a93d c384 02be
00000340: ddd0 cbbd 7a37 9cbd 6b5a 0c3d 9e6b 9abd
00000350: b47d b73d 7cef 893d 69d0 fc3d 634a d4bd
00000360: 6ecb b5bd 32b2 e13d 8684 e7bc be8c 27bc
00000370: d836 7ebd 8dbb e63c 3367 9ebd de90 233d
00000380: ab75 efbd d324 8e3d 3db0 1b3e 9f55 803b
00000390: 9a30 9cbd 54d6 9abd 006a 65bd 1cf4 95bd
000003a0: 472d c53d 05a4 e73d cc96 0b3d 277c 8b3d
000003b0: 9de2 abbd d517 073e 19bf 12bd 9aeb 6d3d
000003c0: 7c8f e33d 5200 bc3d 07a8 97bd f32b b13d
000003d0: 2800 70bc 7613 30bd 4152 ab3d 663f 2c3c
000003e0: 8130 1e3d 6698 3bbd e758 053e 3ccd 293d
000003f0: 5cb1 0d3e fb15 d83d b8d3 e53d dab5 e5bd
0.051018905 -0.03749626 -0.044174127 0.118797705 -0.08569678 0.13940555 -0.080923274 -0.00018410457
0.012808872 -0.050739903 0.024691014 -0.013531044 0.0026153405 0.06362464 0.077916734 0.0069281003
-0.11764028 0.0027647933 0.10908224 -0.0858144 0.014611785 0.10761405 0.10960462 -0.07699753
-0.077743605 -0.094678745 -0.026717938 -0.13951246 -0.019642275 0.08592125 0.07049473 -0.12438419
0.0916466 0.120454244 -0.12964736 0.07832968 -0.006706983 0.017758343 0.10316934 -0.17533095
0.07681748 0.09207895 0.0033339632 0.0068395603 -0.042796258 -0.10513027 -0.042230237 -0.10128938
0.13255724 -0.043007713 0.04372687 -0.11576349 0.057712257 -0.07091851 -0.07487212 0.080451645
-0.12714027 0.06463148 -0.06057993 0.022007164 -0.041182954 -0.06436589 -0.0881446 -0.09238796
0.12222516 -0.08171802 0.10344379 -0.059947673 -0.041547894 0.07181078 0.066584535 0.109937206
0.065211624 0.14731099 -0.06522809 0.031606544 0.073932536 -0.09443124 0.13076209 0.036272064
-0.03173919 0.049246397 0.06293807 0.027769653 0.024025297 -0.011649704 -0.04175353 -0.12400661
0.076918334 -0.002465767 -0.030145459 -0.057988558 0.062203072 -0.012432921 0.07694374 0.018507622
0.10895626 -0.0013391868 0.008653481 -0.124093466 0.08990385 -0.04427199 0.011980529 0.11342264
-0.029634945 0.10817578 0.07769413 0.05541414 -0.0014407976 -0.07234939 0.12146318 0.119416595
-0.016114624 0.05922768 0.05445064 0.103271246 -0.02126442 0.07872225 0.11872509 -0.05856731
-0.029443594 -0.036959365 0.09136005 -0.009336363 0.036180932 0.07001676 0.075421005 -0.115961015
0.06897984 0.121313594 0.09977252 -0.09830618 -0.028806848 -0.044053216 -0.013616966 0.069243774
-0.05708096 -0.0034665298 0.09844816 0.10925095 -0.17386565 0.109135464 -0.05203282 0.10399719
-0.11029202 0.1487385 0.16536108 0.04579199 -0.10724391 0.038977142 -0.123482585 0.06322927
-0.053954866 -0.12961155 0.15053731 -0.092614144 -0.09930495 -0.09338413 -0.09188527 0.08495493
0.053530738 -0.07971151 -0.02850501 0.10200838 -0.011299574 0.0812139 -0.100099795 -0.15848158
-0.061536845 -0.09404877 -0.01242493 0.010090819 -0.064020135 -0.086299695 0.009354242 0.12432635
0.08895308 -0.06097014 0.063943416 -0.105938934 0.07754627 -0.07736961 -0.111550026 -0.07992785
-0.030645795 0.0412841 -0.13553564 0.040193122 0.07072947 -0.08460979 0.11898293 -0.055789687
0.041587733 -0.05832254 -0.03870964 0.03799309 -0.023654519 0.019670093 0.062304042 -0.021091806
0.09187146 -0.020165553 0.008607822 -0.08802212 0.13232568 -0.032470077 0.08275893 -0.12745957
-0.09951947 -0.07627769 0.034265917 -0.075400576 0.08959523 0.06735131 0.123444386 -0.10365751
-0.08876692 0.11020316 -0.028261434 -0.010226427 -0.06206402 0.028165603 -0.077345274 0.039933078
-0.11692365 0.069406174 0.15203948 0.003916457 -0.076264575 -0.07560411 -0.056009293 -0.07321951
0.096277766 0.11310581 0.034079358 0.068107896 -0.083928324 0.13192685 -0.035826776 0.058086015
0.11111352 0.091797486 -0.074050955 0.08650961 -0.014648475 -0.04298731 0.08365298 0.010513162
0.038620476 -0.045799635 0.13022195 0.041455492 0.13837188 0.105510674 0.11222023 -0.11216326

rnn.bias_ih_l1 f4 [256]
00000000: 48f4 273d 0366 87bd e7e9 b33d 49d1 a3bd
00000010: d5ae f83d b8bb d33d 0aee 62bd dee1 a0bd
00000020: 37a1 aa3d 5012 11bd 31b8 dfbb a220 93bc
00000030: 9b19 573d 9fb0 0d3e e9ff afbd f15c 363d
00000040: 4fba 33bd fb4c 123e e611 a7bc dbbc 80bd
00000050: c80c ab3d 1688 073e 9624 8e3d dfcb f93d
00000060: 8ef0 b23d ada7 643d c372 093c ee18 f83d
00000070: 9c20 c0bd 93c6 56bd 0365 7f3d 2069 f03b
00000080: ad15 abbd 1d20 ef3d 0240 bfbb 2288 2c3e
00000090: 7c06 f43d a82a 283e f8c1 2e3d 1736 b5bb
000000a0: 0b98 003e c111 93bd 7531 803d 35c8 c2bd
000000b0: 835c 64bd da3f 24bd e195 77bd bf4e 9abd
000000c0: 4e8d 623d 1e13 e13d 0c89 be3c 4a71 903d
000000d0: 122f a9bd 512b e2bc 97fb 833c caef 223e
000000e0: 376e ec3d b211 9f3d d5e3 16be 4d1a 34bd
000000f0: 487b 8dbd 8688 d0bc 2ba4 0a3c de81 203e
00000100: 912f 223d 55b1 c33d 507b 1cbd 0a3a c43c
00000110: 4708 b2bd 309f 723d 4518 9e3d 8b86 c73d
00000120: bf04 1dbe 4bb8 c7bd 10d3 073c 1f1b 6fbc
00000130: 50a9 2ebe 3a9f 0e3d 1789 65bd a87c 0f3d
00000140: bb07 b23d 3e42 d7bb c71f acbd f830 963c
00000150: f0e0 afbd d2f0 093c 6fe7 cfbd 3161 90bd
00000160: 1a5b 893c 5c16 13bd 4bb0 26be 5d96 adbd
00000170: e1ac 06be 094b 66bd 2a10 8bbc 81f3 aa3d
00000180: 69e9 2dbd 228e 38bc 6580 a03d 7b68 043d
00000190: 18ed 42be be03 1abe f7af 83bd f69c 81bd
000001a0: edc0 603d 675a b23d 3143 c5bc 742a e5bd
000001b0: 75c2 773d 1432 8c3d 2016 52bd 7be5 3b3d
000001c0: 7cbe c0bd c97a c0bb ed2b 6abd 4ca1 d4bd
000001d0: 91fc 68bd 0efa 573d c45a ffbd 9289 013d
000001e0: 7d6b 75bd f4f8 9fbd 07c5 bb3d 6600 513d
000001f0: 594a 1abe 6580 cb3d b54a f43b bb51 0bbd
00000200: 75b3 8abd 3c75 03be 1428 77bd 13ae 3b3d
00000210: 1b56 ce3d 7f78 06bd de69 763d c25e 073d
00000220: 0c30 1cba 3b38 75bd f009 353d db06 c0ba
00000230: 57cd a3bd 60d9 063e 5845 9d3d aa69 91bd
00000240: 6887 823c 825d 20bd 859f 8f3d 8696 643d
00000250: 26fd a0bd 3113 0d3e 1af9 92bd fad4 1bbe
00000260: ccba cebd 2409 093e b6fb 12bd 2e4a 8dbd
00000270: 5bcd 43bd d1b1 313d 5920 253d 14c1 c43c
00000280: a383 83bc 73d7 ba3d 1d95 743c 1c3f 613b
00000290: b70f 2c3c 360d 3dbd 06cb e53c 083a c23d
000002a0: 54f0 04be 867d 1fbc 22b0 1c3d 52ff f33d
000002b0: 9de7 443d c20a 92bd e760 7f3d 255c e9bd
000002c0: 3a83 0abd 550b 52bc cdbf 0f3e 8546 bc3d
000002d0: 0296 e2bc a5ef 8bbd a25c 9b3d e4c2 b33d
000002e0: 1cdc 383c 0cf4 ba3d 8903 963d 2177 673d
000002f0: 306b a6bc b04d fdbd 049c cbbd 7c74 ad3c
00000300: abe6 7b3c d7ab a33d 93bc 9a3d d85b 74bd
00000310: 95ce 1b3d 5e71 61bd 4bc8 b23d 0e37 3ebd
00000320: fff4 09be 1e3e 2bbd b8ae 5c3d d232 49bc
00000330: e596 e6bc 4984 043e 41cc af3d 6f06 623d
00000340: c9ce 30bd 79c8 4c3e 9078 343d 518c 5ebc
00000350: 0738 663c 7107 8b3d d63c 4c3d 1f44 a9bd
00000360: 8d89 3bbd e13d 0c3e 1033 1b3d e8f1 55bc
00000370: 9fb6 2b3d bc2e 133d 23d1 99bd d497 953d
00000380: 318f 303d c725 8f3c 7ccb d7bc 07dc ab3d
00000390: 5aab 9b3c 73d4 3f3e d51e 803d dbfc 9a3b
000003a0: 9c20 b63c 08f8 7bbd 646c 53bd 36a4 13bc
000003b0: 5fa2 33bb c57d 133e 2547 04be a847 98bd
000003c0: 3e04 913d 0295 d1bd 95af 7ebc b63a a2bd
000003d0: c3b1 d43d 64ae 49bd 8b61 bebd ab13 8dbd
000003e0: bf6f 1f3e d7ab ff3d 01f3 ccbd 6b98 2f3e
000003f0: 120f 203c 1130 5fbd 14e0 f0bc bc6e e2bc
0.04100445 -0.06611254 0.08784848 -0.07998902 0.121427216 0.10338539 -0.055402793 -0.07855581
0.083315305 -0.035417855 -0.0068273772 -0.017959896 0.052514654 0.13836907 -0.08593733 0.04452223
-0.04387885 0.14287178 -0.020394277 -0.06286021 0.08352047 0.13235506 0.06940572 0.121970885
0.087372884 0.05582397 0.008389178 0.1211413 -0.0938122 -0.05243547 0.06235219 0.0073367506
-0.08353744 0.11676047 -0.0058364877 0.16848806 0.11915299 0.16422522 0.04266545 -0.0055301297
0.12558 -0.07181121 0.06259433 -0.09510843 -0.05575229 -0.040099956 -0.06044567 -0.07534551
0.05531054 0.109899744 0.023258708 0.07052858 -0.08260931 -0.027608545 0.016111178 0.15911785
0.11544459 0.07767047 -0.14735349 -0.043970395 -0.0690828 -0.025455724 0.008461992 0.1567454
0.039596144 0.09555308 -0.038203537 0.023953456 -0.08692985 0.059233844 0.07719473 0.09742459
-0.15333842 -0.09751948 0.008290067 -0.0145938685 -0.17056775 0.03481982 -0.056038942 0.03503099
0.08692881 -0.006569176 -0.084044985 0.018333897 -0.08587825 0.008419232 -0.10151564 -0.07049788
0.016767073 -0.035909995 -0.16278188 -0.08475945 -0.13151886 -0.056223903 -0.016975481 0.08347226
-0.042458925 -0.011264356 0.07836989 0.032326203 -0.19035757 -0.1504049 -0.06430047 -0.06328766
0.05487149 0.08708649 -0.02407989 -0.11189738 0.060488183 0.06845489 -0.05129063 0.045873147
-0.09411332 -0.005874012 -0.057170797 -0.103823274 -0.05688149 0.052728705 -0.12468484 0.031625338
-0.059916962 -0.07811156 0.09168439 0.05102577 -0.15067424 0.09936599 0.007455195 -0.03401349
-0.0677251 -0.1283769 -0.060340956 0.045820307 0.10075017 -0.032829758 0.060159557 0.033049352
-0.0005958087 -0.05986808 0.04419893 -0.0014650481 -0.0799815 0.1316886 0.07679242 -0.07100232
0.015933707 -0.039151676 0.07012848 0.055807613 -0.07860784 0.13776852 -0.071764186 -0.15217963
-0.100942224 0.13382393 -0.03588458 -0.06898914 -0.047803264 0.04338247 0.040314052 0.024017848
-0.01605398 0.09123125 0.0149281295 0.0034369892 0.010501794 -0.046155177 0.02805091 0.09483725
-0.12982303 -0.009734517 0.03825391 0.11913933 0.048072446 -0.07130958 0.062348273 -0.11394528
-0.033816554 -0.012820085 0.1403801 0.09193138 -0.02765942 -0.06832818 0.07586028 0.08777407
0.011282947 0.091285795 0.07324893 0.056510095 -0.020314783 -0.12368333 -0.09941867 0.021173708
0.01537482 0.0799176 0.07555499 -0.0596579 0.03803881 -0.055039756 0.08729609 -0.046439223
-0.13472365 -0.041807286 0.053877562 -0.012280183 -0.028148124 0.12941088 0.0858388 0.055181917
-0.043165956 0.19998349 0.04406029 -0.013583259 0.014051444 0.06788529 0.049862705 -0.08264946
-0.045785476 0.1369548 0.037890494 -0.013058163 0.041922208 0.03593324 -0.07510593 0.073043495
0.043105308 0.017474068 -0.026342146 0.08391576 0.019002605 0.18733387 0.06255881 0.0047298498
0.022232346 -0.061515838 -0.05161704 -0.009011319 -0.0027410013 0.14403446 -0.12917764 -0.07435542
0.07080887 -0.10233499 -0.015544792 -0.079213545 0.10385468 -0.049238577 -0.092959486 -0.06888517
0.15569972 0.12483948 -0.10007287 0.17147987 0.009769218 -0.0544892 -0.029403724 -0.027640693

rnn.bias_hh_l1 f4 [256]
00000000: f4c3 be3c 2a57 0a3e 2e1f 35bd 004f 3a3d
00000010: 0d16 adbd 1203 05be a84f f1bd 1e3e d03d
00000020: 6d4d a53c 508d 99bc 0ebd 1d3d e1a9 a23d
00000030: 5fdd 033e a0c1 aa3d 973f 833d 6234 683d
00000040: 8650 893d adc5 303e 4e52 4b3c ca24 14bd
00000050: 8766 8e3c a46b 163e d4df 07b9 cefb 083d
00000060: 1884 003d 8a58 b53d c948 6cbd ca7b 113d
00000070: e461 2e3d 74b9 d2bd bc43 cf3c 1199 93bd
00000080: b390 68bd 4ee8 04bc 32f8 483d d9e7 353e
00000090: 813b 443e bb31 533d bb70 f13d 65dd 693d
000000a0: f3be 38bd cbee a03d 2b02 043e 2dcc b93d
000000b0: d644 7abd 26ce 163d 32a7 72bd 0d2f 4ebd
000000c0: c681 ff3c 342e afb9 c3e4 e33c 95db 89bb
000000d0: 4e23 c83d 277d da3d 11a6 05be 29e0 833d
000000e0: b5d2 023e 6f6f f43d ca65 95bc 2e89 793d
000000f0: 5d8e 5bbd b759 9fbd 51f5 47bd 8bbb 143d
00000100: f939 1cbd 91aa ed3d a7d0 7f3d 4b25 1c3d
00000110: 1e55 42bd c835 c53d 01a9 4a3c 9b4e d23d
00000120: ee38 b73d 2ffc a63c 3aba 09be b564 0ebd
00000130: 8f49 3b3c fef9 64bc a13e 5c3d e3fd 85bd
00000140: 23cf 8d3c fb75 24be a5f5 cabd a5c7 a4bd
00000150: 1641 d13b f47f 153d 6239 c13d d10d e23d
00000160: 556f aabd 41fb e1bd 312d 2bbd 0351 023d
00000170: b386 803d 935f 053d 0dd9 573d 591e d6bd
00000180: db66 bd3d 9753 b93b 5d07 04be ab22 e0bd
00000190: 2799 07be fe70 b7bd 052b e83d 8047 09be
000001a0: 06c2 c13d 9096 00bd 7e72 9ebd ca4f 92bd
000001b0: 305c 933d 4867 a8bd 02ee 713c 1963 ebbd
000001c0: e07f af3d 0109 ecbd d64b 33bd 81d9 f5bc
000001d0: 9b13 8bbd e768 0cbd b677 9bbc b477 66bd
000001e0: 3511 f13c bd22 50bd b62d 313a 781f cdbc
000001f0: a433 2abe 9238 783c 58e4 c13d d334 98bd
00000200: 67bc 7a3d 56f0 06be c91f 8ebc bc9d e63d
00000210: 9bb0 e03d 1996 acbd 51a1 c8bb dea4 e43d
00000220: 2b72 aebd 3b37 943c f20b ef3d 68e7 e03d
00000230: 409b b0bc 48cc 2bbd 193c 883c 46c3 06bd
00000240: 0d79 a0bd adad da3d 45ab 903c 9ec3 0c3e
00000250: 47cd bcbc ba62 c13d 3a72 e4bd a5fa dc3c
00000260: 07a8 d4bd cc20 eb3d 9c01 233d 53fc 48bd
00000270: a69b 0abe c638 3b3d 19d7 0f3d d23c 9cbc
00000280: ee47 c2bd 8c6e 493c fd66 06bc 451a 91bd
00000290: b5d2 0f3e 0067 1c3e 9932 013e 0e1e 08be
000002a0: e0bc a7bd 3d2c bbbd 16ef 033e fadb a3bd
000002b0: 11c8 3c3d 4fe3 babb f480 be3d 6a8e 00be
000002c0: 78e5 113e e9b0 223d 8bf1 073d 303b 7bbd
000002d0: 3b08 84bd c56a a93d 44fb b53c 396c ea3d
000002e0: 6fa9 4cbd 1759 a6bd 9134 2d3d 8bf1 6b3d
000002f0: 4e49 87bc 9c3e 913d bcff e93b 2840 16be
00000300: e75c cdbb 883d 3e3c b568 30bd f00d 1c3d
00000310: 1167 45bd 9690 bcbd 8dd0 933d 1b9a 1a3c
00000320: 10ee 703d e175 c83d a06d 0cbd c095 46bd
00000330: 6f9c 0f3e 20ff e53c d4b9 7e3c eda0 4bbd
00000340: 1d8c e9bc a127 033e cafd 663d 7d38 8fbd
00000350: 9a19 d13d d637 babd 4b6f 2d3e 21e3 99bc
00000360: 9a48 77bc db58 aabd 54f5 f5bd dc1e 253e
00000370: 1c4f ff3d 5552 3d3d 3482 0b3e 647e 93bd
00000380: 8d00 04bd 204c 953d 8929 a1bd c6fc d2ba
00000390: 30f5 173c d440 283c 4267 2a3d e1df 163e
000003a0: d0e6 cf3b 73a2 873d b38a d83d 24c2 b6bd
000003b0: 6405 d6bd 3676 0b3d d924 bfbb a478 44bd
000003c0: 5f51 a1bd c20e b3bd c771 143e e8d6 ff3d
000003d0: 1f6b 323d 089d a23d 4cf1 91bd d94f 7c3d
000003e0: 55ee d73d 1390 f0bc 12fd 2fbd 4f11 b13c
000003f0: 16be 9c3d 8ddc fe3d f926 31bb aca7 c0bc
0.023286797 0.13509813 -0.04421919 0.045485497 -0.084514715 -0.12989452 -0.11782771 0.10168098
0.020178521 -0.01874414 0.038510375 0.07942558 0.12877415 0.08337712 0.06408613 0.05669058
0.06704812 0.17262907 0.01240976 -0.036167897 0.017382873 0.14689499 -0.00012957986 0.033443265
0.031375974 0.08854778 -0.0576866 0.035518445 0.042573825 -0.102892786 0.025300853 -0.072069295
-0.05677862 -0.008112026 0.049064822 0.17764224 0.19163324 0.0515611 0.1178908 0.057095904
-0.04510398 0.07858046 0.12891452 0.090721466 -0.061100803 0.036817692 -0.05924148 -0.05033784
0.03118981 -0.00033413025 0.027819043 -0.0042070844 0.09772359 0.10668402 -0.1305163 0.064392395
0.12775691 0.11935317 -0.018237013 0.06092184 -0.053602565 -0.077807836 -0.048817936 0.036311667
-0.038141225 0.116047986 0.062454846 0.038121503 -0.047444455 0.096293986 0.012369395 0.10268899
0.08946405 0.020383922 -0.13449946 -0.03476401 0.011431112 -0.013975618 0.053770665 -0.06542566
0.017310685 -0.16060631 -0.09910134 -0.08045892 0.0063859327 0.03649898 0.09434773 0.110377915
-0.08322016 -0.11034251 -0.041791145 0.03181554 0.06275692 0.03256185 0.05269723 -0.10455007
0.09248134 0.0056557166 -0.12893434 -0.109441124 -0.13242017 -0.089570984 0.1133633 -0.13406181
0.09460835 -0.031393588 -0.077366814 -0.07144125 0.07195318 -0.08222824 0.014766218 -0.11493511
0.08569312 -0.11525155 -0.043773495 -0.03001094 -0.06790849 -0.03427973 -0.018977981 -0.0562665
0.02942715 -0.05081438 0.00067588256 -0.02503942 -0.16621262 0.015150206 0.09467381 -0.074319504
0.06121483 -0.13177618 -0.01734914 0.11260554 0.10971185 -0.08427066 -0.006122746 0.111642584
-0.085178696 0.018092742 0.116722 0.10981637 -0.021558404 -0.041942865 0.01663022 -0.03290107
-0.078355886 0.10677657 0.017659793 0.13746497 -0.023047103 0.09442659 -0.111545995 0.026974985
-0.10383611 0.11480865 0.039796457 -0.04906876 -0.13535938 0.04570844 0.035117242 -0.01907197
-0.09486376 0.012294423 -0.008203265 -0.07085089 0.14045222 0.15273666 0.12616958 -0.13292715
-0.08190322 -0.09139297 0.12884173 -0.080009416 0.046089236 -0.005703367 0.093019396 -0.12554327
0.14247692 0.039719496 0.033189338 -0.061335742 -0.06446882 0.08272318 0.02221454 0.11446423
-0.049966272 -0.08122461 0.04228646 0.0576034 -0.016514447 0.0709202 0.0071410816 -0.14672911
-0.0062671783 0.01161135 -0.043068606 0.03809923 -0.048193995 -0.09207265 0.07217512 0.009436156
0.058820784 0.097881086 -0.034284234 -0.048482656 0.14024518 0.028075755 0.015547235 -0.049714018
-0.028509194 0.12808086 0.056394376 -0.06993196 0.10209961 -0.09092681 0.16936986 -0.018785061
-0.015092993 -0.08317729 -0.12009683 0.16125053 0.12466261 0.046221096 0.13623887 -0.072018415
-0.032227088 0.0728991 -0.0786925 -0.0016097061 0.009274766 0.0102693625 0.04160238 0.1473384
0.0063446537 0.066227816 0.1057333 -0.08923748 -0.10450247 0.03404828 -0.00583325 -0.047966614
-0.078768484 -0.08743049 0.14496528 0.12492162 0.04355919 0.079401076 -0.07126102 0.061599586
0.10543505 -0.029365575 -0.042965956 0.021614699 0.076534435 0.124444105 -0.0027031286 -0.023517452
