601318.ss_stock_model.pth (torch, 205359 bytes, 9 tensors)

rnn.weight_ih_l0 f4 [256, 1]
00000000: a92b 733e 3753 093e 2b8b 423e 1fe5 1d3e
00000010: 91b8 303d 1967 2a3d 81be 213d 9d28 993d
00000020: 0d39 323e 62dd 2e3e 0191 413e 4959 1d3e
00000030: 3de2 b13c b2d6 293d 11fd 223e 7b1a 093e
00000040: 8d2a 403e 6b03 043e b9fd e43d 8b92 6a3e
00000050: 927b c03d 06e1 0d3e dd30 673e 58dd b13d
00000060: cf63 4c3e bc09 253e 8581 3c3e 76b4 4d3e
00000070: 7eff 7d3c 632d 293e 88d5 873e 06d2 9b3d
00000080: a087 1a3d 6c76 413e fa9e 5c3d fa79 363e
00000090: f618 463e 9ffa f73d 3cc4 883e 3703 133e
000000a0: f7e1 5c3e 00c1 2e3e 74b0 05bd 5b65 353e
000000b0: f1e2 d43d bfa4 393e 1cfd 173e 02ee 153e
000000c0: 8019 443e bada 7d3e e081 2f3e 15a3 533e
000000d0: 2ff4 bcbd ff3f 863e 6590 0c3d 8179 433e
000000e0: 035d 2c3c 208f 413e 7d3f a03d eee1 4d3d
000000f0: 8547 c2bc b569 5a3e cf70 ef3d 86b1 1b3e
00000100: b608 073e 595b 113d a695 3a3e f9a5 a13d
00000110: 898c 513e 25fa 25bb 9466 193e e5c4 06bd
00000120: 832c bfba 520d 383e d9a0 d5bd 7c0c 183e
00000130: c151 1e3e 56f2 023e 2a9e 2d3e 5438 bf3d
00000140: dd67 b03c 92ff 38bd 83dc 983d 47e3 e43d
00000150: bb75 3d3e 0c97 9bbd d31e 843d dfcd cebc
00000160: ea41 393d 1dbc 4c3e 325c 8d3d eddd 463e
00000170: 109c 323e ce15 9b3d eaa0 163e 04b7 0d3d
00000180: d604 e33d 53cf 3f3e fd94 29bd ed54 fb3d
00000190: 184e 2c3e 1e10 d8bb 42e4 353e 1627 583e
000001a0: a6cf 4f3c f46a 073e bfa3 643b 5b6c 213e
000001b0: 32e6 2fbc abce ee3d 6978 983c eb66 363e
000001c0: a3ee 4d3e b98d 7b3c eeb6 833d f338 133e
000001d0: c1b3 88bd 6884 023e 46c3 173e c497 7f3d
000001e0: 2c03 8e3d 98ad 8f3c 9bdc 693d d955 b3bd
000001f0: 453e 983d 0fc4 953d 17aa 2b3e 11ee 2e3e
00000200: a3e2 063d e52b 903e 8910 453e c539 433e
00000210: 7ec2 34bd 3800 2e3e 2aa4 433e 5283 fd3d
00000220: 1a42 7fbe be6c adbd 373f 5dbe 3b66 693e
00000230: 697c c83c a1ba 163e 2ce5 51bc 3873 36be
00000240: 432a 59be 4ffa 85be 0790 563e c4e9 633e
00000250: ca8d 7a3e a9b9 6cbe 6fff 7e3e 6e02 783e
00000260: de24 233e d8d9 b7bb 3aaf 1fbd fb0c 52bc
00000270: 2d20 47bd 3a8a 49bd b9fc 88be b42f 3b3e
00000280: 053a aa3c ca10 5bbe ab10 503d 5ea3 77be
00000290: 431f 183e bdee 4abe 650a 343e c86d 5fbe
000002a0: 30c5 2b3d c2b1 aabd d9dd c63a 6560 debc
000002b0: c0cd 423e 6f1d 33be ad78 50bc de17 443e
000002c0: 984d 893c d3fc 89bd ab84 3cbb 71fa 583e
000002d0: 17b8 9abd 9198 aebd 26dc dabc af3d 7dbd
000002e0: 3564 e53d 5c50 473e 3dd5 aebb 0395 463e
000002f0: cd2f 733d fdb9 74be 4c9f 293e c0a1 5bbe
00000300: aa71 a63d 68ca 683e 301b 1e3e d0ff d93d
00000310: 9683 5e3d 1d55 153d 5386 383e a97c 543e
00000320: 7f12 2a3e b350 263d b42a 913e dd7d 693e
00000330: 52bf 543e 553b 863e 4728 553e 7fcf 213e
00000340: 839d af3d 3458 dc3d 7fca 023e ea06 a03d
00000350: 3fba 623d 8cc5 893e 2bd1 833e d073 393d
00000360: ea3c 873d 6e16 6f3e ab2e 993d 6c64 073d
00000370: a49c e93c 30c5 bfbb 5dee 133e 618a 883e
00000380: e325 5c3e 1c3e a23d 105b 11be 3065 403e
00000390: f423 693e 8b4b 973d 22f3 b73d 79eb 133e
000003a0: de48 bf3d 2e0c 423d ede5 b63d b24e 443e
000003b0: 34de 7e3e 1e58 013e ea17 7bbc f8cc 663e
000003c0: d362 de3d d829 373e af6c 9bbc a697 613e
000003d0: 79d4 e5bc 0caa ae3d 39b0 2fbc 23ef 003e
000003e0: dc71 4d3e 35b5 663e e9b2 433e 2760 c0bd
000003f0: 2550 61bb 8fc9 043e ac4d 213e 8554 e53d
0.23747124 0.1341065 0.18998401 0.15419434 0.043144766 0.041602228 0.03948832 0.074784495
0.17404576 0.17076638 0.18902971 0.15366091 0.021714324 0.041464515 0.1591685 0.13389008
0.18766232 0.12891929 0.11181206 0.22907464 0.09398569 0.13855371 0.22577234 0.08684796
0.19959949 0.16116995 0.18408783 0.20088372 0.015502809 0.1652122 0.265301 0.07608418
0.037727 0.1889283 0.05386255 0.17819968 0.1934546 0.12108349 0.26712215 0.14356695
0.21570574 0.17065811 -0.032638982 0.17714445 0.10394848 0.18129252 0.14842647 0.14641574
0.19150352 0.24790469 0.17139387 0.2066768 -0.09226262 0.262207 0.034317393 0.19089319
0.010520223 0.18902254 0.078246094 0.05026429 -0.023715744 0.21329387 0.116914384 0.15204439
0.13186917 0.035487507 0.18221149 0.07892985 0.20463766 -0.00253261 0.14980537 -0.032902617
-0.0014585409 0.17973831 -0.1043107 0.14848512 0.15460874 0.12787756 0.16954866 0.093369156
0.0215339 -0.045165606 0.07463934 0.11176162 0.18501942 -0.07597169 0.06451192 -0.025244651
0.045228876 0.19993635 0.069023505 0.19420595 0.17442346 0.07572518 0.14709821 0.034598365
0.11084907 0.18731432 -0.041401852 0.12272058 0.16826665 -0.006593718 0.17762855 0.2110866
0.012683785 0.13224393 0.003488764 0.1576399 -0.010736035 0.116605125 0.018612104 0.17812698
0.20110564 0.0153536135 0.064313754 0.14377193 -0.0667491 0.12745821 0.14820585 0.062400594
0.06934199 0.01753883 0.05709515 -0.087566085 0.07433752 0.07312786 0.16764103 0.17083003
0.03293098 0.2815849 0.19244589 0.19065006 -0.044130795 0.16992271 0.19105592 0.12378563
-0.2492756 -0.084680066 -0.21606146 0.22792904 0.024473386 0.14719631 -0.0128109865 -0.1781739
-0.21207528 -0.26167533 0.2095338 0.22257143 0.2446815 -0.23117699 0.24902128 0.24219677
0.15932032 -0.005610686 -0.03898547 -0.012820478 -0.04861467 -0.04920409 -0.26755312 0.18279916
0.020779619 -0.21393123 0.050797146 -0.24183413 0.14855675 -0.19817634 0.1758209 -0.21819222
0.0419361 -0.08334686 0.0015172317 -0.027145574 0.190238 -0.17491697 -0.012724084 0.1914973
0.016760632 -0.067376755 -0.00287656 0.21189286 -0.075546436 -0.085251935 -0.026716303 -0.061826404
0.112007536 0.19464248 -0.0053354786 0.19392781 0.05937176 -0.23899074 0.16564673 -0.21448421
0.081271484 0.22733462 0.15440059 0.106444955 0.05432471 0.036458123 0.1801999 0.20750679
0.16608618 0.040604305 0.28352892 0.2280192 0.20776108 0.26217142 0.20816146 0.1580181
0.08574965 0.10759011 0.12772559 0.07813819 0.0553534 0.2690853 0.2574552 0.045276463
0.06603415 0.233484 0.07479604 0.033054754 0.028517075 -0.005852364 0.14446397 0.26668075
0.21498828 0.07922003 -0.14194894 0.187886 0.22767621 0.073874556 0.08981921 0.14445294
0.0934007 0.047374897 0.089305736 0.19170645 0.24889451 0.1263127 -0.015325526 0.22539127
0.10858693 0.17887056 -0.018972723 0.22030506 -0.028055416 0.085285276 -0.010723167 0.12591223
0.20062965 0.22530062 0.19111218 -0.093933396 -0.0034380045 0.12967514 0.15752286 0.111977614

rnn.weight_hh_l0 f4 [256, 64]
00000000: 4a4d 713d 00b6 ee3b 7aee 89bd 35ec 733d
00000010: 069c 80bd 615a a9bd 440a cabc c99a 1fbd
00000020: 0c1c ecbd 351c 68bd a3a0 f4bd 97bd 023e
00000030: 13c3 37bd fb30 3e3c fb79 6dbd f0d8 c53d
00000040: 6824 46bd 2d02 c7bd ccef 03be 0635 883d
00000050: f37e a5bd 65b4 1bbe 5d67 84bd 17e0 ec3d
00000060: 290f 7d3d 3f5a 913d 26cc 103d 9cee a0bd
00000070: 3f40 24be baf5 be3d a3f8 843c 8bc8 b3bd
00000080: 825c 0bbe 15e0 b3bd 7942 65bd b4d3 3a3c
00000090: c800 e9bd 692e 963c 0161 e2bd 7203 9d3d
000000a0: 8447 cb3b 5de0 1e3e 2dd1 1b3c d3f8 b13d
000000b0: f91c a03d 8e02 213d 847d e4bd 3d64 acbd
000000c0: 92d8 423d 5b0b 163c b6f5 4abd ad04 2f3c
000000d0: e539 d7bd 6f73 aebd c4a2 3d3d 31a2 4d3d
000000e0: cfcb c0bc 4b47 b4bd a8f7 07be 14e2 e13d
000000f0: f7a4 7c3d 78c0 b9bb 4594 4c3d 9588 a3bd
00000100: 9ef4 3f3c af74 213a e6ae 163e 31ab a0bb
00000110: a17e 63bd 6f9b f63d 4a60 723d 1f25 c43d
00000120: 448e c1bd 0f22 093d 8079 053d aca2 1b3e
00000130: 1420 72bd 2933 8dbc 7720 a93d fa8f 873d
00000140: 4a02 14bd 39bd 7e3c 255b d6bc b3fc 943d
00000150: edf3 023e 3a8b a6bc 9f4d 1e3e 5ddc 0c3e
00000160: 283d 3c3e 4503 a23d ce60 61bd 3313 053e
00000170: 1e88 0a39 1c65 21be b05f f4bd e70c 873c
00000180: beda 44bc 033b 253d f4a2 223d 6b24 7fbd
00000190: 4742 aa3d c061 0dbe e1ea 993d 35d0 19be
000001a0: 6d9c d83d 2ccb e63c 3f94 18be 1a73 acbc
000001b0: fdcd 8cbc 6c33 41bd fa3c a0bd 56aa 853d
000001c0: cade 0ebd ac90 0bbe 07df 39bd a118 353e
000001d0: d691 2b3e 4766 cd3b bdd2 393d 856a f63b
000001e0: 1245 0f3d 0b38 443d 21fe 203e b558 54bd
000001f0: cacb e2bc 9c80 2b3d ecbe cf3b 433e b7bc
00000200: 2ab9 133e 6736 373e 786f e0b8 666b 063d
00000210: 01ac 20be cab8 0b3d b12a 4e3d 382d 6dbd
00000220: f363 30be 3859 96bb 1d16 2dbd cd81 27bd
00000230: 87b1 fabb d3ca e23d 69b4 fabc 53c2 1abe
00000240: cc60 31bd 4170 a9bd 0b05 153c 1083 363e
00000250: f4b5 583d a74b d4bc 84a2 803a 428e 46bd
00000260: dcd1 403e 3471 8d3d d355 c1bd b030 c93b
00000270: 32dd b33d 48f4 913d 61ef 13be 8a27 543d
00000280: 3a18 363d 3b21 18be d788 a83b 16bb 413b
00000290: 25ad 47bd c22e bdbd 2934 75bd 1ca5 23bd
000002a0: ff9d f43d a617 e2bd 34aa d7bd 6008 0f3d
000002b0: fadf e73c 0387 803c 2b99 1c3e 417f 583d
000002c0: 4a49 1bbd 033b 9e3d 2053 d1bd ced2 773d
000002d0: bdce 363e 9051 6f3d 5f1e a03c 0d75 273d
000002e0: e104 a43c 2261 e33d 19e5 823d fe0f 92bd
000002f0: 2ef9 1bbe bc3a 94bc 11e1 8b3d 2bb4 8d3a
00000300: 67a6 493d 43a1 1b3e 5852 d63d d3a0 13bd
00000310: 80e9 bd3d 0d8b 173e 8a5f dc3d a9a8 483d
00000320: d9ad e8bd 7da5 833d a02a f3bc 20c1 62bd
00000330: 647f da3c 2f55 80bd 10f2 af3d 3221 22be
00000340: 1c52 15be 6f90 8ebd 2cef 863d 3d02 f03c
00000350: 09b3 123e 7485 a2bc 3c50 bf3c f812 df3d
00000360: decd a23d 9dae 5c3d 99c5 753c b6e5 19bd
00000370: a66c 3c3d 06d1 c43c 5b5c dcbd 0aaf a33d
00000380: fb57 d43c e927 14be 6ba4 5ebd 85e6 22be
00000390: 2703 b43d 92e9 33be 4847 dc3b 77e7 713d
000003a0: 9b8a c13d 6c6f dfbd d50a 13bd 1483 ebbd
000003b0: 57b5 a03d 5c9d 17be 006f afbd d845 5a3d
000003c0: 18ec 21bd c8ab a23d 1123 ac3d ec08 313e
000003d0: 9439 b2bc 687b a13c b5ad a8bd 4974 d1bd
000003e0: e02d 053e af50 b83d 5104 983d 0cb8 df3c
000003f0: bd36 cfbd 88a6 853c ca03 95bb b9d8 5bbd
0.0589116 0.0072848797 -0.06734939 0.059551436 -0.06279759 -0.082691915 -0.024663098 -0.038965974
-0.11528787 -0.056667525 -0.119447015 0.12767635 -0.04486377 0.011608358 -0.057977658 0.09660518
-0.048374563 -0.09717212 -0.12884444 0.066507384 -0.08080854 -0.15205534 -0.064650275 0.11566179
0.061782036 0.07097291 0.03535094 -0.07858011 -0.16040133 0.09324212 0.01623184 -0.08778485
-0.13609508 -0.08782975 -0.055971596 0.011403013 -0.11377102 0.018332677 -0.11053658 0.07666673
0.0062035937 0.15515275 0.009510321 0.086900376 0.07818026 0.039309077 -0.11156753 -0.084175564
0.04756982 0.009157981 -0.049550734 0.010682267 -0.105090894 -0.08518111 0.046297804 0.050203506
-0.023534684 -0.088026606 -0.13278067 0.11029449 0.06168076 -0.005668696 0.04994609 -0.07985035
0.011716036 0.000615905 0.14715156 -0.00490322 -0.055540685 0.12041365 0.05917386 0.09577393
-0.09450963 0.033479746 0.032586575 0.15198773 -0.059112623 -0.01723631 0.08258145 0.06619258
-0.036134996 0.015548044 -0.026166508 0.07274761 0.12788363 -0.02033006 0.15459298 0.13755937
0.18382704 0.0791078 -0.05502396 0.12995605 0.00013211413 -0.15761226 -0.119323134 0.016485645
-0.012015043 0.04033948 0.039706185 -0.06229059 0.08313423 -0.1380682 0.07515503 -0.15020831
0.10576711 0.028173052 -0.14900301 -0.021050978 -0.017188067 -0.04716818 -0.0782413 0.065266296
-0.034880437 -0.13629407 -0.04537871 0.17685176 0.16754851 0.006268296 0.04536699 0.0075200223
0.03497798 0.04790501 0.15721942 -0.05184241 -0.027685065 0.0418707 0.0063398983 -0.022368556
0.14426103 0.17891847 -0.00010701915 0.032817267 -0.15690614 0.034111775 0.050333682 -0.057904452
-0.17225628 -0.0045882724 -0.042257417 -0.040895272 -0.0076505574 0.11073842 -0.030603604 -0.15113191
-0.043305203 -0.08273364 0.009095441 0.17823434 0.0529079 -0.02591498 0.0009814058 -0.04847551
0.18830055 0.069063574 -0.09440198 0.006139837 0.08782424 0.07126671 -0.14446785 0.05179552
0.044456698 -0.14856426 0.0051432657 0.0029560975 -0.048749108 -0.09237434 -0.059864197 -0.039952382
0.11944198 -0.11039667 -0.105305105 0.034920096 0.028305043 0.015689379 0.15292804 0.052855734
-0.03791169 0.07726099 -0.10220933 0.060503773 0.17852302 0.058427393 0.019545732 0.040883113
0.020021858 0.11102511 0.06391353 -0.071319565 -0.15231773 -0.018094413 0.068300374 0.001081114
0.04923096 0.15198235 0.104649246 -0.036042046 0.09273052 0.14799137 0.1076041 0.04898897
-0.11361284 0.06428049 -0.029683411 -0.05535996 0.026672073 -0.062662475 0.08591092 -0.15832976
-0.14582103 -0.06961142 0.06588587 0.029297942 0.14326109 -0.019839026 0.023353688 0.1089229
0.07949422 0.05387746 0.015000724 -0.037572585 0.046002053 0.024025451 -0.10759803 0.079923704
0.025920859 -0.1446835 -0.05435602 -0.15908249 0.08789664 -0.17569569 0.0067223646 0.059058633
0.09450265 -0.10909924 -0.035899002 -0.114996105 0.07847088 -0.14806122 -0.085660934 0.053289264
-0.039531797 0.07942921 0.08405126 0.1728856 -0.021755971 0.019712165 -0.08236257 -0.10227258
0.13005781 0.08999764 0.07422698 0.02730944 -0.101178624 0.01631476 -0.004547571 -0.05367348

rnn.bias_ih_l0 f4 [256]
00000000: a60f 9dbd 03de f53c fcf1 e03d 86d9 62bc
00000010: b242 713c f434 a03d 7af8 d83d c96c 56bd
00000020: df2e a9bc 4b22 45bc 89a4 833e f9eb d43d
00000030: d80d 6f3d 1fe9 2c3e a31b 613d fcd4 073e
00000040: 222d 5a3c cb3b 0f3d 7316 4cbd e0aa 433e
00000050: 74a7 333e 0a0b 663e c2db f53d a979 013e
00000060: 2e70 113d f355 dfba e4f4 223e 4576 db3d
00000070: 5034 013e 9084 563c 4fab 6f3e 8e10 be3d
00000080: b52b da3d 5c0a 0c3d b157 1e3e b502 6e3e
00000090: 3ae6 123e 7a2f 3c3e 01cf 043e 0b8d 43bd
000000a0: 7e38 873d ccd5 0b3e d52b 6ebd 7b2e a3bd
000000b0: 99e8 2b3e 3fcc 91bd b883 553d d3ea db3c
000000c0: 7960 0d3e 98d7 ad3c d8c7 7bbd c27c cb3d
000000d0: 4348 fa3d af2f 1b3d d40e a63d 47ea acbd
000000e0: de92 863c 3db9 c5bc 5837 1c3d b8a4 ccbb
000000f0: 7383 ab3d 96b1 1e3e ba5c 883d c26a 183e
00000100: 9ffc cbbd 497e 19bd ba2b eebd 006c af3d
00000110: 0d45 d1bc 4e4f c83d d0a0 103e f91d c33d
00000120: c68c 603c 00ed 21be a831 0f3b 33d3 92bc
00000130: 89c2 523d cffc 043d 3168 8fbc 316c 5ebc
00000140: f37c 8a3c ffd6 fcbd 6b98 27bd dd91 97bd
00000150: 47a6 8c3d 85c3 333c b3fa b2bd 7ea6 d7bd
00000160: 708b 59bb e1c3 cabd 8d7d 60bd 1359 c6bd
00000170: e7ae bbbd 68ed 883d b387 1a3e c04a 7fbd
00000180: d217 11be 056e 3a3d b26f 01be bf7f 95bd
00000190: 5317 9ebc d523 0d3e 3fec a63d 79ef 1bbd
000001a0: e7b3 8dbd a467 0dbe 0c8a 3abd b113 503c
000001b0: cdba a5bd 8c73 463d 3b6c b53c 204f 973d
000001c0: 3310 0bbd 5058 92bd 91be e2bd 7e11 e03c
000001d0: fce0 5cbd ce76 583d adc1 aebd d24d 243d
000001e0: 4a02 e33d 0893 333d c7a5 0dbe 8bda eabd
000001f0: ecc5 9a3d 5af1 dcbd 005a ea3d de33 b3bc
00000200: 9ab6 043e f907 8abd 5dd0 c03d b387 583b
00000210: 772b 25be 64b2 843c 4797 afbd 499e 193e
00000220: 4775 f2bd 1333 07be 45ba 073d ba51 be3d
00000230: ae32 25be e94c 513d d6fe c03d 4e98 95bd
00000240: 237d c0bd 3ab8 463d 735d ee3d 45e9 04bd
00000250: ae2d 8f3d e6fa 1cbd b185 1e3d d5e7 8b3d
00000260: be1c b73d c469 223e de5c 00be 40af 183e
00000270: 1bef d13c fec2 9abd b72b 593d d466 2c3c
00000280: 9972 f53d 8e23 4ebd 841f 9abd b436 e5bd
00000290: f8d0 0f3e 96c0 5dbc 4fb7 de3b 313c 6abd
000002a0: eaa1 473d 320d ddbd 29b7 1abe 193b 61bd
000002b0: bda9 f53d 251a 89bd b3e4 683d 7a7c ee3d
000002c0: 12c9 763d 724c 89bc a2be e8bd 69b7 bc3d
000002d0: d89e a93d f8f2 08be 9dde dd3c ea2a f7bd
000002e0: 9ba3 873d a24b 163e 78c6 073e 52a8 69bc
000002f0: 068b 10be 28f6 f53c 98c1 d83c b88a ecbd
00000300: f644 aebd 7f69 443e 479c 4c3e 83e0 23bc
00000310: 9108 153d f8cf 373e c7ac d33d ee80 a53d
00000320: d01d 523c 8d67 ae3b a3ef a43e 1894 7c3e
00000330: 5fa5 73bd 9df3 d1bb d7c7 7e3c ec95 0ebc
00000340: da52 fe3c 6612 6e3e 7305 253e 255e 823c
00000350: 2609 573e 27a0 063e f4ba f1bc 345e 323e
00000360: 8e19 653d 52a3 48bd 1e39 39bc 533b 563d
00000370: 2a5c 40bb cb85 e43d 22f1 c23d e3f5 b33d
00000380: 5c43 a4bd 8772 c33c 1898 0c3d c14a 1a3d
00000390: a36c cb3b e3af 1d3d a973 5e3c 4132 283e
000003a0: 7a40 1d3e 6de5 83bc a36b f13d 4f94 743d
000003b0: 770a ecbc 6228 573d 22e7 073e f0e2 c23d
000003c0: 9155 073e f663 adbc f7a9 c63d 47cc c7bc
000003d0: 5efd 56bd 0acf cc3c b61a 693d 3b9c e63d
000003e0: d9d5 f53d 2803 6d3d d548 19bb c752 183e
000003f0: 0144 39bd f2e4 e43d df9b a93c c131 5d3e
-0.07669 0.03001309 0.10983655 -0.013845807 0.014725374 0.078226 0.10594268 -0.05234984
-0.020652233 -0.012032102 0.25711468 0.10396571 0.05836281 0.16885804 0.054957997 0.13264841
0.013316425 0.034969132 -0.049826097 0.19108152 0.17544347 0.22465149 0.12004806 0.12644066
0.035507374 -0.0017039165 0.15913731 0.107159175 0.12617612 0.013093129 0.23405193 0.09280501
0.10652868 0.034189567 0.15463139 0.2324322 0.14345637 0.18377486 0.1296959 -0.04774193
0.06602572 0.13655776 -0.05814727 -0.0796785 0.16787948 -0.07119035 0.05212757 0.026845371
0.13806333 0.021220967 -0.061469883 0.09935905 0.12220814 0.03788727 0.08108297 -0.08443122
0.016427454 -0.02413618 0.038138717 -0.006245222 0.08374681 0.15497431 0.06658311 0.14884475
-0.09960293 -0.03747395 -0.11629434 0.08565521 -0.025545621 0.09780751 0.14123845 0.09527201
0.013705438 -0.15813065 0.0021849666 -0.017922973 0.051455054 0.03246766 -0.017505737 -0.0135755995
0.016905284 -0.12345695 -0.04091684 -0.07400868 0.068676524 0.010971908 -0.08739223 -0.10529803
-0.0033194683 -0.09900642 -0.054807235 -0.09684958 -0.09164219 0.06685907 0.15090828 -0.062327147
-0.14169243 0.04551508 -0.12640265 -0.07299756 -0.019298231 0.137832 0.08150529 -0.038070176
-0.06919079 -0.13809067 -0.045541808 0.012700007 -0.0809227 0.048450038 0.022146335 0.07388139
-0.033950996 -0.071457505 -0.11071504 0.02735209 -0.0539255 0.052847676 -0.085330345 0.040113278
0.11084421 0.04384139 -0.1383277 -0.11467465 0.07557282 -0.10788222 0.114429474 -0.021875318
0.12960282 -0.06739802 0.09414742 0.0033039867 -0.16129862 0.016198345 -0.08573776 0.15001787
-0.11838775 -0.13203077 0.033136625 0.09292932 -0.16132614 0.051098738 0.09423606 -0.073044404
-0.09398868 0.048515536 0.11638918 -0.032449026 0.069911346 -0.038325213 0.038701717 0.06831328
0.08941029 0.15860659 -0.12535426 0.14910603 0.02562671 -0.07556723 0.053020205 0.010522563
0.119847484 -0.050326876 -0.075255424 -0.111920744 0.14044559 -0.013534686 0.0067967544 -0.05718631
0.048738398 -0.107935324 -0.15108933 -0.054988 0.11995266 -0.0669444 0.05685873 0.11644836
0.06025035 -0.016760085 -0.11364485 0.0921467 0.0828225 -0.13373935 0.02708369 -0.12068732
0.06623002 0.14677289 0.13259304 -0.014261322 -0.14115533 0.030024603 0.0264595 -0.11549896
-0.08509247 0.19180869 0.1998149 -0.010002258 0.036385123 0.17950428 0.10335689 0.08081232
0.012824491 0.005322403 0.32214078 0.24665868 -0.059483882 -0.006407215 0.015550575 -0.008702736
0.031045366 0.23249206 0.1611536 0.015914032 0.20999584 0.13147031 -0.029508092 0.17418748
0.055932574 -0.04898388 -0.011305122 0.05230267 -0.002935181 0.111583315 0.09518649 0.087871335
-0.0802066 0.023858322 0.034324735 0.037668947 0.006208019 0.038497817 0.01357738 0.1642542
0.15356627 -0.01610061 0.11788108 0.05971175 -0.028813584 0.052528746 0.13271764 0.09515941
0.13216235 -0.02116583 0.09700387 -0.0243894 -0.052487724 0.025001068 0.05691024 0.11260267
0.12003679 0.05786434 -0.0023389359 0.14875327 -0.04523087 0.1117648 0.020704208 0.21601011

rnn.bias_hh_l0 f4 [256]
00000000: f282 c73d 492e 4b3e c751 c43d a33e 4c3e
00000010: b42c 1c3e 3a13 193e 872a b53c d361 d23c
00000020: 832e 243e ee36 333e ed99 243e 4c1c 223e
00000030: 3eb5 68bc 7b2e 14bc c025 aabb 1af4 213e
00000040: 5959 b43c 443e 353e 533a 75bd 384b d63d
00000050: ec7e 413e c416 c63d 4acc 283d 06d1 7e3d
00000060: 8909 f03d 54ba 3abd b71e be3d fdd2 133e
00000070: 01f5 c53d 594b b2bd f7b2 d03d 5ae4 083e
00000080: 83e5 7eba 3a9c feba 45cd edba 7993 ed3d
00000090: b9a9 f43c 9ce2 f93d 0260 2eba a2d7 063e
000000a0: 88c5 9cbd f421 39bd b285 f93d 6e5f 0f3e
000000b0: a190 353e a2aa 43bd 9af9 123e 84eb 043e
000000c0: 6e32 ca3c 402c a13d 16b7 c1bd c288 d43d
000000d0: d6db b93d 820a 87bd 2bb6 103e 037b 033e
000000e0: 3be0 6cbc 0a9a ad3d e842 043d 7b2e de3d
000000f0: 68be b43d 3dcb 8b3e 2e50 753d afe1 583e
00000100: 7523 b93c 59b2 1ebd 71e6 643c 76d9 683b
00000110: 0096 6ebd c216 6f3d b672 ba3d 736f 51bd
00000120: c7e3 b43d 0333 c9bd 28c1 0e3b 00e1 febd
00000130: c7de 20bd 5b73 3d3c d0f6 34be cd41 a13d
00000140: 528a 6bbd 3428 f3bd 5430 aa3a 941a 2fbd
00000150: 0f95 773d 774a dbbd 6b83 d23b 721d c8bd
00000160: d88c 08be 69dd c53d 0dde 6fbb 21b4 c9bd
00000170: d8c1 4a3d d1a1 9fbc 0258 5e3d cd75 debc
00000180: 6454 1fbb 905e 02be dc64 b2bd 1091 19bd
00000190: 9194 c13d 3e4e e13d ca45 ff3c 5192 fabd
000001a0: dccf 7f3d 911b e93c 91b7 11bd 539d c7bd
000001b0: cc4d c7bc 4f6d 423d 6e85 1cbc e895 6d3d
000001c0: e1b6 cebd c353 333d 98ae 1ebe cc97 b3bb
000001d0: aa79 64bd c468 73bd aa55 2abe a441 453d
000001e0: 8aa3 80bd d34b 61bd 350b d3bd 0556 f0bc
000001f0: 1b7d 203c 2cd2 f3bd adb4 c73d 1fef c23d
00000200: 6393 173d 3f9f a03d c2aa 3dbd a13a eb3d
00000210: 4861 59bd 7c77 b53d 9581 b73d b6dc 053d
00000220: fee7 163c 8ccc a1bd 0b38 123d 5bad 84bd
00000230: 0778 14be 517d 5a3d 80be c13d 0139 ebbd
00000240: 6b1c 233d afd3 90bd febf 993d 0a0d a13d
00000250: fd69 43bd a4b0 913c b322 c53d 0999 c63d
00000260: 4416 3fbb a239 d23d f220 55bd fd2b b23d
00000270: 864e 123e 726f 03be 8a03 00bd 1567 81bc
00000280: 8450 963d 2561 96bd 08d7 cebd 68bf 153d
00000290: 4690 893d 8900 01bd da4c 643d c5f5 15be
000002a0: 7259 c03d 8a7a 47bc 0234 0fbd 8de8 97bd
000002b0: 67a7 ad3d 5804 1abe 6790 703d 49aa 693d
000002c0: 73f5 a33d 4a0e 0fbe 6c80 9ab9 76c1 2bbd
000002d0: 5104 1b3e ff7b 183d 9e39 2abe cc11 f6bd
000002e0: 457c 053d 5f50 afbc 57b8 023e f523 d3bd
000002f0: b901 5bbd 5e93 10bd d380 013e 888f a83d
00000300: 65d6 68bd 91f8 2a3d 3ec1 c13d 7743 0c3d
00000310: d623 abbc 47da 2e3e 5cac d13c 6b82 57bd
00000320: 405f cdba 1853 2f3e aca4 a03e b617 493e
00000330: 08a6 e93d 1e28 29bd 31ae da3d 8aa2 77bd
00000340: aa60 03bd 8abd df3c cf09 973d 86ee 483e
00000350: 9dac 7c3d 0905 b93d d3f4 3b3e 4ff3 a13d
00000360: c710 cd3d 2388 53bd baf3 7e3d d3a6 46bd
00000370: 8ea9 6e3d 4449 283d 67dc 463e 71e9 343e
00000380: 18c3 96bc 86cf a53d d31c 923d 8b04 5a3c
00000390: 8747 1d3e ef9b 1a3e b038 233e 3a28 823d
000003a0: dc1e 6bbd ed4b 853c 2dcd c03d 49b5 383b
000003b0: d391 55bd 40ba ed3d 3b27 c0bd d18f 03bc
000003c0: 6d37 e83d c47e cc3d 54f2 2a3c 9678 af3d
000003d0: 2f8b 133d 82c6 2939 0b34 4bbd e161 f33d
000003e0: d8ce f73c 44cb 9cbc c636 093d 55b0 ab3d
000003f0: cdc5 3e3d c032 983e f47f 673c 4e7f 88bb
0.09741773 0.19841875 0.0958591 0.19945769 0.15251428 0.1494874 0.022115005 0.025681412
0.16033368 0.17501423 0.16074343 0.15831107 -0.014203368 -0.009044285 -0.0051924884 0.15815774
0.02201526 0.17699534 -0.059870075 0.104635656 0.18896073 0.09672311 0.04121045 0.06221106
0.11720569 -0.045587853 0.09283202 0.14435954 0.096658714 -0.08705778 0.10190385 0.13368359
-0.0009723531 -0.0019425221 -0.001814284 0.11600394 0.029866086 0.122014254 -0.00066518795 0.13168195
-0.076548636 -0.045198396 0.121837035 0.14001247 0.17730953 -0.04777015 0.14353028 0.12980467
0.02468225 0.07869768 -0.09458749 0.10377647 0.090751335 -0.06593801 0.14131992 0.12839894
-0.014457758 0.08476646 0.03229037 0.10848709 0.088253796 0.27303496 0.05989092 0.21179841
0.022599915 -0.038744304 0.013970957 0.0035530007 -0.05824852 0.058371313 0.091039106 -0.051131677
0.088325076 -0.09824183 0.002178261 -0.12445259 -0.039274957 0.011563147 -0.17672276 0.07873879
-0.05750496 -0.118729025 0.0012984374 -0.042749956 0.060444888 -0.107075624 0.0064243576 -0.09771241
-0.13334978 0.09661371 -0.0036600858 -0.0984881 0.04950127 -0.01948634 0.05428315 -0.027155781
-0.0024311775 -0.12731385 -0.08710644 -0.037491858 0.09452165 0.11001252 0.031161208 -0.12234939
0.06245409 0.028455527 -0.035575453 -0.09746804 -0.024329089 0.047467526 -0.0095532965 0.05800429
-0.10093475 0.043781053 -0.1549629 -0.005480742 -0.05578009 -0.059426084 -0.16634241 0.048158303
-0.062811926 -0.055003952 -0.10304872 -0.029337892 0.0097954525 -0.119053215 0.09751258 0.09518265
0.037005793 0.07842874 -0.046305425 0.11485792 -0.05307129 0.088606805 0.08960263 0.03268119
0.009210585 -0.07900342 0.035697978 -0.064783774 -0.14498912 0.053342167 0.09460163 -0.11485482
0.039822023 -0.070716254 0.07507323 0.07863815 -0.0477085 0.017784424 0.09625759 0.09697158
-0.0029157558 0.10264899 -0.052033372 0.08699796 0.14287767 -0.12835482 -0.031253375 -0.015796224
0.07339576 -0.073427476 -0.10099608 0.036559492 0.06716971 -0.03149465 0.055737354 -0.14644535
0.0939206 -0.012175212 -0.034961708 -0.074174024 0.08479195 -0.1504072 0.058731463 0.057047162
0.080058 -0.13970295 -0.0002946885 -0.041932546 0.15138365 0.037227627 -0.16623542 -0.12015113
0.032589216 -0.021400629 0.12765633 -0.10309593 -0.05346844 -0.03529679 0.12646799 0.082305014
-0.056845088 0.041740958 0.09460686 0.034244027 -0.020891111 0.17075454 0.025594883 -0.05261461
-0.0015668646 0.17121542 0.31375635 0.19637951 0.11408621 -0.041298024 0.106777556 -0.060457744
-0.032074608 0.027312059 0.07374918 0.1962224 0.061688054 0.090341635 0.18355112 0.079077356
0.10012966 -0.051643502 0.062244155 -0.04849894 0.05826717 0.041085497 0.19420014 0.17667176
-0.018403575 0.080962226 0.07134404 0.013306747 0.15359317 0.15098546 0.15939593 0.06355329
-0.057402477 0.016271556 0.09414134 0.0028184226 -0.052141022 0.1160779 -0.093824826 -0.008029894
0.11338697 0.09985116 0.010433752 0.08567922 0.036021408 0.00016191046 -0.04961018 0.11883903
0.030249998 -0.019139893 0.0334995 0.08383242 0.046575356 0.2972622 0.0141296275 -0.0041655665

rnn.weight_ih_l1 f4 [256, 64]
00000000: 591f 013e d5b9 963d eae3 423e 64dd 053d
00000010: 1f7f d9bd 7cf5 50bc c7a6 75bd bc03 1c3e
00000020: 514c 1ebd 7236 9fbd 180f 87be c331 5e3e
00000030: e4cb e3bd ef6a 0f3e 3aad f3ba ad79 c5ba
00000040: 1c92 bb3b 47d0 8abc 5ed0 cb3d e26d ff3d
00000050: 86f7 353e df84 58be 0eac fabc fab7 e6bc
00000060: 352c bb3d 4008 62bd 3326 10be f8c6 75bd
00000070: 705b 8b3b 3135 993d 0879 96bd 0708 02bc
00000080: 76e2 c6bd e3ba 06be ae9c da3d 2d3f 73bc
00000090: eaf5 35bd c0f6 31bd f09a e13c a419 ddbd
000000a0: 5a5b 813d 7a16 8e3d 0cfb 2b3d 7d22 15bc
000000b0: 316a 2bbd db4a 4ebd 7d98 a8bd f9c9 1f3c
000000c0: 9ce5 123d f727 18be 076a d43d 7185 463e
000000d0: a3a8 f23d 78cd 85bd ffcd 00be d6e1 a7bd
000000e0: 644f 263e dd67 883d d42a 3cbd c7bc 13bb
000000f0: 7ebe 943b ed06 2dbe d35e c43b c1b5 a03c
00000100: edb4 8f3d 3af8 223e ffd9 673e 1c66 373e
00000110: 9797 673d 5e8a a83c 570b 603e 992b e23d
00000120: e5b8 89bd 3d0c d8bb 2e42 bdbe 5375 113e
00000130: 1091 03bc 924f 1d3c 438d 4dbc 5139 12bd
00000140: 4f30 bcbd 1ed8 7fbd 9fa1 693d 885b 813e
00000150: 92e6 6c3e 608f 61be b182 753c 0cca 133e
00000160: 9580 4f3e c342 ccbd 16e2 9e3d 7ee1 6c3d
00000170: 70ce 7b3d 46e4 e73b 1151 2ebe d213 0a3e
00000180: ec2b b3bd c0bd a0bd 4485 c9bd 24b2 3abd
00000190: 5df1 d53d df79 60be 78b2 56bb f716 91bc
000001a0: db7a 413c d29e cb3c 414c e73a 9a20 0abc
000001b0: d6a9 ff3d ded7 6abc 0f30 bf3d 1320 96bc
000001c0: bc55 b9bd 0bc7 1abd 530c 7f3c a46b f63b
000001d0: 8790 3d3d af0c 2d3d 6ee6 713d 67cb b5bd
000001e0: a3de 0e3e da92 1e3e 8870 913d 8f6c c33d
000001f0: 7b6f eb3d 868b 95be f9c8 fabc f350 55be
00000200: d5e9 123e a900 0d3e f811 123e 855f 223e
00000210: 1539 833d cdee 07bd ceeb eb3c 964b 88bd
00000220: 2589 1c3d 382e 4b3d 2158 7ebe e858 743c
00000230: dd18 85bd d060 2c3d b282 27bc 8080 99bd
00000240: b63a c8bd a25d 2cbe 6ea7 bb3c 0c44 663e
00000250: 179f 5abc 87b4 eebd b855 f7bc 62d6 a83d
00000260: d1ac 493e a4ec da3c 3da7 213c b725 013e
00000270: 574a 893d 66d4 b8bc 5e1c 8bbd 2333 bf3c
00000280: 2659 b3bd a2c8 0cbe f058 be3c cd11 ddbd
00000290: 285f 1c3a fa26 25be a4f8 3f3d 396f d53a
000002a0: 3ddc 1d3e aace f0bd 068e 9dbc 5fe3 37bd
000002b0: 8187 773c c9d2 bebd 0b65 89bd bd5d 36bc
000002c0: a519 393d b6c7 c2bb 0884 b13d 6c1f 503e
000002d0: 195b 023e d8d7 0c3b 67c6 b6bc 7bc7 97bd
000002e0: de95 61bd 4535 ef3d a7df 113e 9c85 6a3d
000002f0: e41a 923d 7f97 d2bd 5b32 6ebd 9db1 15bc
00000300: b4dd 21bd cf44 1b3e 986b a83d e48c c63d
00000310: a546 6cbd d6d8 f2bb 93c9 1c3e d268 d03d
00000320: e7bb 493d 65c1 2cbe 4bf2 47be 1ab6 5f3c
00000330: d290 e4bc 8394 143e eb66 91bd a4d6 483c
00000340: 090e e1bd 500e 30be 9852 2b3e d148 543e
00000350: ab42 263e 3331 5dbd 0475 643c e352 f63d
00000360: d322 2c3e 69e7 3b3d dc33 14bd 92f7 debb
00000370: 897b 043d 832c 683c 9cf5 7dbe f19a e03d
00000380: 8183 eb3d 9db2 13bc 4ec0 eebb 3591 2bbd
00000390: f6a4 99bc b830 4fbe 3719 5c3e 3636 fcbd
000003a0: 6926 0e3e 4d3a a73b ad86 1fbd 2e4f 70bc
000003b0: f4ec 013d 8017 fc3c 4655 8abc c363 3ebd
000003c0: d1ee 883d b360 16bc e9d1 eabd 9484 213e
000003d0: 4e74 9ebd 1ee6 343d ebb8 253d e1ea 1fbe
000003e0: 2109 063e 4577 6abd 0ac9 943d ef0f 643e
000003f0: afd8 96bb 3241 febd 5d41 693d c522 52be
0.12609614 0.073596634 0.19032255 0.032681838 -0.106199495 -0.012753841 -0.059973504 0.152358
-0.038647 -0.077740565 -0.26378703 0.2169867 -0.111228734 0.14005636 -0.0018591054 -0.001506617
0.0057242047 -0.016945018 0.09951852 0.1247213 0.17770204 -0.21144436 -0.03059962 -0.028163899
0.09139291 -0.05518365 -0.14077072 -0.060004205 0.0042528436 0.074808486 -0.07347304 -0.007936484
-0.09711163 -0.13157229 0.106744155 -0.014846605 -0.044423975 -0.04344821 0.0275397 -0.10795906
0.06316252 0.06937881 0.041987464 -0.009102461 -0.04184932 -0.050364356 -0.0823221 0.009752744
0.035863504 -0.14858995 0.103717856 0.19386841 0.11848571 -0.06533331 -0.12578581 -0.08197372
0.16241223 0.06660435 -0.04593928 -0.002254294 0.00453931 -0.16897173 0.0059927492 0.019617917
0.07016931 0.15915003 0.22641753 0.17910045 0.05654105 0.020573791 0.21879326 0.11043472
-0.06724719 -0.006593256 -0.36964554 0.14204912 -0.008030191 0.009601491 -0.012545886 -0.035699192
-0.09188902 -0.062461965 0.0570389 0.25265145 0.2313483 -0.2202735 0.014984773 0.14432544
0.20263894 -0.09973671 0.07757966 0.057832234 0.06147617 0.007076773 -0.17023112 0.13484123
-0.08748612 -0.07848692 -0.098398715 -0.045580044 0.10446427 -0.2192149 -0.0032760184 -0.017711146
0.011809076 0.024856005 0.0017646627 -0.008430624 0.124835655 -0.014333693 0.09335338 -0.018325841
-0.09049556 -0.03778748 0.015566903 0.007520156 0.04628041 0.042248424 0.059057645 -0.088766865
0.13952117 0.15485707 0.07101542 0.0954219 0.114958726 -0.2920801 -0.03061341 -0.20831661
0.14347012 0.13769783 0.14264667 0.1585675 0.06407372 -0.033186723 0.028798964 -0.06655042
0.03821673 0.049604625 -0.24838306 0.014913775 -0.06498883 0.042084515 -0.010224031 -0.074952126
-0.09776823 -0.16832593 0.022906985 0.22486895 -0.013343594 -0.116555266 -0.030192241 0.08244015
0.1969483 0.026724167 0.009866533 0.12612043 0.06703632 -0.022562217 -0.0679252 0.023339814
-0.08757238 -0.1374841 0.023235768 -0.10794411 0.0005965107 -0.1612815 0.04686798 0.0016283757
0.15416045 -0.11758168 -0.019232761 -0.044894572 0.01510799 -0.09317548 -0.067087255 -0.011130747
0.045190472 -0.0059442176 0.08667761 0.20324486 0.12730063 0.0021490958 -0.022311402 -0.07411095
-0.055074565 0.11680082 0.14245473 0.057256326 0.07134035 -0.10282802 -0.05815349 -0.009136585
-0.039518073 0.15162967 0.08223647 0.096948415 -0.05768456 -0.0074111028 0.1531127 0.10176243
0.049251463 -0.16870649 -0.19526021 0.013654256 -0.027901087 0.14509778 -0.07099708 0.012258206
-0.10989005 -0.1719296 0.16730726 0.20730902 0.1623637 -0.054002 0.013943914 0.12027528
0.1681016 0.045874987 -0.03618227 -0.006804415 0.032344375 0.014170769 -0.24800724 0.10967053
0.11499692 -0.009014753 -0.007286108 -0.041886527 -0.018755417 -0.20233428 0.21493994 -0.123150274
0.1388184 0.0051033855 -0.038946796 -0.014667315 0.031720117 0.030772924 -0.016886365 -0.04648186
0.066861756 -0.009178328 -0.114658184 0.15773231 -0.07737027 0.04416477 0.040459555 -0.15616943
0.1308942 -0.05724265 0.07264908 0.22271703 -0.0046034674 -0.12414779 0.0569471 -0.20521076

rnn.weight_hh_l1 f4 [256, 64]
00000000: 4e98 ac3d bd1b 36bc e3aa c0bd 367e 873d
00000010: d66a a63d 7f6d e4bd dc36 58bc 75a7 ea3c
00000020: be10 e73d 6fb2 bf3d ea65 98bd 3ad3 0b3e
00000030: bf5b 6c3d 13dd 093d 4528 aa3d 1b9b f43c
00000040: 44c7 723d a093 913d 6f6f 0e3e b859 c63d
00000050: 20fb 05be 7b94 9e3d cc34 813d f82d f83d
00000060: d12f 9cbc 5889 c23d 5bcd 1e3d 2ca6 e7bd
00000070: 3f25 8d3d 00dd 7ebd f4a6 2bbd 49b0 eebd
00000080: 6c09 953d 58b6 c53d 7e3c d63a 44e5 b63c
00000090: 5426 70bd 1844 4abd 4f57 b0bd 02ef f93d
000000a0: a962 bd3d 789e a33b 949a 1dbc ed97 b4bd
000000b0: f3d3 6bbd 5947 edbd cf6a b03d 9b1c bbbc
000000c0: 8047 90bc c7ff 753d 18bd 4ebd 44ec 093e
000000d0: 33a0 0cbc b43f c8bd 58e6 0f3e 7384 dd3d
000000e0: 1c2f f9bd ef69 c93d 56b2 d9bd a165 13ba
000000f0: 21c0 8dbd 04f0 b8bd e7fc f53d 42e8 0dbc
00000100: ae1f 3f3d 8cba 7d3d 23f4 06be 9141 36bd
00000110: 426c 45bd 504e 00be e876 b73d 0ac9 01be
00000120: 9836 abbd 1e02 a43d 8629 503c 958b d03d
00000130: 99ee 52bc 4cb1 983d cf04 853d b46a ecbc
00000140: a7f3 32bc 0f27 b3bd 162a ca3d 2763 493d
00000150: f86b f4bd dbe2 173d e63c e03c 3477 1cbc
00000160: 5d93 28bd d042 54bd 1013 853c 3710 aabd
00000170: 415a d0bc d0e2 efbd b2d2 993d 6194 ab3d
00000180: e745 99bd 1384 6dbd 1c4c a83d b0d4 60bc
00000190: cff4 37bc 3806 bc3c f906 d2bd 168d d0bb
000001a0: ce38 c8bd 96b4 593d a41a da3d 69f5 2b3d
000001b0: cb43 cc3d ec77 993d 8bfe 04bd c7ef b3bd
000001c0: b513 47bd ee59 593d 62da 5d3c 7772 7b3b
000001d0: 0e86 0e3d 4dda 143e 87c3 f13d 554f bebb
000001e0: 7696 1dbc 0d19 a13d beb0 d6bb 3e51 f13d
000001f0: 9caf 02be e535 253d ad70 56bd efb3 fe3d
00000200: 10a9 873c 9fc6 c03d 1a2e 003e d195 cfbd
00000210: cc08 043b fde7 fcbd 8c77 74bd 80ca 9bbd
00000220: 29dd 55bd 293c 003e 3e8f a33d d715 2c3e
00000230: 22f8 89bd a665 203d 70e3 a2bd eeb7 0ebd
00000240: 36da 8f3d 7485 d43d 7f2f 243d d967 c83d
00000250: 6190 95bd aa9d 89bd b253 f83d 7f44 0abe
00000260: facd b6bd 80b6 d73b c74f 21bc d933 0abe
00000270: 5258 cfbd 62d8 c8bd 8973 2b3d 6f18 933d
00000280: 4bda 083e 371d a1bd 9c6a f73d f9d1 61bd
00000290: 4fe3 9c3c 7443 173c 9243 29bd 0922 b43d
000002a0: 27c0 e0bd 2c84 8b3d f93c 653d b575 e43d
000002b0: d002 e43d 5dd6 2dbe 0fa1 a83d 07c0 8d3d
000002c0: 5aaa 8d3d 5c6d 15be 8f43 323d bb5f 85bd
000002d0: 950b e53d 3d96 adbd d1d3 83bd e65c dabd
000002e0: c1ff 043e 2479 3dbd 76fd abbb 305b c03d
000002f0: 2f1b a23d 5689 933d 2ba4 e43c 2cb0 5cbc
00000300: 5ca0 e3bd 2e7c 86bd a988 29bb c40b 193c
00000310: 1130 833d 193a f9bd bbac 22bc 7e9e 293d
00000320: 2ffc 8dbd 941f 523d 5153 273d dfa8 e63c
00000330: 35a0 bbbd 855f 2c3d 1536 f8bd c911 f5bd
00000340: 663c aebd 8265 903c 62c5 bd3d df32 b2bd
00000350: 520b bfbd 611d 10be 3893 033e 9e00 fd3d
00000360: 0be3 583d c19a fdbd 00f3 dc3d 44fa acba
00000370: 8d2a a2bd 1cae 06be 4324 8f3d c0d4 adbd
00000380: 5d33 1d3c 87e8 a9bc e7aa da3d 3f04 f9bc
00000390: b55f 093d 8ccc c9ba 0343 1abb c658 9a3d
000003a0: dfc2 cbbd a73f b4bd ceab e33d 1442 0dbd
000003b0: c30c d53d 9a1d 0ebe 7a42 babd fd54 c43d
000003c0: e5e7 2cbd fc73 9e3d 5db4 98bd f34b f53d
000003d0: 3a3a 47bd 87ad 8fbd d6bc 193d 4aa8 80bd
000003e0: fa80 2ebd bdf1 02bd 655e bb3c 44e9 babd
000003f0: c821 1ebe 1e53 3e3a 2f04 c23d 6b1a 73bc
0.08427487 -0.011115012 -0.09407594 0.0661587 0.08125846 -0.11153697 -0.013196673 0.028644303
0.1128249 0.093602054 -0.074413136 0.13654795 0.057704683 0.0336581 0.08308462 0.029859116
0.059272066 0.07108235 0.13909696 0.09685081 -0.13084078 0.07743164 0.06308898 0.12118143
-0.01906577 0.094988525 0.03877006 -0.11310992 0.0689187 -0.06222248 -0.041907266 -0.116547175
0.07277188 0.0965392 0.0016344932 0.02232612 -0.058630303 -0.049381346 -0.08610403 0.1220379
0.092473336 0.004993256 -0.009619374 -0.0881804 -0.057575177 -0.11585874 0.08614122 -0.022840789
-0.017612219 0.06005838 -0.050473303 0.13469034 -0.008583116 -0.097777754 0.14052713 0.10816278
-0.121671885 0.09834658 -0.10629718 -0.0005622749 -0.06921411 -0.09030154 0.12011128 -0.008661332
0.04666107 0.061945483 -0.13179068 -0.044496123 -0.048198946 -0.12529874 0.089582264 -0.12674347
-0.08360022 0.08008216 0.012705212 0.10182873 -0.012874269 0.07455692 0.06495058 -0.028859474
-0.010922349 -0.08747684 0.098713085 0.049166825 -0.11934656 0.03708158 0.027372789 -0.009549905
-0.04115616 -0.05182153 0.016244441 -0.08303874 -0.025433661 -0.11713183 0.0751089 0.083779104
-0.07484036 -0.057987284 0.08217642 -0.013722584 -0.0112278005 0.022952184 -0.10255236 -0.006364475
-0.0977646 0.053150736 0.106496125 0.04198209 0.09973868 0.074935764 -0.032469314 -0.08785968
-0.04860278 0.05306428 0.013540836 0.0038367787 0.034795813 0.145364 0.11804872 -0.005807797
-0.009618392 0.07866106 -0.006551831 0.11783074 -0.12762302 0.0403346 -0.05235355 0.12436663
0.016560107 0.09412884 0.12517586 -0.10135997 0.0020146845 -0.12348936 -0.05968432 -0.07606983
-0.052212868 0.1252295 0.07986306 0.16805206 -0.06736781 0.03915944 -0.079535365 -0.034843378
0.07024042 0.10377017 0.04008436 0.09785432 -0.07302929 -0.06719525 0.121253386 -0.13502692
-0.08926006 0.006583035 -0.009845681 -0.13496341 -0.10124268 -0.09806897 0.04185823 0.07182395
0.13364522 -0.078669004 0.12080881 -0.055131886 0.019151358 0.009232391 -0.041324206 0.08795554
-0.1097415 0.06812319 0.05596635 0.11155263 0.11133349 -0.16976304 0.082338445 0.06921392
0.069172576 -0.14592499 0.04352146 -0.065124 0.1118385 -0.08475921 -0.06436885 -0.1066225
0.12988187 -0.046258107 -0.0052487208 0.09392393 0.07915341 0.07203929 0.027910313 -0.013469737
-0.111145705 -0.06566654 -0.002586881 0.009341184 0.06405652 -0.121692844 -0.009928877 0.041410916
-0.06932866 0.051299646 0.04085094 0.028156696 -0.091614164 0.042083282 -0.1211969 -0.11966283
-0.08507614 0.017626528 0.092661634 -0.08701109 -0.09328331 -0.14073707 0.12849128 0.12353633
0.0529509 -0.123830326 0.10788536 -0.0013197144 -0.07918272 -0.13152355 0.06989338 -0.084878445
0.0095947655 -0.02074076 0.10677128 -0.030397533 0.03353854 -0.0015396043 -0.0023538477 0.075364634
-0.09949278 -0.08801203 0.111167535 -0.034486845 0.10402825 -0.1387848 -0.09094711 0.09586523
-0.04221334 0.07736966 -0.074562766 0.11977377 -0.048639514 -0.070155196 0.037533604 -0.062820986
-0.04260347 -0.03196882 0.02287216 -0.09126523 -0.15442574 0.000726031 0.09473454 -0.0148378415

rnn.bias_ih_l1 f4 [256]
00000000: f145 c73d 24fb 84bd 32f6 033d ed34 9fbd
00000010: 9d9a ad3d 0b47 453e cd0d ea3d bf12 bebd
00000020: e6d7 153e b2be f2bc 7299 99bd 6d1d 173e
00000030: dfc1 4abd c336 2b3d c462 b93d ec53 e13d
00000040: 3343 45bc 978c 1a3e c034 b83d 45a4 3fbd
00000050: a676 a8bc e860 253e a2ab bc3d 5e4f 9b3d
00000060: 9cc5 053d 5c2f 42bd a949 aabb adeb e43b
00000070: c382 973c 4d3b 353d f2f9 1c3e 5f73 903d
00000080: 0a7c 953d 5e38 3e3e 9a4a 063e 366c 83bd
00000090: e135 883d 81e0 02bc 422c eebc bb0b 38bd
000000a0: b34f b43d fa98 703d ca61 9d3d 0ee0 933e
000000b0: 1c2b 993d d1a6 28bd 60ac 513c c61b 9fb9
000000c0: 4c05 113d dfdd fd3c 53c5 df3d f624 683d
000000d0: e769 a23d ab11 b13d c86a 3abd bd7a 713b
000000e0: 7e06 623d 20b5 183e 0f89 0f3e ece8 153d
000000f0: 919f e33d fde3 113e 5203 523d 8b45 093e
00000100: 90eb bebd 997d 15be 0131 823d ebc9 b53a
00000110: d30f 7f3d 33ce 14be 822d eb3d 44c1 fcbd
00000120: f102 a13d a46f 64bd 0bf5 7f3d 25fc 13be
00000130: 5a3a 32bd 9df8 8f3d 7995 1ebc 2baf 473d
00000140: 4871 973c d22c 793b 298f a1bd 41e7 a53d
00000150: f946 fdbd 1581 99bb fc9b 42bc 2730 08be
00000160: c8c2 69bd 257a 353d 68bc 61bd e49c d83c
00000170: e7f3 ab3d 1a7e b43d 91b6 eabc f814 e13d
00000180: cae6 ebbd 4371 aaba ded0 3bbe 52e1 343d
00000190: c6ed 5c3d c762 59bc f023 f2bd 14e5 9cbd
000001a0: d3db ea3d 66c0 2bbd 0966 ef3d 8480 cebd
000001b0: 3761 9fbd b816 4abe d082 55bc cf01 1fbe
000001c0: 952a 97bc 2b65 acbd 397c 833c 5c71 16bd
000001d0: 2ff8 aebd 12d3 b0bc 603a e63d 5c8d 79bd
000001e0: 0e1d 12be 5737 9f3a 013d 6ebb c804 62bd
000001f0: 1413 cbba ba4f 85bd c8cb babd 91f7 68bd
00000200: 6c65 163c 704e 373c f242 e03d 6d16 933d
00000210: 37b6 333d 529d dc3c 06fd 17be 5772 e33d
00000220: 4520 043e d901 1a3e aea2 6c3c fd75 e23c
00000230: 9727 b8bc d3b1 933d e10c 9c3d 351b ffbd
00000240: 778a 98bd 164a 183d cc50 c1bd 1f33 433d
00000250: c6fa 26bb ced8 a9bd c996 cdbd 6ac0 7abd
00000260: 940c d33c 55bc a63d 48f4 fa3d 5411 83bc
00000270: ba98 003e bbdf 2b3c 39f7 f03d 0787 96bd
00000280: 54d0 a73d 94d4 3a3d ee1b babd 0d92 6dbd
00000290: 4368 0cbe 8287 a73d 4c72 0a3c 3377 94bd
000002a0: 5196 d83d 0b5c ddbc 0a40 a2bd cf54 c73c
000002b0: 7e68 69bd 7ae7 693c 9235 4ebd ff9c 483c
000002c0: 8689 68bd 8188 4ebd 1bba d13c e2ff 3ebd
000002d0: 2179 1cbe 696d eabd d7a0 35bd 6595 053e
000002e0: 6df7 783c de81 2ebd a252 0abc 6dc2 c1bd
000002f0: f0cc 173c 4e6a aebd 4054 413d 4860 b9bd
00000300: cdbf 7b3d 0068 ba3c 6d91 dd3d 3ae3 fdbc
00000310: ccec d4bd 522a 4b3e a564 bd3c 1d5d 0f3e
00000320: 4598 2c3d dbab ea3c c11d 99bd a048 703e
00000330: 42d4 133e be1d 043d 95f7 ea3c 311f 9a3d
00000340: 575e 093a be31 49bd 78d6 a73c e251 81bd
00000350: 9731 22bd 114d 0c3e eb52 a73d 8312 9a3d
00000360: a11b 91bd 416d ea3d 6588 863d 6eb6 86bc
00000370: 13b0 983d 5b98 ab3b 99b0 9e3d b38e 4b3d
00000380: b18d 37bd 5485 6abc 140f bf3d 8046 bf3d
00000390: fb7e dc3c 5db7 8a3c 80d7 00bc acf8 883d
000003a0: bb3c 7c3b 3d09 e13d 3820 653c ff8c 8d3e
000003b0: 29af 2e3e 95fb 9e3d 05e2 e53d 4cfd 22bd
000003c0: bfcd 4a3d 652f b9bd 526b aebd 268e eabb
000003d0: 100c 703d ed03 21bd 8d40 81bd e2de a4bd
000003e0: a9e4 71bc 80ac 103e d225 973c 5337 34bd
000003f0: 2e3e c03d c01d b63d e4bb f2bc 4ec7 14bd
0.09730137 -0.06493214 0.032217212 -0.07773767 0.08476756 0.19265382 0.114284135 -0.09280919
0.1463314 -0.029631946 -0.074999705 0.14757319 -0.049501296 0.04180027 0.09052041 0.11002335
-0.012039947 0.15092693 0.08994436 -0.04678752 -0.020564388 0.16150248 0.09212424 0.075834975
0.032659158 -0.047408447 -0.0051967693 0.0069861026 0.01849497 0.044246007 0.15329722 0.07053255
0.07299049 0.1857619 0.13114396 -0.06417124 0.066509016 -0.007988096 -0.029073838 -0.044933062
0.08804264 0.05873964 0.076846674 0.28881878 0.074789256 -0.041174714 0.012797445 -0.00030347536
0.035405442 0.030989585 0.109263085 0.056675874 0.079303555 0.08645948 -0.04551199 0.003684684
0.055181973 0.14912844 0.14017127 0.036599085 0.11114419 0.14247127 0.051272698 0.13405435
-0.09322274 -0.14598693 0.06357003 0.001386938 0.06227095 -0.14531784 0.11483289 -0.1234155
0.07861889 -0.05577053 0.06248955 -0.14451654 -0.04351268 0.07029841 -0.009679192 0.048751038
0.018486634 0.00380211 -0.07888634 0.08100749 -0.123670526 -0.004684577 -0.01187801 -0.13299619
-0.057070524 0.04430594 -0.05511132 0.026441999 0.0839613 0.088131145 -0.028651508 0.109903276
-0.11518629 -0.0013003725 -0.18341395 0.044160195 0.053937696 -0.013268179 -0.11823261 -0.07660881
0.114677094 -0.041931532 0.116893835 -0.10083106 -0.07782214 -0.19735229 -0.013031676 -0.15528034
-0.018452922 -0.08417734 0.016050445 -0.0367292 -0.08543431 -0.021585021 0.11241603 -0.060925826
-0.14268896 0.001214723 -0.003635228 -0.05518034 -0.0015493357 -0.06509347 -0.091208994 -0.056876723
0.009179454 0.011188135 0.10950269 0.07182012 0.043874945 0.026930485 -0.14842615 0.11105793
0.12902935 0.15039767 0.014443083 0.027644152 -0.022479815 0.07211652 0.07619644 -0.12456361
-0.07448285 0.03718003 -0.09439239 0.047656175 -0.0025479062 -0.08293305 -0.100385256 -0.061218657
0.025762834 0.0814139 0.12253624 -0.015999474 0.1255826 0.010490353 0.11765904 -0.07349973
0.08194032 0.045612887 -0.090873584 -0.058000613 -0.13711648 0.08180143 0.008450102 -0.07249298
0.105755456 -0.027021429 -0.07922371 0.024332432 -0.056984417 0.01427638 -0.050344057 0.012244462
-0.056771778 -0.05042315 0.025601437 -0.046630748 -0.15280582 -0.114466496 -0.044342842 0.1304527
0.01519571 -0.04260432 -0.008442553 -0.09460912 0.0092651695 -0.0851637 0.047199488 -0.09051567
0.061462212 0.02275467 0.108187534 -0.03099214 -0.10396728 0.19840363 0.02311928 0.14000364
0.042137403 0.0286464 -0.07476378 0.23465204 0.14436439 0.032254927 0.02868251 0.075254805
0.0005240193 -0.049119703 0.020488009 -0.06314446 -0.039598074 0.13701274 0.08170112 0.07523062
-0.07085348 0.1144662 0.06568984 -0.016444411 0.074554585 0.005236668 0.07748527 0.049696635
-0.04481286 -0.014314014 0.09329048 0.09339619 0.026916018 0.016933138 -0.007863879 0.066880554
0.0038488347 0.1098809 0.013984732 0.27646634 0.17059006 0.07762829 0.112247504 -0.039792344
0.04951262 -0.09042243 -0.085165635 -0.0071580587 0.058605254 -0.039310385 -0.0631114 -0.08050324
-0.0147639895 0.14128304 0.018450651 -0.043998074 0.0938686 0.08892393 -0.029630609 -0.036322884

rnn.bias_hh_l1 f4 [256]
00000000: 5ac5 26bd d7e9 74bb 3571 ee3b f312 63bd
00000010: 1894 c03d 9815 473e 1ab2 44bd dadf 1f3d
00000020: 64f2 b33d a1fc ee3d b668 a93d ad37 453e
00000030: b83f e13d 5336 743d 38d2 19bc 4cdc bdbc
00000040: 31c7 55bc ad38 cd3d fef2 d53d 4f84 8e3d
00000050: 6580 0d3e 3d88 803c 5255 133d 3e95 e63d
00000060: 8935 5c3d 753c f63c ac9f c53d 4f24 51bd
00000070: e576 1cbd f0e9 db3d c673 913c 66a8 97bd
00000080: 571d a73d f856 323e 4c64 183c af90 023d
00000090: d1b4 553d 7c8b 2b3e 3e7b 203e 646b 013e
000000a0: 09c2 3bbd 8b9e e33c b176 49bd c291 573e
000000b0: 459a c03c 2c03 0f3e 7adb a03c 570b e33d
000000c0: 0da9 f83c 4294 1c3d 2229 52bd 82c8 123e
000000d0: fecd e0bc f047 0a3d f8b6 653d 38b5 733b
000000e0: 1e62 c6bb b72a 033e 218b fe3a d8ff 2abd
000000f0: a6b9 ad3d 2dcf 083e 1b15 0b3e ec47 4d3d
00000100: c968 703d 2c2b c1bd e08a e83d 755b ccbd
00000110: 0123 16bd 2ba2 39be 23cf 63bc 347d d7bd
00000120: 2d55 c73d 0c0f 8e3d adb4 783c d4f8 6bbd
00000130: fb68 6e3c 1b39 1bbe 6d86 fd3c 49bc c73d
00000140: e7d3 69bd 82af ee3c 5532 39bb f509 813d
00000150: c900 1abc 3138 84bd 10d8 b1bc d4cd b13d
00000160: cc93 fbbd 50fb 01be 3d7d 553c d6fc b13d
00000170: f104 9e3d e0a4 b53d c80e 07be d02c c9bd
00000180: b600 983d d4af 6c3b aa85 eebd fa56 a1bd
00000190: ba52 44bd 55f7 c5bd 9a41 39be 88d1 db3d
000001a0: 89e3 8cbc 2298 29be 46f9 473d 3afe c9bd
000001b0: daed 8ebb a8fd 863c 6945 62bd a2d9 6b3d
000001c0: 97d1 07be 6fa4 803d 516a 9d3d ad4a 703d
000001d0: 8a16 26bc 304b 233d ae54 b33d 5f6f ffbd
000001e0: 7e26 603d f881 2fbd 7365 fbbd fb69 07be
000001f0: 5151 49bd 3669 b43d 21a2 863d b1d1 9bbd
00000200: 191d 2dbd 97c4 9abd 0af2 d53d ace1 e13d
00000210: 455a 003d aa55 193d 6716 42bc c278 ae3c
00000220: 8873 013c 1a03 82bc 2984 9fbc dfcc 2bbe
00000230: 93b4 e53d 8f48 79bd d306 bebc 986e a6bc
00000240: 21ca 9bbd 8b62 213e 4689 853d 66e2 bc3d
00000250: bdeb 093e e8a8 d03d 7f33 233d 3894 ebbc
00000260: 2299 e83d 56f4 a43d 948f 6abd a9b5 13bd
00000270: cee1 93bd f913 783d 5827 c53c d01b 7ebd
00000280: aea6 b1bd 481d acbd 4804 833c 436f f83c
00000290: aa14 aa3d afdf cc3d 2cbe 5d3d 2b12 f33d
000002a0: bcb5 d8bc 91c1 233d 05ed 6dbc 63d5 b03c
000002b0: 0986 03be 81f1 4abb 0573 e3bd 8332 98bd
000002c0: ca9e 533c 078e 6bbc 29ef fa3d 74ec 263d
000002d0: c7ea 91bd 7542 48ba 1691 95bd b35c 143e
000002e0: c9e5 b93d fb35 84bb e31c d6bd 720b 163c
000002f0: baf5 bb3c ff95 f33c 18fb ffbd f600 673d
00000300: fb87 f4bc af7c 343d 2787 1e3b 5dc4 ce3c
00000310: 3887 5a3d 1468 7e3d c1b7 3bbd 1b94 30bc
00000320: 82ed ae3d ed66 8abc dff7 36bd 7c4a 413e
00000330: 3c33 db3b 0450 b0bb b73a 8d3d 587e 4e3d
00000340: 6a3d d23d fe56 3e3d 2bfd f23d 7520 203e
00000350: 5b3a e13c 6307 51bc a961 143e 7e8a 41bd
00000360: 160e 0d3e 5b75 843b c94c 88bd 60d1 54bd
00000370: cec7 f63d 875f 97bc 8a27 1d3e b853 caba
00000380: fdd9 8abd 173a 153d 8abf 5c3c 5410 90bd
00000390: 556f 213e 71cf 9e3d c072 46bc bfaa 353e
000003a0: 681f 01bd 119a 98bd a5e0 a4bd 3c3f 6a3e
000003b0: 469e 263e 1735 8b3d 8a83 073e 00ee 933d
000003c0: 3713 24bb e9c2 ee3d a67e 493d 3877 033e
000003d0: 0251 c93d 7402 183e a1ff ce3d 6c1d 863d
000003e0: d540 c73d 1582 6bbd 463d 803d 9fb4 163e
000003f0: 5ee4 b03d e20c b4bc 29ed 063e b158 9e3c
-0.040715553 -0.0037370825 0.007276679 -0.055437993 0.09403247 0.19441831 -0.048021413 0.03903184
0.08786467 0.11669279 0.08271925 0.1925952 0.109984815 0.05962212 -0.009388499 -0.023176335
-0.013047979 0.10020576 0.10446738 0.069588296 0.1381851 0.015689963 0.03597004 0.112589344
0.053761993 0.030058125 0.096495956 -0.051060017 -0.038199324 0.107379794 0.0177554 -0.07405166
0.08159893 0.17415988 0.009301256 0.031876262 0.052174393 0.16752428 0.15672013 0.12638623
-0.045839343 0.02778556 -0.04918546 0.21051696 0.023511061 0.13966054 0.019635905 0.11086147
0.030354047 0.038227327 -0.05130876 0.143343 -0.027441975 0.03376001 0.056082696 0.0037186872
-0.006054177 0.12809263 0.0019420126 -0.041747898 0.08482675 0.13360281 0.1358227 0.05011742
0.05869368 -0.094320625 0.11354613 -0.099783815 -0.036654476 -0.18128268 -0.013904366 -0.105219275
0.09733043 0.06936464 0.015179795 -0.057610348 0.0145513965 -0.15158503 0.030947888 0.097527094
-0.05708685 0.029136423 -0.002825876 0.06300727 -0.009399601 -0.0645603 -0.021709472 0.08681837
-0.122840494 -0.12693524 0.013030347 0.08690803 0.07715786 0.08869338 -0.13189232 -0.098230004
0.074220106 0.0036115544 -0.11646588 -0.078779176 -0.047930457 -0.096663155 -0.18091431 0.10733324
-0.017198341 -0.1656194 0.04882171 -0.09862943 -0.00436185 0.016478375 -0.055241976 0.057580598
-0.13263546 0.06281363 0.07686294 0.058664966 -0.01013721 0.039866626 0.08756386 -0.12472414
0.05472421 -0.042848557 -0.12275209 -0.13224022 -0.049149815 0.0880913 0.065738924 -0.07608355
-0.042264078 -0.07557028 0.10446556 0.110293716 0.031336088 0.03743521 -0.011846161 0.021297816
0.00790108 -0.01587062 -0.019472199 -0.16777371 0.112160824 -0.060860213 -0.023196613 -0.020316407
-0.076069124 0.15760247 0.065203235 0.092228696 0.13468833 0.10188466 0.039844032 -0.0287572
0.11357333 0.08054416 -0.057265833 -0.036061917 -0.07220803 0.060565922 0.024066612 -0.062038243
-0.0867437 -0.084040225 0.015993252 0.030326491 0.083047226 0.10003602 0.05413644 0.118687
-0.026453845 0.03997952 -0.014521842 0.021586126 -0.12844099 -0.0030966701 -0.111059226 -0.07431509
0.012916276 -0.014377124 0.122526474 0.040752843 -0.07124858 -0.00076392974 -0.073030636 0.14488487
0.09077031 -0.0040347553 -0.104547285 0.009158002 0.02294432 0.02973461 -0.12499064 0.0563974
-0.029849997 0.04406422 0.0024189444 0.025240118 0.05335161 0.062110975 -0.04582954 -0.010777499
0.08541395 -0.016894782 -0.044669982 0.1887607 0.006689457 -0.0053806324 0.068959646 0.05041346
0.1026562 0.04646968 0.11864694 0.15637381 0.027493646 -0.012758109 0.1449038 -0.047251217
0.13774905 0.00404231 -0.066552706 -0.051957488 0.120498285 -0.018478168 0.15347114 -0.0015436327
-0.06779859 0.036432352 0.013473401 -0.07034364 0.15765126 0.0775441 -0.0121123195 0.17740916
-0.031524092 -0.07451261 -0.0805066 0.22875684 0.16271314 0.067972355 0.13233772 0.07223129
-0.0025035867 0.1165827 0.049193047 0.12838447 0.09829904 0.14844686 0.10107351 0.065485805
0.097291626 -0.057497103 0.06261687 0.14717339 0.086373076 -0.0219788 0.13176407 0.0193294
