9988.HK_stock_model.pth (torch, 205335 bytes, 9 tensors)

rnn.weight_ih_l0 f4 [256, 1]
000000 f7 36 83 3d 6b 80 84 3e e5 22 fe bd f1 5a 38 3e
       0.06406968 0.25879225 -0.12408999 0.18003441
000010 56 62 cd 3d d6 d5 b2 bd b9 43 e1 3d 56 82 54 3e
       0.10028522 -0.08732192 0.10999245 0.20752844
000020 e3 b2 63 3e 38 fe 51 3e 64 a2 1a 3d dc 9b 52 3e
       0.22236209 0.20507133 0.037752524 0.20567268
000030 01 64 d5 3d d2 6d 6e 3e 21 69 42 3e 39 3d ff 3c
       0.10419465 0.2328408 0.18985416 0.031157123
000040 3d d3 07 3e 12 c9 e0 3d 42 69 42 3e 17 8c 1a 3d
       0.13264175 0.10975851 0.18985465 0.037731256
000050 12 0e a6 39 8c 71 a3 3d e8 d3 f2 bc 91 75 e7 3d
       0.0003167247 0.07980642 -0.02964206 0.11301721
000060 de 57 d3 3b ff ba 68 3e 46 8b 90 3e 59 d6 f6 3d
       0.0064496836 0.22727583 0.28231257 0.12052602
000070 82 0a ec 3d 4b 74 a2 3d 2c b7 58 3e 32 07 3e 38
       0.11525442 0.079323374 0.21163625 4.530623e-05
000080 05 3c 23 3c 5a a6 3e 3e e3 03 df bd f8 b5 b4 3c
       0.00996304 0.18618146 -0.10889413 0.022059426
000090 43 c1 24 3e 12 45 33 3c ac 4d 45 bc f1 47 2b 3d
       0.16089348 0.010941761 -0.012042444 0.041816656
0000a0 cf d8 34 3e b6 4a 24 3e f2 44 22 bd b6 8c 5a 3e
       0.17660831 0.16044125 -0.039616533 0.2134274
0000b0 ce cb 60 3e f5 21 d6 3d e2 e4 69 3e e6 e0 0c 3e
       0.21952745 0.104556955 0.22841218 0.13757667
0000c0 8e b4 87 3e 8a 6f be 3d af 37 b4 3d 36 f9 02 be
       0.2650494 0.09298618 0.08799683 -0.12790379
0000d0 6d 1f 38 3d 97 fd ce 3d 93 19 11 3e 5b 4b 74 3d
       0.044951845 0.10106962 0.14169912 0.059642177
0000e0 9f cd 51 3e ce b5 07 3e 50 7a 7e 3e 72 c5 11 3e
       0.20488594 0.13252947 0.24851346 0.14235476
0000f0 d2 15 81 3e 79 9c d8 3d 20 c8 1a 3e a0 d1 28 3d
       0.2521196 0.1057672 0.15115404 0.04121554
000100 1d 7d ef 3c 25 74 93 3d 96 63 6b be 86 37 3b 3e
       0.029234463 0.07199887 -0.22987208 0.182829
000110 af 03 55 3e b2 ac 18 3c a1 97 a3 bc 81 90 0d 3d
       0.20802186 0.0093185175 -0.019969763 0.034561638
000120 27 d3 3d 3e 2f 12 ac bc cf 26 c3 3b bc 6b bf 3d
       0.1853758 -0.021004764 0.005955554 0.093467206
000130 b0 cd 56 bd 63 89 0b 3d 2a ca 64 39 1c e6 9d 3c
       -0.052442253 0.03406657 0.00021819086 0.019274764
000140 c3 5a b8 bc 30 11 38 3e 06 e8 59 3d 2f 21 28 3e
       -0.022504216 0.17975307 0.05319979 0.16418909
000150 13 06 af bd bf f1 8e bc f9 4f eb bd 3a f3 fc bc
       -0.085460804 -0.017449258 -0.11489863 -0.030877698
000160 1b f2 6b 3d c8 11 41 3e 57 ae 6b 3d 63 e6 0d 3e
       0.057603937 0.1885444 0.05753931 0.13857417
000170 75 a2 9e 3d f6 4b 55 3c 00 ca 39 3e 02 1f 91 3c
       0.0774583 0.013018599 0.18143463 0.017714981
000180 6a cb 3d 3e 17 e0 ea bd 92 bb 56 be da fe 5e bd
       0.18534628 -0.11468523 -0.2096999 -0.054442264
000190 ea 3e 3d 3e e6 91 9a bd 29 27 21 3d 6f 1c 1f 3e
       0.18481031 -0.07547359 0.039343987 0.1553819
0001a0 95 be 0c 3d 05 2a 41 3e e3 db 92 bc b1 b0 6b 3e
       0.03436144 0.18863685 -0.017927116 0.23016621
0001b0 db be 96 3d 12 0e 48 bd 40 25 36 3e 9b 80 dd 3d
       0.073606215 -0.048841543 0.17787647 0.10815545
0001c0 f8 9e 1c 3e ba 42 d9 bc 1a 0c 25 3e 33 bd a7 bd
       0.15295017 -0.026521076 0.16117898 -0.08190384
0001d0 64 85 4d 3d af ef 47 3d b3 c3 0f 3e f7 df 98 3d
       0.05017604 0.048812564 0.14039497 0.07464593
0001e0 53 d2 9f 3d ac 76 02 3e 02 ef a9 bc 53 37 a9 3c
       0.07803788 0.12740582 -0.02074385 0.020656263
0001f0 15 33 36 3e a1 e1 46 bd 60 c6 35 3e 00 77 97 3a
       0.17792924 -0.04855502 0.17751455 0.001155585
000200 d2 68 da 3c 02 38 48 3e fa 39 fb bd 71 0f 1f 3c
       0.02666131 0.19552615 -0.122669175 0.009708271
000210 55 43 22 3e f5 08 c5 bd 73 bd 53 3e 8e 9a f7 bd
       0.15845998 -0.09620849 0.20677738 -0.12090026
000220 db f6 da bd bd c3 01 bc 6a 5b 2e bd 28 a6 22 3e
       -0.10691615 -0.007920203 -0.042567648 0.15883696
000230 2f 24 2d 3e d2 47 32 be c7 d4 e8 bd 6b 17 6a be
       0.16908334 -0.1741021 -0.11368709 -0.22860496
000240 b0 83 96 bb 8b e8 84 bd 66 2c 00 3e d3 77 1a 3e
       -0.004593335 -0.064896666 0.12516937 0.15084772
000250 40 90 1f 3e a6 7e ee 3d 90 dc ad bd 11 89 30 be
       0.15582371 0.1164525 -0.084893346 -0.17239787
000260 45 de 76 3d 6f f2 80 be c6 91 6d 3e 55 c5 7e 3d
       0.060270566 -0.25184962 0.2320014 0.06219991
000270 d5 d0 3a be 24 94 c5 3c 4c d7 58 be a5 43 32 3c
       -0.18243726 0.02411849 -0.21175879 0.0108803855
000280 4f ff 2e 3e 23 00 61 3e f5 0c 30 3e e1 2c 23 3e
       0.1708958 0.21972708 0.17192443 0.15935089
000290 a9 b3 8c 3e f3 fa a3 3b 8e 93 3a bc 0c ae 41 be
       0.2748082 0.0050042807 -0.011387719 -0.1891405
0002a0 13 c8 7f 3e d1 05 0c be 88 9a 0c 3e 22 03 15 3e
       0.24978666 -0.13674094 0.13730824 0.14551976
0002b0 64 66 c9 3d 1d bf 57 be fd 04 3e be 6f f7 3d 3e
       0.098339826 -0.21068998 -0.1855659 0.1855142
0002c0 08 9b 76 3e b7 4f 5a 3e 01 f1 69 be b2 ed 06 3e
       0.24082577 0.21319471 -0.22845842 0.13176611
0002d0 20 73 18 3d 41 55 3e 3b 58 d4 3b be 18 61 6a 3e
       0.037219167 0.0029042515 -0.18342721 0.22888601
0002e0 b3 7c 55 3e 18 28 66 be e5 ff 50 be 9c 72 6b 3e
       0.2084835 -0.22476232 -0.20410116 0.22992939
0002f0 83 a2 0b be 97 f5 47 3e b1 20 2e be 8c 4b 50 be
       -0.13636212 0.19527279 -0.17004658 -0.20341319
000300 fc d2 51 bd 17 12 02 3e e2 a8 18 3d 86 15 54 3e
       -0.0512266 0.12702213 0.037270434 0.20711336
000310 4b 06 15 3e 16 d0 c9 bc 7c d4 28 3e e1 07 ba 3d
       0.14553182 -0.024635356 0.16487306 0.09083534
000320 32 0d a3 3d a6 ee de 3d 19 07 09 3d f0 0f 67 3d
       0.07961501 0.10885362 0.033454034 0.056411684
000330 8e 0d 27 3e 4a e8 7d 3e e8 ae 69 3e 85 49 e8 3c
       0.16313764 0.24795642 0.22820628 0.02835537
000340 2a 13 89 3d cc 20 5b 3d 30 c7 53 3e 42 4e 48 3e
       0.066931084 0.053498074 0.20681453 0.19561103
000350 08 9d 83 bd 41 93 b4 3d db 66 91 bd 80 6a 86 3e
       -0.06426436 0.08817149 -0.07099696 0.26253128
000360 12 96 5e 3b 84 6b 7d 3e e7 d5 a4 3d 3e e6 94 3c
       0.003396396 0.24748045 0.08048611 0.018176194
000370 84 1f 7e 3e 6b 19 9e 3d 80 d6 b2 3c a1 da 32 3e
       0.2481671 0.07719692 0.021830797 0.17466213
000380 96 22 a2 3d 8a b9 f0 3c fc e4 39 be b9 b3 28 3e
       0.07916753 0.029385347 -0.18153757 0.16474809
000390 52 fb b9 3d 33 44 b8 3d 9f 11 92 3d 14 e0 86 3d
       0.09081139 0.08997383 0.07132267 0.06585708
0003a0 16 06 41 3e e4 8e 89 3d 3d ac 01 bc 12 81 17 3e
       0.18849978 0.06716707 -0.0079146 0.1479533
0003b0 32 99 34 3e a8 45 ec 3d 00 e7 69 bb 0a 12 04 3e
       0.17636564 0.115367234 -0.0035690665 0.12897506
0003c0 c5 7b 2e 3e c4 f5 5a 3e f1 76 80 3e 76 9d 44 bd
       0.17039402 0.21382815 0.25090745 -0.04800173
0003d0 ed 84 57 3b 22 c2 b7 bc db 6f bb 3d 40 1d 6f 3e
       0.0032885626 -0.022431437 0.09152194 0.23351002
0003e0 41 e8 54 3d fb 4e 1f 3e 02 a6 26 3d 39 33 c7 3d
       0.051979307 0.15557472 0.04068566 0.09726567
0003f0 d0 dd e5 3d 56 63 05 3e 84 4c 86 3e 9e de 5c 3e
       0.11223948 0.13026175 0.26230252 0.21569297

rnn.weight_hh_l0 f4 [256, 64]
000000 12 42 22 3e 69 28 08 be 91 f1 15 3d 94 7a 60 bc
       0.15845516 -0.13296665 0.03660733 -0.0137011
000010 8e 3e 15 be bb be 4c be d1 40 90 3c e4 5c 27 3e
       -0.14574644 -0.19994633 0.017609032 0.16344029
000020 a6 50 63 3e 83 a7 31 3e 54 07 ac bd 26 a2 10 be
       0.22198734 0.17349057 -0.08399835 -0.14124355
000030 f1 aa 14 be 2e aa 45 3d 61 66 d9 3d e6 b1 8d 3d
       -0.14518334 0.048258 0.1061523 0.06918697
000040 89 69 0b be c0 1c 24 3e 81 f4 1a 3d 42 d3 7f bd
       -0.13614477 0.16026592 0.037830833 -0.06245733
000050 b6 2e 30 3e 4a 61 92 bd cc d8 50 be 7e 60 b3 bc
       0.17205319 -0.07147463 -0.20395201 -0.021896597
000060 30 c5 5a be 48 61 84 3d b3 45 e3 bd 92 af 6e be
       -0.21364284 0.064638674 -0.110972784 -0.23309162
000070 f2 b6 f4 3d 81 3f f1 bd b9 a1 e3 3d 22 6a ac 3d
       0.119489565 -0.117796905 0.111148305 0.08418681
000080 d4 e4 4f be 22 76 88 3d 56 93 19 3d 9d c7 d7 bd
       -0.20302135 0.06663157 0.037494026 -0.1053612
000090 ea 56 8b bd 84 a9 9d bd 84 ad 98 bc e5 b0 96 3d
       -0.06803687 -0.07698348 -0.018637426 0.07357959
0000a0 55 37 2a be 02 15 90 3b 0f e6 85 bd 5b ac 06 be
       -0.1662267 0.0043970356 -0.06538021 -0.13151686
0000b0 5c ea 3b be 3b 31 bc 3d 2b 55 45 3e c9 69 5f bd
       -0.1835112 0.091890775 0.1927077 -0.054544244
0000c0 6c 20 fd 3c 38 e4 14 be 6c 7b 33 3e d4 b0 20 3d
       0.030899249 -0.14540184 0.1752755 0.039231136
0000d0 29 dd 1e bd 59 79 33 be bb 45 20 3e 8a 91 ae bd
       -0.038785134 -0.17526759 0.156516 -0.08523853
0000e0 bb f1 56 be d6 2a bf bc 23 98 b3 3d 82 10 d0 bd
       -0.2099065 -0.023335855 0.08769252 -0.101593986
0000f0 18 e0 ab 3d c4 90 a4 bb 80 44 d5 3d bf d7 53 3e
       0.08392352 -0.00502214 0.10413456 0.2068777
000100 78 b5 4b be b9 21 1c bd 16 0e d1 bb 5e 95 86 3c
       -0.19893444 -0.038118098 -0.006379853 0.016428646
000110 28 93 75 bd 7b 5b 9b 3d 93 df 39 3e 1d b5 38 be
       -0.059954792 0.07585808 0.18151693 -0.18037839
000120 4d a4 2f be d1 7e a9 bc da 64 33 3e f3 ac 46 bd
       -0.1715252 -0.020690354 0.1751894 -0.04850478
000130 73 4a 0f bd 68 d2 1f be d4 60 30 3c 89 19 97 3c
       -0.03498311 -0.15607607 0.010765273 0.018444793
000140 73 ef 11 3e 20 51 15 3d 7f 5c 52 bc ac 44 a1 3d
       0.14251499 0.03645432 -0.012839436 0.07874426
000150 f3 e7 1c be 4b 0f d8 3d a0 08 1f 3d c2 62 f5 bd
       -0.15322857 0.10549792 0.038826585 -0.11981727
000160 0d d9 3b 3d 44 be 53 3c 3d e7 00 3d 5b 87 db 3d
       0.045861293 0.012923781 0.031470526 0.107191764
000170 09 23 15 be 4b 26 06 3e a1 d9 39 be 39 79 b1 bc
       -0.14564146 0.13100545 -0.18149425 -0.021664249
000180 f6 fa 3c 3e d8 79 22 3e 83 11 49 3c a6 fe 62 bd
       0.18455109 0.15866792 0.0122722415 -0.055418633
000190 d5 37 30 ba a2 b7 b7 3b 90 bf 76 bd 34 2e 32 be
       -0.0006722187 0.0056066075 -0.060241282 -0.17400438
0001a0 b9 17 11 3e 69 67 4e bc 6f b3 46 3e 0f e4 2e 3e
       0.14169206 -0.012597897 0.19404386 0.17079185
0001b0 e0 fb 05 bd c7 1b ca bc a4 2a 7a bb a2 90 18 3d
       -0.03271091 -0.024671448 -0.0038172388 0.037247308
0001c0 02 ee 09 3d 45 51 db 3c 74 10 bc 3a ad 29 0f be
       0.033674248 0.02677215 0.0014348165 -0.13980742
0001d0 48 02 8c 3d 2f 1d bf 3d ae 36 22 3c 64 36 dd 3d
       0.068363726 0.09331738 0.009900732 0.1080139
0001e0 37 03 57 3c 69 27 b0 bb f5 f2 4c 3d 55 be 6a 3c
       0.013123325 -0.005375792 0.05003639 0.014327605
0001f0 6c 3c 01 be 38 40 1f 3d a8 2a bc bd e3 03 1e bd
       -0.12620705 0.038879603 -0.091878235 -0.038577925
000200 a6 76 d4 bd 38 b2 60 3d ad ef 50 bd e4 ed 24 bc
       -0.10374193 0.054857463 -0.051009823 -0.010066483
000210 49 3e 1f bd fb ca c6 bc d3 d3 13 3d 8d 19 e6 bd
       -0.03887776 -0.02426671 0.036090683 -0.11235342
000220 3b bb 16 bd 21 f2 ed bc 79 6e ad bd 82 bd 78 bc
       -0.03679965 -0.02904612 -0.084683366 -0.015181901
000230 7c 06 75 3b 77 a8 ba bd 5d 13 9b bc 59 d4 da bc
       0.0037387898 -0.09114163 -0.018930132 -0.026712583
000240 a9 ea 02 3e d4 36 b2 3c 64 8b a4 3d 6c 59 ac bd
       0.12784828 0.02175466 0.08034399 -0.08415493
000250 c1 65 ba bc ef e2 a9 3d be 99 33 bd 40 7f d2 bd
       -0.022753598 0.08295237 -0.04384779 -0.10278177
000260 a2 dd a9 3d 0c 11 a5 bd 0b 3e 02 be 31 ff 04 3e
       0.08294226 -0.08059892 -0.1271898 0.12987973
000270 6c 1f e8 3c 56 4e 0e bd f2 d2 d3 bd 35 8c 02 bd
       0.028335296 -0.034742676 -0.10342969 -0.031871993
000280 12 a9 b3 bd 68 4a 2e 3d e2 64 ba bc 90 ba d1 ba
       -0.08772482 0.042551428 -0.022753183 -0.0016001035
000290 2c 24 19 be 9b 7c 9d bd 1c 81 97 bd a0 d8 06 3d
       -0.14955205 -0.07689782 -0.073976725 0.032921433
0002a0 3c cb 1b be 4e a4 a5 3c 14 5d 63 3d 59 4b b2 3b
       -0.15214247 0.020219948 0.055508688 0.005441111
0002b0 78 61 ad 3d f8 b9 77 3d 75 a9 ad 3d 2b c2 aa bd
       0.08465856 0.060480088 0.08479587 -0.08337816
0002c0 13 98 af 3d f4 bd 1b bd 28 88 5e bd c3 ca f1 3c
       0.08573928 -0.03802295 -0.054329067 0.02951563
0002d0 c0 ee 08 3d 5a 5f 9e bd 26 dd 36 bd 50 1c fc bd
       0.033430815 -0.077330306 -0.044644497 -0.12310088
0002e0 0a 1e 82 bd d1 57 4b bd 77 b7 2e bd 7d a1 b5 bc
       -0.06353386 -0.049644295 -0.042655434 -0.02217173
0002f0 01 5c 00 3e 88 42 38 3e 33 a6 a6 3c 01 f4 08 3e
       0.12535097 0.1799413 0.020342922 0.1337433
000300 fd 70 01 3b 40 50 ef 3d a8 ee 71 be fd b5 fc bc
       0.0019751184 0.11685228 -0.23626196 -0.030848498
000310 32 20 ce bd 1d 3d 7c 3d 52 ec 0a 3e ef 1e d8 bc
       -0.100647345 0.06158172 0.13566712 -0.026381938
000320 be fd 25 3c 37 f7 a7 bd d0 40 85 3c d1 a5 7c bc
       0.010131298 -0.08201449 0.016266257 -0.015420393
000330 e2 6b e6 3d aa dc 7a 3d a1 5f 03 bd 4b 66 d3 bd
       0.11251046 0.061245598 -0.03207362 -0.10322245
000340 67 b9 12 be 76 2d 9a 3d a6 5e fc bd 38 c4 97 3d
       -0.14328538 0.07528202 -0.1232274 0.07410473
000350 11 29 a8 3d a5 3e 11 bd 6b d6 18 be 07 5c c1 3d
       0.08210958 -0.035460133 -0.14925544 0.09441381
000360 50 c1 05 be db c8 7e 3d 17 03 12 3d d4 4a 09 bd
       -0.13062024 0.06220327 0.035647478 -0.033518627
000370 b6 61 4f bb 1a eb 9e 3d 21 f2 01 be b6 a7 bc 3d
       -0.0031643934 0.07759686 -0.12690021 0.09211676
000380 aa 10 cf bc af bc 80 3d 3b 7c af 3d 5a df 7a 3e
       -0.0252765 0.062859885 0.08568617 0.24499264
000390 dc da f5 bc af 9e ea bc 6b 89 fa bd 40 16 8a bd
       -0.030011587 -0.02864012 -0.12233242 -0.06742525
0003a0 39 6e b8 3d 4a 4d 8f bd 66 7b 6c 3b 3e f7 89 bc
       0.09005398 -0.069971636 0.0036084293 -0.016841527
0003b0 85 1e 45 3d a6 2a 17 3d c6 22 45 3d f9 31 99 3d
       0.04812481 0.036905907 0.048128866 0.07480235
0003c0 0b f7 e1 3c 13 db 13 3e 96 2f 0b bd 93 21 11 3e
       0.02758362 0.14439039 -0.03398093 0.14172964
0003d0 dd bf eb 3c b7 79 28 bc b7 8b 87 bd 92 07 08 3d
       0.028778011 -0.010282925 -0.06618445 0.033210345
0003e0 8c d1 5d bc ab 78 91 bd 94 07 98 3d cf e2 40 3e
       -0.013538729 -0.07103094 0.074233204 0.1883652
0003f0 fe d5 ca bd 86 6e d6 3c a3 ce 0e 3c b1 68 ac 3d
       -0.09904097 0.026175749 0.008716258 0.08418406

rnn.bias_ih_l0 f4 [256]
000000 11 d2 94 bd 77 38 44 3e 8b 05 dd 3c 39 84 15 3e
       -0.072666295 0.19162165 0.026980182 0.1460122
000010 a7 23 e4 3d fb a2 fc 3d 75 b0 17 3e 9e be 3d bd
       0.11139613 0.123357736 0.14813407 -0.046324365
000020 2a 34 58 bd e5 70 06 3e 2b 26 70 3d f7 d1 bf bc
       -0.052784123 0.13129003 0.05863015 -0.023415549
000030 8e e7 f3 3d 8d f3 36 bd 3c 15 99 bd 5d 9d d3 bc
       0.119094 -0.044665862 -0.07474753 -0.025831873
000040 b4 7a ed 3d 1c 78 0f 3d 0e 66 67 3d 98 ed 22 3e
       0.115956694 0.035026655 0.05649381 0.15910947
000050 65 6c 01 bc 57 f7 8a 3d 13 68 84 3d c4 53 d8 3d
       -0.007899378 0.067854576 0.06465163 0.10562852
000060 82 c4 02 3d 11 05 77 3e 6e bc 92 3e b8 6e d1 bb
       0.031925686 0.24123026 0.28659385 -0.0063913725
000070 75 4e 07 3d db 64 cb 3d ac 71 de 3d 15 8c ef 3c
       0.033033807 0.09931346 0.10861525 0.029241601
000080 e4 37 7e 3d e4 85 6e 3e 1c 23 7f bb 8f b9 24 3e
       0.06206502 0.23293263 -0.003893084 0.1608641
000090 d3 fe 67 3d 57 11 d3 3d fa 3d 71 3d 0b c2 58 3d
       0.056639504 0.10306042 0.058896996 0.05291943
0000a0 5c 90 28 3e cd 12 45 bd 46 a7 aa bd 18 58 41 3e
       0.16461319 -0.048113633 -0.08332686 0.18881261
0000b0 94 75 97 bd c8 6f 0a 3e 73 59 d1 3d 9c 8a 53 3d
       -0.07395473 0.13519204 0.10222139 0.05164586
0000c0 6c 02 b7 3d 76 65 94 3d 82 0e 26 3e 64 2b 2b 3e
       0.08936009 0.07245915 0.16216472 0.16715771
0000d0 74 c9 c6 3c 98 05 a3 3c 50 71 eb 3d c2 64 60 3e
       0.024265982 0.019900128 0.11496222 0.21913436
0000e0 4a 9b 00 bc 59 bb 13 3e 79 a5 48 3d 15 af af 3e
       -0.007849524 0.14426936 0.048985932 0.34313264
0000f0 09 3a 59 bc a2 25 c2 3d 61 5c 12 3e f4 28 80 bc
       -0.013258466 0.09479834 0.14293052 -0.015644528
000100 88 dc 48 be b5 88 89 3d d7 59 5d bc c7 68 83 3d
       -0.19615376 0.06715528 -0.013510189 0.06416469
000110 04 8d ec 3d 76 2b 55 3c ed c9 65 3d fa 6a 46 3d
       0.11550334 0.01301085 0.056100775 0.048441865
000120 69 c1 d3 bd 11 c1 03 be 2f dd 6f 3d 19 9e a6 3d
       -0.103396244 -0.12866618 0.058560546 0.081356235
000130 76 e3 d9 bd 76 ab a3 bc d1 2f fe 3d c2 b5 a3 bb
       -0.10639088 -0.01997922 0.12411464 -0.0049960325
000140 b2 e9 b2 bc 86 08 16 3d 5c b7 14 bd f6 57 b0 bd
       -0.02183995 0.036629222 -0.036307678 -0.08610527
000150 27 fd 0c 3d 62 0f 66 3d 35 86 52 3d 15 f7 93 3d
       0.034421112 0.056167014 0.05139752 0.072248615
000160 8b 3f 44 bc 7f 66 02 3e 36 95 a7 bd 48 d1 1b be
       -0.01197804 0.12734412 -0.081827566 -0.15216553
000170 5c de d5 bb 02 3e 12 be 64 9d 81 3b 99 fc 9d 3d
       -0.0065267514 -0.14281467 0.00395553 0.07714195
000180 5a 69 0b 3d 8b 24 c8 bc 01 3b d1 bb 68 09 98 bd
       0.034036018 -0.024431488 -0.0063852076 -0.07423669
000190 ab 75 6f bb 6a c2 79 bd 05 0d 23 be 90 a0 c9 bc
       -0.0036538641 -0.060976423 -0.15922935 -0.024612695
0001a0 c2 cf d6 3d ca 74 98 3d 36 74 64 bc 13 27 28 be
       0.104888454 0.07444151 -0.0139437225 -0.16421156
0001b0 db fb 94 bd 53 f3 02 3d 52 4e 6a bc 1a d0 77 3a
       -0.072746 0.031970333 -0.0143009 0.0009453312
0001c0 4f 40 92 bd 0f b2 93 bd 9d da c6 bc f1 68 63 bd
       -0.07141172 -0.07211696 -0.024274165 -0.05552
0001d0 85 05 b7 3d d6 d0 4e bd c5 74 c7 bd 52 e9 62 bd
       0.089366 -0.05049213 -0.09739069 -0.055398293
0001e0 84 72 25 3b 04 e7 ae bc bb a9 31 3c 61 f5 a8 bc
       0.0025245259 -0.021350391 0.01084369 -0.020624818
0001f0 d5 a1 a3 3d 4e bc 00 bc f7 22 9c 3d b1 e1 a4 bd
       0.079898514 -0.007857395 0.076238565 -0.0805086
000200 c7 02 c4 bd 48 73 21 bc b9 e3 df 3d 9d 8f 1c 3e
       -0.09570842 -0.009854145 0.109321065 0.15289159
000210 3b 02 f0 3d 4f 89 ed 3d ff bd 2a 3d 07 8e 02 bc
       0.117191754 0.11598455 0.0416851 -0.007968432
000220 6e 3e a3 bd e7 f1 06 be 2b 0e bf 3d e5 ca 50 bc
       -0.07970892 -0.13178216 0.09328874 -0.012743686
000230 16 57 ac bc 75 66 b5 bd 09 77 2e bd 40 2e e3 3d
       -0.02103762 -0.08857433 -0.04259399 0.11092806
000240 13 fe e9 3d d4 8f cf bd 85 c8 90 3d 3c 2e ee bc
       0.11425414 -0.10134855 0.07069496 -0.02907478
000250 0d d1 eb 39 f8 c4 c6 3d 34 d3 46 3d 46 5d d3 bd
       0.00044978448 0.097055376 0.048541263 -0.10320525
000260 ae 20 de 3d f9 f5 03 3b fb 14 41 bd 64 d9 0b 3e
       0.10846077 0.0020135625 -0.04713915 0.13657147
000270 8a a8 85 bd 5b be c2 3d da 44 ca bd 9e e3 b5 bd
       -0.06526287 0.09508964 -0.09876414 -0.08881305
000280 10 32 de 3d d0 ba 71 3d dc f7 05 be d0 85 67 3c
       0.108493924 0.05901605 -0.13082832 0.0141310245
000290 46 e4 30 3d 58 67 98 3d 98 05 d1 3d ba 69 d3 3b
       0.04318645 0.07441586 0.10206145 0.0064518126
0002a0 29 9f ea 3d e7 c9 a8 bd d8 df 4e 3d 05 0f 41 3d
       0.11456139 -0.08241635 0.050506443 0.047133464
0002b0 b3 e9 e5 bb 8c 6a b4 bd 0f f1 0b be f1 ca 19 3d
       -0.0070163845 -0.08809385 -0.13666175 0.037547056
0002c0 f3 61 e9 3d 30 ab 35 bd 83 d2 8d bd 17 7a 09 be
       0.113956355 -0.04435271 -0.069249175 -0.1342548
0002d0 0c a2 ac 3d 23 2c b0 3d 24 b4 b8 bd c7 2b b9 3b
       0.084293455 0.086021684 -0.09018734 0.0056509706
0002e0 b6 bb a2 bc 44 b6 e9 3b e4 39 34 bd 6d ef 2c 3d
       -0.019864898 0.0071323235 -0.04400052 0.04222052
0002f0 ba 13 cc bd 70 23 d6 bd 46 d7 07 be f4 81 32 bd
       -0.099647 -0.10455978 -0.13265714 -0.043580964
000300 7d be 5f bd af 55 10 3e c8 57 e2 bb bc 4a f9 3d
       -0.054625023 0.14095186 -0.006907437 0.121724576
000310 0d 36 35 bd 1e 4e c9 bd 82 c4 3a 3d fa 62 2f 3d
       -0.044241 -0.09829353 0.04559756 0.042819
000320 9b e2 05 3e ef c4 a5 bd ed 82 ab bd 51 92 09 3e
       0.13074724 -0.08094203 -0.083745815 0.13434722
000330 e4 27 55 3e 77 af 14 3d 06 a0 4d bd 65 e5 d0 3d
       0.20815998 0.03630015 -0.05020144 0.102000035
000340 67 f9 f9 3c 31 32 24 3e 10 80 0a 3d 19 f9 08 bd
       0.030514432 0.16034772 0.033813536 -0.033440683
000350 35 f8 0c 3d 5f fe 72 bc e4 7a 6c 3d 81 9c 0b 3e
       0.034416396 -0.014831155 0.057734385 0.1363392
000360 17 22 f5 3c f1 6d 9e 3c e1 78 f2 3d 6a be 28 3e
       0.029923482 0.019339534 0.11839462 0.16478887
000370 a6 74 38 3d b2 11 b0 3b d5 b0 4f 3c 4c 66 2f bd
       0.04503312 0.005373203 0.012676437 -0.042822167
000380 6d 87 b9 3d bf d5 1d 3e 8c 95 96 bc b0 36 d7 3d
       0.090590335 0.15413569 -0.018381856 0.10508478
000390 e4 a7 31 3e 35 0c c9 bc 5e 15 b3 3d 7d 27 f3 3d
       0.17349201 -0.024541954 0.0874431 0.11872766
0003a0 9e 4b 16 3d 30 58 2b 3d 68 0d c2 3d 69 e0 81 3e
       0.036693208 0.04183215 0.09475213 0.25366524
0003b0 67 5a 03 3e 31 53 d0 3d de 05 5b 3d bb db 63 3e
       0.12827455 0.101721175 0.053472392 0.2225179
0003c0 8d 1a c3 bc 02 ee 6e 3d 03 d1 09 3e 1a 83 ad 3d
       -0.023816371 0.05833245 0.13458638 0.08472271
0003d0 0f 6c ef 3d ce 39 c6 3d f9 39 1e 3e 59 ce b5 3d
       0.116905324 0.09678994 0.15451802 0.08877248
0003e0 a3 51 8b 3b 81 2d d4 3d 09 d1 14 3e fd 87 aa 3e
       0.004251675 0.10360242 0.14532866 0.33306876
0003f0 18 27 14 3e cf f8 4f 3e b3 00 fb 3c 8d 72 81 3c
       0.14468038 0.20309757 0.030639982 0.015801692

rnn.bias_hh_l0 f4 [256]
000000 75 d8 d2 3c 9f 7b 1a 3e 63 e3 40 bd ce 32 31 bd
       0.02573798 0.1508622 -0.047091853 -0.04326134
000010 2c 39 fe 3d cf 4d 33 3d ed 18 dd 3d 44 91 d2 3d
       0.124132484 0.043775376 0.1079577 0.102816135
000020 c5 f5 08 bc f6 37 e0 bc da 52 c4 bd 96 3f ac 3d
       -0.008359377 -0.027370434 -0.09586115 0.084105656
000030 a8 62 58 3e f6 dc 87 3d d5 90 07 3e 1d b2 6f 3d
       0.21131384 0.06633942 0.13238843 0.05851947
000040 8f 50 82 3d 61 c8 d0 3d 4a c2 d9 3d db 97 81 bd
       0.063630216 0.10194469 0.10632761 -0.06327792
000050 04 9c 0e 3e 21 f8 cb 3c 3d 18 ed 3d d6 53 e8 3d
       0.13926703 0.02489859 0.11576889 0.113441154
000060 66 d9 df 3d d3 3a 71 3e ac 39 6e 3d 7e 79 5e 3d
       0.10930137 0.23557596 0.05816047 0.054315083
000070 69 e2 d6 bc e1 d5 a7 bd d8 1c 4b 3e 27 a6 c2 bd
       -0.026231008 -0.08195091 0.19835222 -0.09504347
000080 f2 69 67 bd f8 a9 2d 3e eb 99 67 bd ff 5c 69 3e
       -0.05649752 0.16959369 -0.056543272 0.22789381
000090 6e bd 70 3e bf f9 19 3c 54 f5 a1 bd 7f c2 1f 3e
       0.23509762 0.009397923 -0.07908121 0.15601538
0000a0 fd 61 2f 3d da d3 06 3c 41 4c 6b bd e5 14 81 3e
       0.04281806 0.00822922 -0.05744577 0.25211254
0000b0 66 2d 23 bd 03 e5 f8 bc 33 2c a1 3d 4a 3b 26 3e
       -0.039838217 -0.030382639 0.078697585 0.16233554
0000c0 a6 b5 1b 3e 15 51 65 3d 55 82 bf 3d 21 26 c9 3d
       0.15206012 0.05598553 0.09351031 0.09821726
0000d0 c7 8c 4d bd 6e 67 93 3d 54 15 1f 3d ce 8b 60 bc
       -0.050183084 0.07197462 0.0388387 -0.013705207
0000e0 4e 99 86 bc 82 8d 52 3d 1b 3d fd 3d a2 de 9b 3e
       -0.016430523 0.051404484 0.123651706 0.30443293
0000f0 b0 75 0a bd 0b 7f 81 3e a5 29 95 3d 7d 24 f8 3d
       -0.03380364 0.2529224 0.07283334 0.121163346
000100 04 71 4d be aa 08 fb 3d 23 74 e8 bd 23 a1 ee bd
       -0.20062643 0.12257512 -0.11350276 -0.11651828
000110 36 7e 9c 3d b1 cf 62 bd 2f 99 b8 3d 5b 8f cb bd
       0.0764126 -0.05537385 0.090135925 -0.09939452
000120 0e a5 f1 3c 74 1a f2 bd aa eb 14 3d ad e9 cd bd
       0.02949765 -0.11821452 0.03635756 -0.10054336
000130 28 99 bf bc 12 be ac bc 67 86 8c 3d df 53 18 bd
       -0.02338846 -0.021086726 0.06861573 -0.03718936
000140 9c 2b 98 bd 67 81 19 bc a0 63 91 bc d9 94 e2 3d
       -0.07430193 -0.009369231 -0.0177477 0.11063547
000150 14 0d 9b bb 58 e2 fa bd d6 b3 47 be 58 8e 15 3d
       -0.0047317836 -0.12250203 -0.19502196 0.036512703
000160 bc f2 d9 bd 26 d1 8e bd 5c 6f 82 bc 40 be 88 3d
       -0.10642001 -0.06973486 -0.01592224 0.06676912
000170 21 a2 ae 3d a6 55 4a bc 3e 24 a9 3d 78 e1 a6 bd
       0.085270174 -0.012349522 0.08258866 -0.081484735
000180 d2 87 a8 3d fa 94 a5 bd 26 91 3e bd 23 20 1a 3d
       0.08229031 -0.08085056 -0.046525143 0.037628304
000190 1d 8e 9c 3c 49 8e 15 bd 4c cc 5b bd b2 7f a7 3b
       0.019110734 -0.036512647 -0.05366163 0.005111658
0001a0 c1 56 9c bc 6e 2c f8 bd 28 02 15 be 91 40 35 bd
       -0.019084336 -0.12117849 -0.14551604 -0.04425103
0001b0 29 bb 00 3d 2b 1b 4b bd 58 63 05 bd f9 46 d5 bd
       0.03142849 -0.049586456 -0.032565445 -0.104139276
0001c0 89 af 4c bd 72 27 40 bd 9f 81 f8 bd d5 ea 8f 3d
       -0.04997209 -0.046912618 -0.12134098 0.070272125
0001d0 4a 5e 0b be a8 57 30 be 92 68 97 bd 13 7a de 3d
       -0.13610187 -0.17220938 -0.07392992 0.108631276
0001e0 0d d0 4c bd 0c 7e a7 bd 34 69 04 3b e6 bc bf 3d
       -0.0500031 -0.081783384 0.0020204308 0.093622014
0001f0 0a 69 e3 3d 2d e7 26 be d1 d8 f0 3d d8 9b 00 3d
       0.11104019 -0.16299124 0.117601044 0.031398624
000200 ad 65 d1 bd a9 5f 3c 3d ad cf 11 bd 28 a3 26 3e
       -0.10224471 0.045989666 -0.035598446 0.16273177
000210 2d c5 d6 3b 31 b9 f3 3d 91 6a 56 bd e5 34 b1 bd
       0.006554267 0.11900557 -0.052347723 -0.08652667
000220 a6 94 d7 bd d4 2f 0b be 32 1f 01 3e 94 58 b6 3d
       -0.10526399 -0.13592464 0.12609556 0.08903614
000230 5a 4d f6 bc fd c0 c2 bd 93 8c c3 bd 10 ee e0 bd
       -0.030066181 -0.09509466 -0.09548297 -0.10982907
000240 15 a9 22 3e a1 ae ea bb a4 63 ea 3d 73 be ef 3d
       0.15884812 -0.0071619307 0.11444786 0.11706247
000250 95 c1 18 be 04 d8 82 3c d5 4b be 3d 6e 04 85 bd
       -0.14917596 0.015972145 0.092918076 -0.064949855
000260 fb ec 91 bc 42 b6 09 bd 9b 7e 62 3d d3 4b 64 bc
       -0.017813196 -0.03362108 0.05529652 -0.0139340935
000270 47 95 85 bd a4 f9 18 3e ff 48 88 bc 1b 41 00 be
       -0.06522613 0.1493898 -0.01663637 -0.12524836
000280 07 6f 85 3d 51 2a b1 bd 22 8c d0 bd 2b 94 83 bd
       0.065153174 -0.08650649 -0.10182978 -0.06424745
000290 0c 49 60 bd 77 15 dd 3d 09 8d 11 3e ad 14 1a bd
       -0.054757163 0.1079511 0.14213957 -0.037617374
0002a0 86 50 29 bd cb 60 9d 3b 19 5c 78 3d 31 01 75 bc
       -0.04133656 0.0048027984 0.060634706 -0.014953897
0002b0 28 bf 08 3e 04 06 9e bd 56 2b dc bd f3 5d e8 3c
       0.1335417 -0.07715991 -0.10750453 0.028365111
0002c0 a2 59 b6 3c dc b7 ca 3d fa a5 e0 bd b7 97 18 bd
       0.022259537 0.0989835 -0.109691575 -0.03725406
0002d0 3e aa d9 3d dd 2f 0f 3e 03 81 04 be 0c af 90 3d
       0.10628174 0.13983102 -0.12939839 0.070646375
0002e0 cb e9 07 3e 0e a1 8a bd a7 d0 6d bd 21 ca 8b bd
       0.13272779 -0.06769 -0.058060315 -0.068256624
0002f0 e8 9d d3 3b 06 72 8c 3d fd ce 85 3d 90 3f cc bd
       0.006458033 0.06857686 0.065336205 -0.09973061
000300 78 3c 87 bd d8 d3 23 3e fa ac c4 3b fc 1e 01 3d
       -0.066033304 0.1599878 0.0060020657 0.03152369
000310 4f 0c f0 3d 58 cf 04 3d 56 57 fc 3d 82 81 71 3d
       0.11721098 0.0324243 0.123213455 0.0589614
000320 9a a6 4b 3d 84 91 6e bc 42 b7 25 bc 60 56 c2 3d
       0.04971943 -0.014561061 -0.010114493 0.09489131
000330 80 bd 89 3e e1 0b 0b 3e 02 44 ae bc af 4a 12 3d
       0.2690239 0.1357875 -0.021272663 0.035715755
000340 11 ed 1b 3d e7 d3 1f 3e b0 51 0e 3e c9 40 d0 3d
       0.03806788 0.15608178 0.13898349 0.10168607
000350 d5 e4 97 3d 18 e4 3b 3e d9 89 a7 3d 36 ef b2 3c
       0.07416693 0.1834873 0.08180589 0.02184258
000360 b6 85 97 bd e2 e5 04 3e e8 7d 98 3e d8 15 73 bd
       -0.0739855 0.12978318 0.2978356 -0.059347004
000370 03 a7 fc 3d ec 4f 57 bd 1b 24 8e 3d 79 75 a6 3d
       0.123365425 -0.052566454 0.0694048 0.08127875
000380 be f8 07 3e c5 0e 08 3e e9 2d 29 3e 27 a8 6a 3e
       0.13278481 0.13286884 0.1652142 0.22915708
000390 f9 72 91 3d 6a a9 41 3e 8a 05 39 3d 28 46 70 bc
       0.071020074 0.18912283 0.045171298 -0.014665164
0003a0 27 45 84 3d 37 31 06 bc 65 a2 6c 3d ec f0 23 3e
       0.06458502 -0.008190445 0.05777206 0.16009873
0003b0 35 a6 8d bd 1f 18 c0 3d 71 3b 75 bc 5c 9a 7d bc
       -0.06916467 0.09379601 -0.014967785 -0.015478697
0003c0 e6 db 2c bd 1c ef 93 3d 0e 7a e4 bc 50 2b d2 3d
       -0.0422019 0.07223341 -0.027890231 0.102621675
0003d0 6d 03 b3 3c e8 84 c8 3d 4d db 93 3d 9f 5e a0 3c
       0.02185222 0.09790975 0.07219563 0.019576369
0003e0 53 b6 1f 3d c9 97 38 3e af 43 5f bd e9 f1 a1 3e
       0.038992237 0.18026651 -0.054507907 0.31629875
0003f0 19 da d5 3c a2 0b a4 3e 11 28 be 3d a8 56 f3 3c
       0.026104974 0.32040125 0.09284986 0.029704407

rnn.weight_ih_l1 f4 [256, 64]
000000 cd db 49 bd 3c fe 29 3e 85 45 f9 3a d8 99 86 bc
       -0.049281884 0.16600889 0.0019017911 -0.01643078
000010 43 fd 2b 3c bc b7 ba 3d 65 70 a4 3d 64 e1 78 bd
       0.010497394 0.09117076 0.0802925 -0.060761824
000020 64 7b 64 bc 93 4d b7 3d e5 df dd bc 21 c7 41 3e
       -0.013945434 0.08950343 -0.0270843 0.18923618
000030 b5 c9 4b 3e 18 d6 1f 3d 0b 84 62 3d e4 f2 29 be
       0.19901164 0.039022535 0.055301707 -0.16596562
000040 95 1e 99 bd 79 3c 34 bd a3 1f 71 3d 92 62 cc 3d
       -0.07476536 -0.044002984 0.05886806 0.09979738
000050 14 d3 96 3c 74 c7 6d 3d 2f 4a 90 bd 13 cc d4 bd
       0.018411197 0.05805154 -0.070453994 -0.103904866
000060 95 af f1 bc 41 12 d0 bd 26 73 9d 3c da 92 34 bd
       -0.02950267 -0.10159732 0.019219946 -0.04408536
000070 f1 a5 66 3c 5e 4c 84 bd d4 cd b7 bd 89 da 5a 3d
       0.014077649 -0.064598784 -0.089748055 0.053431068
000080 6f f5 a1 3d fd 81 e8 3c bd 0b 9d 3d cf 79 55 3e
       0.07908141 0.028382296 0.076682545 0.20847248
000090 d4 7f 68 3e 67 73 a2 bd 3d e2 ed 3d ff 6b 10 3d
       0.22705013 -0.079321675 0.11615417 0.035259243
0000a0 17 1a 0d 3e e4 e7 a8 bb fb be d9 bc 5a 11 b6 3d
       0.13779484 -0.0051545966 -0.026580324 0.08890028
0000b0 c0 9a 1d bd cb af 02 be dc b1 45 3d cf 46 da 3d
       -0.03847766 -0.12762372 0.048265323 0.10658037
0000c0 15 01 2c bd 25 8f e9 3c d9 46 cc bd 98 f5 37 3c
       -0.04199322 0.02851064 -0.099744506 0.011227988
0000d0 7a 94 64 bd 82 3a 16 3e 09 1a c0 bc c9 a0 3d 3e
       -0.05580566 0.14670756 -0.023449915 0.18518366
0000e0 2b a7 d1 3d 3e 40 43 be fd 9e d3 bd 64 75 43 3e
       0.10236963 -0.19067475 -0.10333059 0.1908775
0000f0 85 27 32 be e2 cd 91 3e 01 e9 93 bc 26 61 70 bd
       -0.17397888 0.2847739 -0.01805544 -0.058686398
000100 09 7f 25 be 12 48 6e 3e 5d 48 e1 3d 19 aa 6e 3e
       -0.16161741 0.2326968 0.1100013 0.23307075
000110 f1 45 6b 3e fb 1f 7c 3d bc e2 c0 3d 05 b0 6a be
       0.229759 0.061553936 0.09418246 -0.22918709
000120 dd 2d c8 bd 68 e5 5f bd 81 aa e2 3d ba 24 78 3e
       -0.09774373 -0.05466214 0.11067677 0.2423276
000130 66 fc 0c 3c 64 fa 42 be 8c 01 84 be 27 07 21 be
       0.008605098 -0.19040829 -0.2578243 -0.15725385
000140 01 c6 bf 3d 45 db 12 bd 0e 5d 2b 3e cd f9 dc 3d
       0.09363938 -0.035853643 0.16734716 0.10789833
000150 4f a3 c0 bd 76 40 9e 3d 0d b3 39 3e ac 15 83 bd
       -0.09406149 0.07727139 0.18134709 -0.06400618
000160 da 2e e9 3d f1 12 88 be 2b 63 33 3e cd 99 0d 3e
       0.11385889 -0.2657695 0.17518298 0.13828202
000170 b9 44 37 bd 68 02 10 3e b9 5c c5 bd 03 e8 16 be
       -0.044743273 0.14063418 -0.09636826 -0.14736943
000180 99 ac 64 3e 69 ad 82 3e 8c a8 88 bd 3b 00 c1 bb
       0.22331466 0.25522926 -0.06672773 -0.00588992
000190 3a ae 7f 3e a2 82 49 3e d0 f3 e6 3c f3 27 be bd
       0.24968806 0.19678739 0.02819243 -0.092849635
0001a0 cf e8 31 3d cb ce 7c be 1f 88 f7 3d 01 7a 96 3e
       0.043434914 -0.2468826 0.1208651 0.29389957
0001b0 41 79 ee 3d e9 d8 56 be 87 a6 f3 bc 72 1e 80 3d
       0.11644221 -0.20981182 -0.029742492 0.06255807
0001c0 c8 e0 05 3e 1a 2f 56 3d fc ee 8d bd 88 e9 06 be
       0.13074028 0.052291013 -0.06930348 -0.13175023
0001d0 da 9f 6c 3e b1 6b f5 3d 51 92 86 bd 06 e4 93 3e
       0.23107854 0.11983431 -0.065708764 0.28884906
0001e0 db fb 0a 3e 39 8d 64 be a7 60 8d be 58 cb 0c 3e
       0.13572638 -0.22319497 -0.27612802 0.13749444
0001f0 ec 22 50 be 56 df 23 bc 23 d0 dd bd 46 6f 49 be
       -0.20325822 -0.010001978 -0.108307146 -0.19671354
000200 c3 64 49 3d 21 5d 92 3d f7 bd e6 bd 8d eb fb 38
       0.04916836 0.07146669 -0.11266702 0.000120124874
000210 37 78 04 bd 57 0c 77 3a a9 3b 75 3e 5b f8 03 be
       -0.03234121 0.0009424141 0.2394854 -0.12887709
000220 ec 3c 02 3d d3 87 02 be 73 ec b5 bd 52 d0 ae 3d
       0.03179638 -0.12747125 -0.0888299 0.08535828
000230 3c 38 94 3e 33 a4 87 bb 23 10 42 3d 53 09 83 bd
       0.28949153 -0.004139447 0.04737867 -0.06398263
000240 6e e4 9e 3d 39 95 33 bc b1 93 41 3e d9 9c 27 3e
       0.07758413 -0.01096087 0.18903996 0.16368426
000250 fd cd 63 bd d2 b6 32 3c 83 4e 94 bd 27 66 26 bb
       -0.055616368 0.010907846 -0.072415374 -0.0025390477
000260 15 a7 9b 3d 07 4b 50 be 45 c8 47 3e c7 72 f8 bc
       0.07600228 -0.2034112 0.1950999 -0.030328168
000270 b6 7b 97 bd b4 90 99 bd b7 ca 10 be 56 97 17 be
       -0.07396643 -0.07498303 -0.1413983 -0.14803824
000280 93 e8 10 3e 1f 01 d4 3d f0 d5 86 3d 43 92 2a 3e
       0.1415122 0.10351776 0.06583774 0.16657357
000290 c7 c5 13 3e 74 f1 80 3d 2a a7 22 3b f2 77 0c bd
       0.14430915 0.062960535 0.0024818876 -0.034294076
0002a0 b4 27 08 ba a8 86 f1 bd c3 1e cf 3d db 72 8a 3e
       -0.00051939045 -0.11793262 0.10113289 0.27040753
0002b0 ab 72 ef bc 59 f5 1a be 2c 96 26 be 4f b3 e2 3d
       -0.029229483 -0.15132655 -0.16268224 0.11069357
0002c0 06 c3 59 3e e4 46 a5 3d 87 dc 35 be 52 d1 9a bd
       0.21265802 0.08070162 -0.17759906 -0.07559456
0002d0 86 af 73 3c cc e2 e6 3d 59 d4 df bd 4f ee 9d 3d
       0.014873391 0.11273727 -0.10929174 0.077114694
0002e0 e6 46 4f 3e bb 35 37 be e2 da c6 bc 26 cf 1f 3e
       0.2024189 -0.1789159 -0.024274293 0.15606365
0002f0 07 0a ff bd 8c 7c 8f 3d df 5c 69 bd e1 2a 26 be
       -0.124530844 0.07006177 -0.056973334 -0.16227295
000300 a4 12 10 3d c4 ee 18 3e de 22 81 bd 69 30 0b bd
       0.035174027 0.14934832 -0.063054785 -0.033981714
000310 ad 24 32 3e 4a 66 98 3d 47 1e ab 3d 6a 5e 70 bd
       0.17396803 0.07441385 0.08355384 -0.05868379
000320 e5 1a 0d 3d d5 39 11 3d c9 a6 21 3d 3b 2c 05 3e
       0.034449477 0.035455544 0.0394657 0.13005154
000330 2f 49 44 3e 24 1f 26 be be 4e ae bd c9 04 d8 bd
       0.19168542 -0.16222817 -0.08511113 -0.10547788
000340 fa e6 74 bd db f4 d0 3b 24 f3 15 3d a6 8e 1c 3e
       -0.05979059 0.0063768453 0.03660883 0.15288791
000350 73 03 10 3e 09 2f 08 3e 14 13 74 3d 55 6e f2 bb
       0.14063816 0.13299192 0.059588507 -0.0073984065
000360 fd 24 18 3d ee 89 6b be 4d 0f 1e 3e 56 f8 69 bd
       0.03714465 -0.23001835 0.15435524 -0.057121597
000370 e5 4a 86 bd c8 47 77 3a 88 d8 de bc fd fb 0f be
       -0.06557254 0.00094329985 -0.02720286 -0.1406097
000380 fe 8d 3e bd b8 4e c0 3d b0 df 60 bc 26 7b 22 3e
       -0.046522133 0.093900144 -0.013725206 0.1586729
000390 cf 8c 3a 3e 27 9b 3f 3d c1 59 be bd 77 b0 3c bc
       0.18217777 0.046778824 -0.09294463 -0.011516682
0003a0 20 13 28 3e 06 f0 53 3d 89 16 1e 3e 10 32 6c 3e
       0.16413546 0.051742576 0.15438284 0.23065972
0003b0 a1 b2 9a 3d 9c 30 17 be 99 99 52 bd ba 75 2b 3d
       0.07553602 -0.14764637 -0.051416013 0.04186032
0003c0 83 31 a5 3d 1f 61 69 3d 6a c9 17 be 13 12 26 bd
       0.08066084 0.056977388 -0.14822927 -0.04054458
0003d0 33 3d 6c bc da 0a 72 bd 3d 73 ec bd 85 f0 bf 3c
       -0.014418888 -0.05909238 -0.115454175 0.023430118
0003e0 d1 1d 55 3c a4 44 16 be 90 1e e4 bd ee 7c 98 3e
       0.013007597 -0.14674622 -0.11138642 0.29782814
0003f0 04 60 af bd 99 bb 92 3e 90 7e 29 be b3 32 16 3d
       -0.085632354 0.2865875 -0.16552186 0.036669444

rnn.weight_hh_l1 f4 [256, 64]
000000 77 4c 5c bd a6 2b de bd 05 31 57 bd 2a 7d b5 3c
       -0.05378386 -0.10848169 -0.052536983 0.02215441
000010 2a 5c 9f bd 5a 42 95 3d 45 57 34 bc 5d 59 74 bd
       -0.07781251 0.07288046 -0.011007135 -0.059655536
000020 e1 1a 80 3c 4e cf 8f 3c ca 7b 7c bd b5 81 49 3b
       0.015637817 0.017554905 -0.061641492 0.0030747477
000030 85 3b 99 bd 2c 7c b0 3d d6 dc f7 bd 91 ea 1a bc
       -0.074820556 0.08617434 -0.12102668 -0.009455339
000040 2a 55 92 bd 82 73 64 3d 2b 82 a6 bd 5c 60 08 3c
       -0.0714515 0.05577422 -0.08130296 0.008323755
000050 be 2b 1e bd 8b 39 cd bd ae ba f0 bd 3a 4c bd bd
       -0.038615935 -0.10020741 -0.11754356 -0.09243055
000060 74 b3 8b bd 74 2a a1 bc a9 08 92 bd d6 e7 a7 bd
       -0.06821337 -0.019673564 -0.07130558 -0.08198516
000070 8a a0 01 be ad fa 4e 3d 4d e8 0f 3d 68 1b c0 3d
       -0.12658897 0.05053203 0.03513365 0.09380227
000080 e2 8b 81 3d df 3c 16 3d 30 1c 59 3d e1 09 b1 bd
       0.06325509 0.036679145 0.053005397 -0.086444624
000090 74 2d 33 bd 13 bc ee 3d 86 75 34 3d 2b b4 ba 3d
       -0.04374452 0.11656966 0.04405739 0.091163956
0000a0 f8 94 c5 3c 8c 8a bf 3b d3 14 1a bd 12 3b 89 3d
       0.024118885 0.0058453735 -0.037617516 0.0670072
0000b0 23 54 35 bd 56 fd 12 3e 3f 9d a0 3d a5 44 59 3d
       -0.044269692 0.14354452 0.07842492 0.05304398
0000c0 b1 1b 9d 3d be c9 af 3b e1 f9 20 3e 39 8c 36 3c
       0.07671297 0.0053646257 0.15720321 0.01114183
0000d0 8c 93 2b be 54 c5 87 3d 55 ac 9c bd db 88 cd bd
       -0.16755503 0.06629434 -0.07650057 -0.10035869
0000e0 7c 87 41 bd 10 d8 c6 3c 3b f2 cb 3d 46 82 fa bc
       -0.04724835 0.024272949 0.09958311 -0.030579697
0000f0 1a 48 4e 3d 5e 92 00 3e c4 dd e2 bd 0a 09 52 bd
       0.05036173 0.12555835 -0.11077455 -0.05127815
000100 15 6a 64 3e e5 b4 b0 be 8a 22 38 be da 31 44 3e
       0.22306092 -0.34513012 -0.17981926 0.19159642
000110 c8 49 74 be 60 a2 ca bc aa d4 e1 bd dc ba d6 bc
       -0.2385627 -0.02473563 -0.110268906 -0.026212148
000120 9d 0d 38 be 7c cd 0d 3e e2 c7 f3 3d 96 f6 f9 3d
       -0.17973943 0.13847917 0.11903359 0.12205236
000130 23 b6 44 3e 88 26 00 3e f2 5d 6d 3e 86 23 0c 3e
       0.19210105 0.12514699 0.23180369 0.13685426
000140 b6 52 83 3c 86 64 d6 bb 93 3e 1b 3e e6 ab 29 3d
       0.01603065 -0.006542745 0.15160589 0.0414237
000150 36 c9 0d 3e 55 43 28 be 16 a1 1e 3e a3 88 75 3e
       0.13846287 -0.16431935 0.15491137 0.23977904
000160 d3 4b 63 bd 6b 83 5d 3c 72 b7 b5 bd 88 10 31 3d
       -0.055492233 0.013520102 -0.0887288 0.043228656
000170 93 0e 8a 3e c3 53 c7 bd ee 7b e8 bd b5 8b f8 3c
       0.26964244 -0.09732773 -0.11351763 0.030340055
000180 4b b2 74 3e 25 b4 fc 3d d8 75 ee bd 61 7b c4 bd
       0.23896138 0.12339047 -0.11643571 -0.09593845
000190 2e f3 3b be e4 f6 eb 3b 12 35 50 be 4c ee 81 3a
       -0.18354484 0.0072010625 -0.20332745 0.0009912937
0001a0 9a ab 05 bd ac 23 83 3e c2 52 87 be 7d c2 2c 3e
       -0.032634355 0.25613153 -0.26430327 0.16871066
0001b0 e9 a2 47 3e cb c4 d6 bc a1 ff 78 3d 8d f3 a4 3d
       0.19495739 -0.026216885 0.06079066 0.08054266
0001c0 38 43 6f bd a5 87 9d 3d 12 b2 49 bd cd 3b 30 be
       -0.058413714 0.07691888 -0.049242087 -0.17210312
0001d0 ca 39 80 3e d2 c9 0f bd d1 d6 e9 3d 64 40 80 bd
       0.2504409 -0.03510458 0.11417926 -0.062622815
0001e0 03 2d 25 3e 43 ce ce 3c b9 a5 c7 3d 19 f7 32 3e
       0.16130452 0.025244838 0.09748406 0.17477073
0001f0 2d 9c 68 3e e4 45 8a be fd ed 2d 3d c2 8f 02 3e
       0.22715826 -0.27006447 0.04246329 0.12750152
000200 bd 29 fc bd e2 6a 0e be 48 66 fc bc 68 3f 62 3d
       -0.123126484 -0.1390796 -0.03081049 0.05523625
000210 c7 1b 89 bd f6 1b 2b bd 23 02 d6 bd c1 ab 84 3d
       -0.06694751 -0.041774713 -0.10449626 0.06478072
000220 10 80 17 bd c2 62 80 3d b3 22 c7 bd 3c c1 3e bd
       -0.036987364 0.062688366 -0.09723415 -0.046571
000230 e7 95 82 bc d2 c1 37 3d e5 7b a5 bc 04 83 9e 3d
       -0.01594062 0.044862576 -0.02020068 0.07739833
000240 ed a9 cf 3d c1 63 15 3d 06 10 f0 3c 3f 72 77 3c
       0.10139833 0.036472086 0.029304516 0.015102922
000250 f0 f4 63 bd 7e 83 6b 3b 96 aa 1a be 7f 06 c7 bd
       -0.055653512 0.003593653 -0.15104136 -0.09718036
000260 5c 3f ca 3d d4 6e 43 be 85 2a 5c 3d 50 c8 db bd
       0.09875366 -0.19085246 0.053751487 -0.10731566
000270 c4 8c 82 bd 99 21 af 3d b4 74 6e bb 8c 04 b2 3d
       -0.06374505 0.0855133 -0.0036385478 0.086922735
000280 3b f5 45 bd 08 0c 51 3c 08 7f 37 3d 8d 50 ee bc
       -0.048329573 0.012759216 0.04479888 -0.029091144
000290 e3 55 ef 3d fb b4 15 bd 77 b6 70 bc a0 68 bf 3c
       0.116863035 -0.03654955 -0.0146919405 0.023365319
0002a0 dd 60 19 bc 5c a6 85 3d 23 f5 c9 bd b7 32 1a bd
       -0.009361473 0.06525871 -0.09861209 -0.03764602
0002b0 12 70 b2 3d b2 0a 99 bb 2d 24 8d 3d 2b 16 fc bb
       0.08712782 -0.0046704644 0.068916656 -0.0076930723
0002c0 bf 33 c8 bd 07 c9 62 3d 95 30 3f 3d 3f 40 35 bc
       -0.09775495 0.055367496 0.04667719 -0.011062681
0002d0 e7 b4 2b be a2 ae 25 3a a2 58 35 bd 2e 3e 9f 3c
       -0.16768228 0.0006320273 -0.04427398 0.01943883
0002e0 38 5f a8 bd 72 69 cc bd d7 91 b8 3d 4c e9 24 bc
       -0.082212865 -0.099810496 0.09012192 -0.010065388
0002f0 98 86 a5 3d 15 f0 82 bd 62 70 86 bd b3 91 55 3d
       0.08082312 -0.06393448 -0.06564404 0.052140903
000300 c9 33 e4 3d 49 d0 fe bc c2 90 94 bd 7f af a5 bd
       0.1114269 -0.031105177 -0.07254173 -0.08090114
000310 cd b4 f3 3d 69 2e 4f 3d 13 98 39 3b 68 28 75 bd
       0.118997194 0.05058137 0.0028319403 -0.059852988
000320 e9 3e db bd 1c 01 96 bc 3a 71 4f bd 74 e0 33 bd
       -0.107053585 -0.018311076 -0.05064509 -0.043915227
000330 96 a8 80 3d 62 95 04 3e 1f e3 36 3d 6e fc 40 bb
       0.06282155 0.1294761 0.044650193 -0.0029447335
000340 9f aa 85 3b c6 40 e4 bd dc 89 fd bd 7a b0 0a bd
       0.0040791775 -0.11145167 -0.1237981 -0.033859707
000350 d7 ab c5 bd f1 fb cd 3d dc e2 c7 bb 2f aa d2 bd
       -0.096519165 0.1005782 -0.006100042 -0.10286366
000360 b7 e0 af 3d ff 6e 1a be bb ac 00 be 7a 67 76 3d
       0.08587783 -0.15081404 -0.12565891 0.060157277
000370 ef e8 d4 bd ff f1 22 bd 4e 28 10 be 00 f9 63 3c
       -0.10395991 -0.039781567 -0.14077875 0.013914347
000380 2f 65 d6 3b a6 79 d5 bc 0f 08 ab 3b 77 b8 05 be
       0.0065428237 -0.026058983 0.0052194665 -0.13058649
000390 64 44 5d bd 81 51 01 be 41 a5 68 bd f0 e1 06 3c
       -0.0540203 -0.12628748 -0.056798223 0.008232579
0003a0 be a8 a1 bd 44 c9 9f 3d e6 4a 2c bd 91 f1 70 bd
       -0.07893513 0.0780206 -0.042063616 -0.058824126
0003b0 6b 70 6c bd 79 5e b7 bd 6e f3 7c 3d 3c 11 89 bd
       -0.057724398 -0.08953566 0.06175559 -0.0669274
0003c0 08 ec 9a 3d c8 78 c5 3d ba df 7e bd 68 54 ef 3d
       0.07564551 0.09642178 -0.06222508 0.11686021
0003d0 1c c5 ee bd d8 9c 66 3d d1 37 f9 3d 1d 19 4a bd
       -0.116586894 0.05630192 0.12168849 -0.049340356
0003e0 71 4b fc bc d7 5a e0 3d c9 70 ac bd ec 1c 18 bc
       -0.030797692 0.10954826 -0.084199496 -0.009284239
0003f0 ea 2c a8 3d 0b cd e8 3d cc 88 06 be 5f 76 9e 3d
       0.08211692 0.11367234 -0.13138121 0.07737421

rnn.bias_ih_l1 f4 [256]
000000 e6 b8 31 bc 0a 36 81 3e ca d7 c6 3d ba 70 17 bd
       -0.010847306 0.2523654 0.09709127 -0.03697274
000010 df f4 6e 3d 6e ec 86 3d 30 18 16 bd 5c 8a 07 3e
       0.058338996 0.06588064 -0.03664416 0.13236374
000020 9e d0 25 3e ef 1d d8 3d 1e ce a3 3d 86 ba 53 bd
       0.16192862 0.105525844 0.07998298 -0.051691554
000030 90 38 82 3d 24 3a 91 3d 0f f2 cc bb 38 43 82 bd
       0.06358445 0.070911676 -0.0062544416 -0.06360477
000040 3d 7b 7c 3d 8d ae f4 bc 26 df 1b bd b6 6d 8a 3d
       0.061640967 -0.029868389 -0.038054608 0.06759207
000050 6f 8e 30 bd fb 9d 47 bd 5d 0f 09 bd 71 b1 09 3e
       -0.043104585 -0.048734646 -0.033461917 0.13446595
000060 45 d5 b5 3d 54 8a 14 bd 89 a5 21 bc dd d3 4e bd
       0.088785686 -0.036264732 -0.009866127 -0.050495017
000070 23 74 bb 3d 19 aa b8 3c 59 dd cd bd 5f c3 cc 3d
       0.09153011 0.022542046 -0.10051984 0.099982016
000080 eb fe 70 3c d4 af 84 3d af bf 66 bd e5 43 6d 3d
       0.014709215 0.06478849 -0.056335147 0.057926077
000090 95 af 87 3d c1 12 02 3e c0 56 ff 3d 3a f7 8d bd
       0.066252865 0.12702467 0.12467718 -0.0693192
0000a0 58 d2 f8 3c 56 f4 1c 3e 9a 7b 29 3d 44 42 5a bd
       0.030373737 0.15327582 0.04137764 -0.053285852
0000b0 80 7a 0c 3e 31 94 f9 3d 0b 7e cd 3d 6d 79 1a 3e
       0.13718605 0.121864684 0.100338064 0.15085383
0000c0 05 51 7b bc e7 63 b1 bc 63 93 23 3e 77 1d 8c bd
       -0.015339141 -0.021654082 0.15974192 -0.068415575
0000d0 04 8a 93 3d 97 d1 e6 3d 5e 99 93 bd ef c3 ca 3d
       0.07204059 0.11270445 -0.07206987 0.099006526
0000e0 df f6 14 bd ec f1 9e 3d 1a ef 1f 3e ce ac 0e bd
       -0.036368247 0.07760987 0.15618554 -0.03483277
0000f0 22 06 80 3d f4 ee 0b 3d 98 7c 44 3d b9 78 c0 3d
       0.0625117 0.03416343 0.047970384 0.09398026
000100 5e e1 26 3d 13 d4 85 bd cd bd 3b 3d c7 b6 a6 3d
       0.04074227 -0.065345906 0.045835305 0.08140331
000110 d1 7e 41 3d 2c ea ac 3b ba 1c 5d bc 4a 77 e4 3c
       0.047240082 0.005276939 -0.0134956185 0.027888913
000120 01 ed 8d bc e5 b8 f5 bc cf 16 aa 3d 25 25 61 3d
       -0.017324926 -0.029995391 0.08305132 0.054967064
000130 c8 22 5b be 23 0c c6 3d db 2b 2d 3b 79 0b 24 3d
       -0.21399987 0.09670284 0.0026423845 0.040050004
000140 c6 35 57 bd ce ef fb bd 80 c0 b3 bc 5d c1 8c bc
       -0.052541517 -0.123015985 -0.021942377 -0.017182047
000150 47 74 b0 bd 27 79 37 3d bc 1b 35 bd 05 25 b4 3d
       -0.08615928 0.044793274 -0.044215903 0.087961234
000160 25 28 eb 3d 6f d1 86 bd 8f ed f4 3c 94 26 ca bd
       0.11482266 -0.06582915 0.029898433 -0.098706394
000170 ec a6 b7 bd 47 b9 5b 3c 57 79 a1 3c 6f 86 a5 bd
       -0.08967385 0.013410873 0.01971118 -0.08082282
000180 33 73 fa bc ca 16 59 3c 71 57 15 3b c8 10 b6 bd
       -0.03057251 0.013250062 0.0022787715 -0.088899195
000190 79 be 07 be e9 47 87 3d 4c 2c 69 3c aa ee 73 bd
       -0.13256253 0.06605513 0.014231753 -0.05955378
0001a0 12 d5 5e 3d b2 19 c2 bc cc 21 b1 bd 29 f0 37 3d
       0.05440242 -0.023693893 -0.08649024 0.04490677
0001b0 e1 b2 6c 3d 70 28 98 bd 6e 4d e7 bd 44 71 22 be
       0.05778778 -0.07429588 -0.112940654 -0.1586352
0001c0 36 e3 18 3d e3 07 e9 3d 63 95 c8 ba 57 da 94 bd
       0.03732606 0.113784574 -0.001530331 -0.072682075
0001d0 14 75 1d bb c0 98 d1 3d 0b c1 99 bd af 25 bc 3d
       -0.0024026083 0.10234213 -0.07507523 0.09186875
0001e0 73 b7 09 bd 50 ff 9f ba c5 d9 f9 bd 48 7c da bd
       -0.033622216 -0.0012206826 -0.12199739 -0.10668236
0001f0 ae 9a f7 3b 47 78 7b 3d 4a 78 56 bb 00 8c 1b be
       0.007556281 0.061394002 -0.0032725506 -0.15190125
000200 7d 08 09 3e 97 36 29 bd 88 0e 8c 3d 38 24 a4 bb
       0.13382144 -0.041311827 0.06838709 -0.0050092004
000210 d0 17 90 3c ff 5e a7 bc ce e0 f0 3a 95 84 72 bd
       0.01758948 -0.02043104 0.0018377544 -0.05920847
000220 9c cd 10 be f8 12 c5 3d 28 e7 fb 3d 86 9e 52 3d
       -0.14140934 0.096227586 0.12299949 0.05142071
000230 15 51 c1 3d 66 4d 09 3e f9 41 d8 3d f4 14 0e bd
       0.09439293 0.13408431 0.10559458 -0.03468795
000240 8d 5d 61 3d 54 7b 1a be 4d 09 9f 3c c0 31 54 3c
       0.055020858 -0.15086108 0.019413615 0.012951314
000250 60 6b b6 bd 90 39 61 bd cf 0c 9e bd a3 75 bd 3d
       -0.08907199 -0.054986537 -0.07717287 0.09250953
000260 b4 a5 fd bd 8a b6 7d 3b 66 58 07 be d6 b9 88 3d
       -0.12385121 0.0038713538 -0.13217315 0.066760704
000270 ae 21 a9 bd b7 58 98 bc c3 40 10 bd 3a 51 16 3e
       -0.08258377 -0.01859699 -0.03521801 0.14679423
000280 a8 87 c8 3d ba 17 08 3e 5d ae 02 be 18 e8 de bc
       0.097914994 0.13290301 -0.12761827 -0.02721028
000290 09 bc e7 3c 0c fa e8 bd 60 40 a3 3d 7f 57 bb 3d
       0.028287904 -0.11375818 0.07971263 0.09147548
0002a0 32 9b 1b be 6a ec 32 bc 7e 29 32 3d 07 8b 98 3d
       -0.15195921 -0.010920623 0.0434966 0.07448392
0002b0 f7 d0 c1 3d be a7 86 3d 86 34 14 3e 39 7d 36 bd
       0.09463685 0.06574963 0.14473161 -0.044553015
0002c0 19 eb 12 be e4 f5 51 3d 03 26 a0 bc 1c f4 1e be
       -0.14347495 0.05125989 -0.019549375 -0.15522808
0002d0 f7 b8 dc 3c 67 3e 92 3d cc 99 77 3d b4 40 04 be
       0.026943667 0.071408086 0.060449407 -0.12915307
0002e0 c7 06 16 3e 47 8e f7 3d 79 1a 6e 3d b1 0e 93 3d
       0.14651023 0.12087684 0.058130715 0.071805365
0002f0 1b 00 af 3d 15 3d ad 3d cf 88 29 bd 45 c2 15 3e
       0.08544942 0.08458916 -0.041390236 0.14624889
000300 5d 11 4b bc f9 2a 3b 3e 3e e2 4f 3c da 39 ef bc
       -0.012394276 0.18278112 0.012688218 -0.02920239
000310 86 af bb 3d 2f 52 94 bd a9 8c 13 bd f6 d3 10 3e
       0.09164338 -0.07242238 -0.036022816 0.14143357
000320 b7 57 5e bd 37 d4 38 3e 19 e7 d7 3d e9 de 31 bc
       -0.05428287 0.18049704 0.10542125 -0.010856369
000330 0b 2b 28 3e 12 68 1d 3e c2 4b b5 3d b6 94 93 3c
       0.1642267 0.15371731 0.0885234 0.018015247
000340 c6 41 3e 3d dd d0 b5 3d d4 3d 04 3e 9d 8a 09 3d
       0.046449445 0.08877728 0.1291421 0.033579458
000350 9a f8 ed 3c 77 a3 51 3d 40 ef d4 3d fa 62 21 3d
       0.029049207 0.051181283 0.10397196 0.039401032
000360 b2 ec 95 bd ab ab 82 bd 3c a1 f0 3d c8 cb 8f 3b
       -0.07320537 -0.06380399 0.11749503 0.0043883063
000370 d3 3d ca 3d f6 d2 f3 bd e0 d6 52 bd 7a aa 85 bd
       0.09875073 -0.11905472 -0.051474452 -0.065266564
000380 67 42 d1 bc 66 8f 63 3d 00 af 0a 3d 7a bd bd 3d
       -0.025544358 0.055556677 0.0338583 0.092646554
000390 ce a0 c3 bc 2b b6 53 bd 73 0f 6d 3d ae 17 e0 3d
       -0.023880389 -0.0516874 0.05787606 0.109420165
0003a0 ec fc 86 3d 6f 54 4a 3d 50 e5 00 bd 6e 6c 42 3c
       0.0659121 0.04939693 -0.03146869 0.011866672
0003b0 a1 b3 64 3d f1 17 99 3d 44 90 ad 3d f3 22 94 bd
       0.05583537 0.074752696 0.08474782 -0.072332285
0003c0 bd 02 76 b9 c5 9d ba 3d b8 f5 d7 3d 17 0a 41 3d
       -0.00023461408 0.091121234 0.10544914 0.047128763
0003d0 71 22 01 3c ac 8b 03 bd da 8f 98 3d 7a 63 83 3d
       0.007881747 -0.032115623 0.074493125 0.06415458
0003e0 c1 1d 42 bd 61 ff 16 3e 19 da 98 bd 05 8c 04 3e
       -0.047391657 0.14745857 -0.07463474 0.12944038
0003f0 23 ef 1e 3e b7 7c 0d 3e ba 84 2d bd 6d 68 3b 3e
       0.15520911 0.13817106 -0.042362906 0.18301554
